[ScheduleSyncTensorsGraph]
TensorsGraphInfo:
  sync (/workspaces/torch/pytorch/xla/torch_xla/torch_xla.py:69)
  main (/workspaces/torch/playground/test_llm_offload.py:75)
  <module> (/workspaces/torch/playground/test_llm_offload.py:136)

Root Hashes: (7b6de7d6087b550c076f7c4809f8874a)

## BEGIN_GRAPH
HloModule IrToHlo.31, entry_computation_layout={(s64[], s64[])->(s64[16,512]{1,0})}

ENTRY %IrToHlo.31 (p0.1: s64[], p1.6: s64[]) -> (s64[16,512]) {
  %constant.4 = s64[] constant(2531011)
  %constant.2 = s64[] constant(214013)
  %p0.1 = s64[] parameter(0), sharding={replicated}
  %multiply.3 = s64[] multiply(s64[] %constant.2, s64[] %p0.1)
  %add.5 = s64[] add(s64[] %constant.4, s64[] %multiply.3)
  %convert.8 = u64[] convert(s64[] %add.5)
  %reshape.10 = u64[1]{0} reshape(u64[] %convert.8)
  %constant.9 = u64[] constant(0)
  %reshape.11 = u64[1]{0} reshape(u64[] %constant.9)
  %concatenate.12 = u64[2]{0} concatenate(u64[1]{0} %reshape.10, u64[1]{0} %reshape.11), dimensions={0}
  %rng-bit-generator.13 = (u64[2]{0}, u64[16,512]{1,0}) rng-bit-generator(u64[2]{0} %concatenate.12), algorithm=rng_default
  %get-tuple-element.15 = u64[2]{0} get-tuple-element((u64[2]{0}, u64[16,512]{1,0}) %rng-bit-generator.13), index=0
  %constant.7 = s64[] constant(0)
  %broadcast.27 = s64[16,512]{1,0} broadcast(s64[] %constant.7), dimensions={}
  %get-tuple-element.14 = u64[16,512]{1,0} get-tuple-element((u64[2]{0}, u64[16,512]{1,0}) %rng-bit-generator.13), index=1
  %p1.6 = s64[] parameter(1), sharding={replicated}
  %bitcast-convert.17 = u64[] bitcast-convert(s64[] %p1.6)
  %bitcast-convert.16 = u64[] bitcast-convert(s64[] %constant.7)
  %subtract.18 = u64[] subtract(u64[] %bitcast-convert.17, u64[] %bitcast-convert.16)
  %broadcast.19 = u64[16,512]{1,0} broadcast(u64[] %subtract.18), dimensions={}
  %remainder.20 = u64[16,512]{1,0} remainder(u64[16,512]{1,0} %get-tuple-element.14, u64[16,512]{1,0} %broadcast.19)
  %constant.21 = u64[] constant(1)
  %broadcast.22 = u64[16,512]{1,0} broadcast(u64[] %constant.21), dimensions={}
  %shift-right-logical.23 = u64[16,512]{1,0} shift-right-logical(u64[16,512]{1,0} %remainder.20, u64[16,512]{1,0} %broadcast.22)
  %bitcast-convert.26 = s64[16,512]{1,0} bitcast-convert(u64[16,512]{1,0} %shift-right-logical.23)
  %add.28 = s64[16,512]{1,0} add(s64[16,512]{1,0} %broadcast.27, s64[16,512]{1,0} %bitcast-convert.26)
  %subtract.24 = u64[16,512]{1,0} subtract(u64[16,512]{1,0} %remainder.20, u64[16,512]{1,0} %shift-right-logical.23)
  %bitcast-convert.25 = s64[16,512]{1,0} bitcast-convert(u64[16,512]{1,0} %subtract.24)
  %add.29 = s64[16,512]{1,0} add(s64[16,512]{1,0} %add.28, s64[16,512]{1,0} %bitcast-convert.25)
  ROOT %tuple.30 = (s64[16,512]{1,0}) tuple(s64[16,512]{1,0} %add.29)
}


Graph Hash: e90bba9f4b40221a4cbafd282484fed0

## END_GRAPH


#OUTPUT_SHARDING_BEGIN

s64[16,512] {replicated}

#OUTPUT_SHARDING_END

[ScheduleSyncTensorsGraph]
Graph Name: train_step_fn
TensorsGraphInfo:
  sync (/workspaces/torch/pytorch/xla/torch_xla/torch_xla.py:69)
  _compile (/workspaces/torch/pytorch/xla/torch_xla/torch_xla.py:193)
  __exit__ (/usr/local/lib/python3.10/contextlib.py:142)
  inner (/usr/local/lib/python3.10/contextlib.py:78)
  main (/workspaces/torch/playground/test_llm_offload.py:88)
  <module> (/workspaces/torch/playground/test_llm_offload.py:136)

Root Hashes: (49bc54e83625714c67c1f27f6810902c, 7851ba93351aa7085e8f4aa22414f40f, 768dcc10b13d12d0f003dcc5554ee3c2, e4450d43e4d14e45e761a17cbc179acf, 7f4ba7358c38efe603a8cb866f87a9f9, 660a7bda22789c607b47fd8c0f076e29, 159c151b24023bed493249f591acb86a, fa953d90dd195e0d3b21f19516050e84, 1bb0cea1e715633f322090dcebb9d734, df53f2b250ab1fd1e5e722787e4eed60, 962cf8131b5a1c0364701bbd8423a85b, 11337c101608a31d0d8f034a10bb174a, 877bbdbf1dd6b764035fd679ef8065fd, 3dc82d983fb8dc65bfc4148a90df803a, 65bce4d348f22e562082ad18fd3400d6, c0138934d0f3fce7112006b82babf8dd, 366a3ef3fb1c796568115e7cc941dd8c, 907d87daf5f78107718ea64d6fbb95d2, be9534d66d177e45e253155424cbc2dd, fbc7ee80ecdc33853d7cf9d5edb8f37, 4673368fbc4f880c3d8041a2f1d2f9be, 1db9a96ceb9a0a099225dcfa57970a0, 33c44e753853563a30b598edfef3ca7d, 77e984b943624a3925ff47aa44d79bb3, f9356b26e3f185894c9c41564da79101, bc2bafc9bbc037177ddd68641dd30132, 90934ea3532625583f7c7cfe7c8cd74b, 73bcdfd903b7fd985548b5b6ea18e219, 7c6e7bb826416cd26389a302ad10cf92, 3b595b713260d9ed06b314d19af3ce8e, 8eda086cd732b0258fc77eed210d1fbe, a80839fe101d7c254bd36173e97e182a, 271329076c262696066d9cd385b79dd3, 87e56b88909108482882192331e0a2b6, e147415f7d126014a21df225e62ca9af, 5932590458faf8b623e9189aa43cae5e, 48d38f6cc394fecdbe393442db598774, 8498a5a4cc5e2718046a93d048833727, cf36ede8dbb31d70da0742f7f2f600e0, c4c25a1f03b9d5d72dcc47b01e0d6600, 4a52f97dd828a1a2ce1eb10ce16bbced, 566700683a4b7f653536cfdd1ab66e3a, d663370c76aec3e979fb69231ad4eb47, d69337fb81288e72d4652b7bb95c5dec, bbb59f8b91c07fd6b9c2bda7d2aef133, d37870153aa4d75e7b485180890950c5, c9f1e06382230826a6ea40892279016d, 474a06a44d9ff2a84642387549ee1187, bfaa607f023014afe94f392c575a2fa5, 6c323f04175908120230333afcda71f7, 3b5b6bf909d185457fc1fade342d9c7, c4ef87bca2f58b9d2718f64da033ca7e, bf1335685944e33c3f414e8703ffb38d, 98f6f6cd77e175000dda4bf4ca06499f, f590846bc57d2c5dbfbdf138b7565109, 738787c105d8b15e8a809e1f9b03c7af, f6749bc9f52b35785324d31afd4f03ce, 3a7049ec92be80be538333c9d188ddf9, f251547b14454a7c85e29ca2cfabcf0f, c72b8c52462858e5322ffdf72b0acf4b, 54e1e82048ec33b0918e16bdeb3257b4, 4f8bbcfe85b4335dbf23d2edbe561d9e, 5067b54573f404c89bc2138d290143b, bad87da12db4035af9046f748cbe447b, d8b98ef54fe170306b316c1df1f344cf, c8b9c0b67ee0c3172017ad989e0fb498, 1d55f86ca8cca196230116304d7621ce, 44ef6d6e80f0d3abb8585777835c9e86, 68a511021365408e8d0423de8602995a, 129ad080b914da87c6ba57ba7ff39c5e, 15fa8044e16b5c6c1938e6682dc81085, 2b5c939bdeb46519275c35e51778f74c, e381220d22143dee47ed9a0584d1c492, abe8bfbf2e91daebd38343573800d85f, d167de99c162c8d80ed4b6c720f13576, 6eaeb8034895b0b328e85fe0ab193a45, 9588461977a0b51fa6c3679d2abeddd8, ce4cba135da6cb635eaed8093150785f, 57ca910ffc58dbf875fa6ede247a077e, 71ba26388f1d312ef3962f729d5643b9, 134aa5d74ab8d4e245fd13ce5295ea0f, 5dfd0848bc6ac0b3bd7363f04f831848, db2af089e052e8c25798503627d6e4a7, 5907d8537c054bb68c9890dc45ee7127, 96b0348c00978a406c6b10b00105882d, 4eef209d856eec399b3264526b8ffcf8, 8db8975574878fbb54a6b4c8a72f4173, 2b09bd9bcf563a7194ec2c422d0c41d4, 68e3d6593a5c5d6b00e59afd950ba0e3, 3a9f1a59e4c5dc505bda30f91e24ead9, e2268dde1aa878f1ab6c54079b6b4092, eb0e57bd7976f4868cb47abd97343e94, ffe1ba145e84c609526e906d304a412c, b498c7a5f570eaa18754612e41f6de9d, 232383860b6c696b5fe475bf08659a4d, 12fd9767acdee5702bfdbc6404895341, 922c4d8032df18daa10ab5da3e9858da, 4163af2502375783130fb9c7efa91bf8, 6cf81275b9d185f05113336470862b62, ce45567142d3b5df5418fa9ee9c20380, e96e1ca1eded640e601df5dd6ce1ec31, bc3f1f2a04280e216642a18877c58073, 87bf83083429a6cb43f3d71db789108, ebb19b36ce84e61751909395d3cee8c4, c4abf1844959530cd421283c3163630a, f2ed45f49571a75a0a076e2c481f0bdc, d2457e3f1358bc8d62d67f759a410147, 8e2494148c69de4a39ec89f943bb99d7, 841f2eb43da21819e2a21dd375fa8645, aaefb55f3f6b81c4d66806e357ee12e0, d56cd5b7be0c2bc7f7007bc0bbc3b12b, 1e73aac9efa9eba77bbcfceb2eebc0fe, de83e6607bed75fd4ccbda25c5e976ca, 1b8d362cb8c9aff449dadd8a2dac16d8, 67d91eb6c3f95937937f6a16a37948, b262d6d39623260510ac1119de7f01ca, 4264eba6180776c0d25a999eb0583f15, 9f7ed1371e559afb310c31ab481a88fd, a90ff26726410a1ff790d89ba650a7a9, 55a1be0d9359b502f32dd38bea8804c4, 31fd8e0b1e71da69ef04d6bb6965b929, aa8b0bf538763e2262484fa107211d04, d81a286a3456b46a1ad775bf182a1ae4, 1be473e434d2d06fc77ae5deaaee3657, dccfcdf96840a5eaddbcd4b8657160c6, 589282f3afd2243a1a8ee8889165fa8c, 73ff638c16aac2609e688b743e9c89cb, 7c24700b1a02668799bf178f2194c3bd, f612542ad0c860a74fe5dc9a0902cdaa, d72663c08eddbacbd8b8e98c939bed06, 3637eaeddc07e5ff7e844f7b0cd513e5, 7aa460919c103fd83fc20110a15971d5, 2448452317a6f77bd554d4113adcf26c, 5449e3a01035bab1726834248afab007, 54d4ab5a7d225fa96cc4f09f998c61ef, 8d8d5ea39cb644b85413dad06d629c6f, 6d20b3edb9c749913e808f8c4032d58a, 249c284010a3434a910e5778ffb6bd28, 8647dfe7f8a8db3fbc8a861104bd335, 1b854c2f80ad7b3f0cb3c01d2a9d042b, e343df49724b7ead019e4bac583366e2, e647558d7fc33ccef33a3c18df175b9b, 11cf008d58f2929d50efab6c9458801a, f7079309d6efb2efe255a566e0bc5359, c9801a9be606c6b063233e7726fbc607, 273c902f0d57a860c7050ba77f91734d, 17b1a2c78cd553d49828e554523f30e8, 9befad95e609fe083022adc5181f7f1d, 9a4b45d05c704dfbfaf178547960813c, 724698b3c484c59c13ddbeb72f56c22b, fe5f25c21079f58fdda1affe58f020de, f8489f1f88dbc490952e232747276347, dd333315d50eea0e090971b4ee124e8c, d1ad555b955dce0876ca889c17e0e077, 7e412a94e5758faed4491a87b613d83d, 61bd302b19735a0d8a564254a47f494, 8a4c5f4826906110435e622fbcc7651b, 3e626d0c2632ddbc7bfc2f46361e2ad2, 96fb53b759ba92cd95b57003edca198e, 40a5b2eb6aa86fb198ff86d48c4f9e33, 288e72b29de8a23a2a4ffdb2e1a67ca2, 6f6919f0d5b1016145fc4efb5457989d, b3df5236d521ea592cde099c88927397, 9cb93a983dc65e600d6e480c6c0b5808, ac141413667a3294d578e8b6135c0365, 3c2fb161565701ec29a962f7b790e30, 10d3940158ea4f7a9f55a5c03494f00f, 7a2d89467502b5d683bd56d76bf69c73, ddf18898b31affaafa3008ed1407f76e, f4e9cd5dbacc1533652bbc6102b93765, f8e29e5e69499c71b58af567dad348cc, ea5d7cc84254ed098c0ac100a536c1d1, a7f7216fb7088b6086d62fb0a5f8edd9, 1d88fd7517edf0ce73d77465ab3466b, afa1303ad6aa8d62b643a2f0634f67c0, 447982c258a704aae2a00fb480fb7d93, d076e0a1c4b41d6e51d23bf074d64433, a850b4e41a8a0e8773f039169f5a3265, 7b2489d07a77a81961f64ac39f83588b, d86a5d7927c10a76edf966adb17e9552, 8d31dd40786b91c68d0cbb5e7570abbd, 5404a527b8695f32b5600278b12f330e, f4101a7d2b7ff51655457e9c083619f6, 116e031fa154eda28c56eb0a1a4a9c59, dc495478ecd5e2a551ab7472db64eb14, 3f47b1eeceaf8c487790fcc1aeca4f4f, 9a5df7b2a1042e65a20769f269571c0f, 580380188224c4501bc4954b8d8259f3, db16fbe83093bcf05461bcd7045cbbcb, 83a17e7b8746ef99c7dd78202d8d7979, 11f6545167bf29b5d98c0922d465e677, 7f4a3bd4dd620eb7d0aacba26770ca1, 1859f2c759c011fed542d508eba87d16, 4dea27091daf9b395b8d2b0859965ed8, d15f40ca3a50ba7211942756018bd290, 8444a509f17af056af923ea71fe425c, b7bc161ce9da87197a24b347e61a5131, 74c7d70b7dd11f8019b0bc3d4c1ebbe5, 4b5a0806a5f93a17a622f586b5e87bae, 48f8d9244e2205997689c16f67109de0, 7cfcb8d15b3c378183a337a4abfc935, 4579a1a36da3fd87f71ab1a7c224e855, 188687573ab70a4541db85f0c6e44de7, 351e6d34da1bc960cb21f85f7b7807b0, b7af07660eb7bad85f52f6ac167d51e4, 2e0696c7669d2b0137911d71ba96948a, c18e63e35ac82e4b379f6ad4e186a3d6, 1274928142bfa02222d80053b9e40816, 7f2cf22ca827e3e693b675999cafa1c5, 1c2ac13a98ff917559a6b24e675da44f, 5ded7b412c711c363fe5e30b6c45786e, d81168ca0cdb074d23fb122f1e9a91f0, fe6686f28b6aa45081e5a6320f554651, 642e1290498c97a8ae9ec1abceb0a98d, aae9b37d25e08158981750dd1ebf4edc, 33607d14c5f567f4951f377c0e7a9b01, c1ab12bd4fe30fbae9ce98eb2266fe0d, 11ce09682a8ec007508760d133ee2df3, 3ae94159c6c09889b9fb90d9c6a7f814, 649a5c4b6978e34eef11ab1f67d1900d, 7bd0889452392b014cc61d636eee3c20, b2cbfecccbdd6efa2c4cff7854db0127, 9b1d3ea4a20fa24fd1c899ce9e5804c4, eade620c8656c9f017817733cb3a849f, 646ead77d99f0a7aadf87326e8965917, 7c5d0833f6a092171c3a8854893b38e4, 5e469c9fdf01ef8e3b8df4b557f58340, 5f96a41a27521563cf466039e931f20d, 5dc6c276b32e53eb9e168ceca45ea3c2, f6c4933b1bde8e181cf0bab69e24e9e7, 2c969c7b1f3e3e20b88d0743d97ad03c, 4d634ac66dd3f9a5d20490014f9297dc, 22468bc1d911d2f92b7a5bcf3106ede1, 93f753ac4697a2ea918daf2d504d4f71, 414aeded37d8fbcd2f582817a438057c, 60276ea874ec3a89702c54b8af92e414, 87a5e3abef84d1ec19650b9acc56ca43, 98684be36166c84cd7ad6007d88e633e, b7d459be28461395f9802143e481ba63, 136ee66eaf49f774a8c7aafe1b212455, db4fb95db144e966c5b5979294b24286, 23dc40c0d7e8e91ab18d8f101e1ddcb7, df7c22c43d3dce9eef869bb8dc068484, e4a9a531cd7d97080d1fdfc468377ed5, a624e25264e6c576204c999c19806ba5, 813bcee828006bcab81a752830fb4407, a8562936a197eda6a70ab543bacd2807, 28591cbe9dab0450f9885628fc629782, a73766f43721613a7fc2b37e7f57a267, bec92491a634f7287d44c0085ca9d7f4, 938bba3f1cae413a8f766d00bf36071c, 4a0f72c4cd36667f82331bc02d2bc338, f4a81b5afbd3602cbb0304f02659a85c, 8a6d78cf1cdb334338465c78ab75b63f, 7fe91b44da316a70e139b3466a172ea, 37d68225f81ce68b7dd56ca6203120ab, a4f95cd34e5d00fd920ef47a392ae310, 261e3e2bba595e3e11db13181df34106, 7eb4bdcdad404b4f0f675795ac0d2c5c, 9e7dd8f8c518f552136f535b742a771, 73590a6a3efb4b2c66ae4d1fdb7a92cb, 6722e282e97165fc63021f5e14dde76a, 1f1727881db754432e2be812d8b2c0c0, bf8ee3dc02155a1fd695ec8ac64fb4ca, cc1ca4e1c66018e453fa483fc77a631c, c1575f41cb9f3fcdf7d1d9a3b9d08a65, 2f2da3dafd0fc5e32f328897beb5ec2f, 60f2480d8c77a3d8cb4f93e21b233eb7, cf0d1d2fa0d483fbe58389466b11a2e3, 4f611707ebb43c81e1465d802695bb02, 73aa2c1507815bb54b9a1cc22d2e7752, a4c86ef607ab43b277fde5bdcc600dc9, 9f2ccbfcf2d645353a20c5f8f61b22fd, 9fc3ae962745fe463e808a8172b7655, f831eec70007645015b47c082548951a, 9abab7983bb28a1e58cc57466f003ec2, 7230988a1c12a652c9e5ca1961a667f9, b1812a80a5e0303417dee42f3820fcf3, 5756b4eee465025ace639011b5d021d0, 3a1301e21ee3be9762fe8db4d0fc4982, 61c83e7a913d764ef27bd1284fa2226e, dfd2167d10d5f26a9ec66380c5e678a1, c5e6dd4d88d59e1d268e48ab1619776c, 35d49edf0fa3141eb9d8ce573cdf513c, cfb268502070605d9978722b5e14f776, 549381626c7927b39f542976d380bb51, 688cd74e537118bae12e9781cb60dfd3, ee303b9642370bf24815fd2be0e7fb25, 72c98e936331d42da22311f59673760f, e8bdc28c213cede861382d223f34f711, c07da167d77d3d93ee4e3b9cec2c0d6e, 6ebbbffaaf376371385f2e645427a6ef, 4e234345f89e1f3ae215069a79ff9ea0, c84c3a4789d8370ea77c25cdfcb04f43, 16b64752ee8894639d5d695480ad3f04, f32ab3d66c4e66bc72e3ff0a26557cd4, 437490483b9a7607a6d87b772001f805, f71c3a0c26cba680e0e4df8c9e29cb51, 2906a719030cfe1d28526fc6214000a4, 5ec1706b618a8a6def60c24ba333c7ac, ff89c4bc94d9be630f5f82f4e3ca3c50, 62bf3d97b99ae339712fca85e4b6d9ea, 6d40ce6b06aab91cbfd133c7edf5f0c2, e349b3bf0177c0ea2bbdbe399f31dc43, 920506c9be1f9c95d921a910e4d7461b, 9ca06135b073289fc511d95c9352abff, e96bb454e3d4fd9c9b4ca18d2c5eb735, 2a52a523ae09f8b8be528878d46ff909, 663cb98ffb6389e2474e289f2376133c, cda7844d9bb20bc220dc0ce735bfca7f, 1fad52d16386718765731d6c17e2b9b3, dc79f67b045d6f6451717c0008daeb26, f04b1d32889e78828b27d7c22da3d93c, e7feef96f0c7e15db3d0280bc7406770, d7a952d266c85bc981399065bc8ea18e, aa0d568065a69059c726b3df3df2abf, 89bc6eeb28e9561e463dac589035402e, 8f7c192d1307cbdfca4ba51974370aa3, 7afb2b23c4cf87684246b50f9924b28, 8fb1e9d562cd9f732439e38cae0a3efb, da679f28336113cf9f87f31b2f00d14e, 9c07806a09f60731cddfe067a1adc7b3, 1dc32839fa5c1b931c43e26141e82673, d6b58ea0d95e4054be39eb9f11e02039, 2b35db78cc40326435e6d3e3a0d8c8c5, fe635f15cb4924524f0963353f2b90a8, a7b8aa387b4bb1628f8037b143914bb3, 2c9483f46983aaaff1e8f320456b3e4f, 5f0bbe0f47afb32638c519b38c269a79, 7e80287074ba2267acd81627b737d382, aa3e65565825836d90e132a1954edbbb, 529d6fb431bd4590f731e84d976bbc61, be5a9ccce93d4afc7eff7a853b495f45, 925295c2d79a8c844a9b639dbcda15f9, c042e0ad9a54025cd0640f9a943eb605, 5077dfaccff6b4e58a2a95bd96936afc, 7da4822b2e37db47a70f883ccdc15c0d, 907ab2396c24b471d12b8ad502d46ba9, ec2075e9cb43b7ac72270a49e9be61c6, 9bbcc55db9fe05366144e9d8cb1fc03, b071db048266ab15728d68247d3908c3, 291966b3ef5fb35a121ede3a4a3fd3dc, 1fa380522c0d17a634de3ca34eeaad55, 5067d217bf25ccf6a7e7a4c6a66a0ed7, 4f46eb4490d1eb098ed17e2e2805d948, d9bb6f692b9c9e2443f794688ef69ec8, d1dacd1bce1c7f485c39448360ffc634, 61a185b0d4dc19188095fc302b257068, e0d01dec08e00b5fa4d0ffed973cad6e, 20d59e5c56d50db9b07e7bebbcd0ac10, c61bf477d57be56a19895d8822c2d1c8, 80464fc6ee30741897ced797cd744e58, 5d2286a14f613201538489b7063fba71, db82d29d5e277a3f6bcbfcaef47ef3f4, b217f0fd7b29a27b6b94d9bf0b6e7fae, 73edb9d7014f4b0f4989e7792ab4222d, 32ad3b30fb18ec64c8dcb6bdeaada2a2, 580b3bcc90426f768fc16e4195ea37ab, 413c31ca8cc4b6f83122abccb65ed39f, a8ab059d1837663a57893727376ac4ac, cba7d247b332e8a648ceaff24d8f826, cabd7dedf5256607be2de61956e44a5a, a726283a4c68b37424eae2f11141f275, 2a0096e43aaa9c4760cff32bac9f47a1, 67a4dbe887324f648119a2334035f17e, b8b1239a34c603ba22645372c9f03f99, 34aafb1cb1bcee87cd3ea4dfaf4c2ad2, 15d64b0bd1e7c516f6c2d9fa2f3df7a4, de2f9a1bf38c61e3223552cc0fe94c87, b45c993faa3365d318d289694c7b86c8, 4113eb3800678b14baba6e6a3adb7960, a7179cc8822c4b05ea5f98df804d0617, ec6e40174a7916d8d39ab254cfe49e36, 6dc9d8357dde14cfb744fbf664141ed5, 87bff764af7674d274edc61fc0e47c18, 26c966b0548f8dd57c0e5701e8219601, 133978422945f7cd7d5c99fb62059d55, 68e68736f2c31d32572cb9b3e252214a, 8f803b5cd240f661a59618151ece385e, ea010897a8cc03861faf6b3fb8904643, e9c9852c46b0a775ca0b40962e78022e, 3025a4cb8e7834736ea52f424e353206, 5f0dbca5785069657b2ac4bf40cc2f85, 109e68e0b8692358c7accc793e447162, 26cc6a6d5c2892240f898cc5bac298ab, f3692f04cac484bbfedd80255525b800, b61467ab62aa7110d25fcb46a1b8587e, 122a7578bc127334c2dd0c19ef86f5bf, f399762b21544559d127b5d81e04e8d7, 8f47b08c96ea5ec99b6e9b6038bbddca, c48f182ad2f99d3147bebd7fe079f8ca, 31d97ece40254d02daa7a49e51c0b207, 6292ff69eec5e3e7736b10d64d022578, d59d532eb935c005679dc3e6f8ff52af, cef1f73f0b6614ab18c211c72a2c6708, 29218cf9fb857650d2def28896231eb1, 5e3ef856c3a06d77794ebb04bdba5200, 68fe60c6af2b57c66a8382f8c2488382, 5cf42ebe8d013fdb4e075ca20cbfd6e4, c9e9a980dc01e37a891bd6f47274a1de, e15e5c02a3c061f598c89e3d5877741e, b55975d2d9156e5c8034fa64a76f3690, d7d12cf62af9b5f726051ccdf03c5b1b, abd9f3eec60ef7d29b8940ecf704177a, b1510385c9bd591aedc3cd35d84ab866, 85bf6435af28d5da6072d5e381aeaa42, 5925f34ddd89d50efcecc00a288201ae, ca2361af5e0097c6ef913d579c0c3de3, d810b08a7d6d19434951cfcb81b11a5f, b822e9547de9fe8ac8ed389e8d3a4455, 4a44e06de6d717967b750ebc7b0314a9, b4512e1b26b86723c56ac76dc53247b0, d9b2138159d196e13d965e7b3615aab7, 4309351d4bf3c1b7ba3d0093ea3f6ab0, 67438e28134e4f9a2516f2dc74590372, 857d1029f2f21b5317eba1564153bc53, a0a7b7a569df07d858cf6daad7d25032, 1ca794d03ce5b0935afcf804b32bf206, 972e3c662b9961875941b1777f80cd02, c8abb96789e268ae51943dd4c17a38f8, fb4aaed99ba8bcb112f5576935347901, 56e81bb208f0f7220e1d71033cc27d5a, ee3224c835991074a1f10da6e925d2c6, 530be1192a10f6c746dfbf9c0bb045cb, bb8768dbf6296a729303e1f359ac1efd, 516e2146efe807bcbd8939048db367db, bd685bfd7fa57038fda051c599062984, 79ca998328e29afbe6b7df57cde8ed40, a8c27c71a7fef7ff43b861330caa0ba6, 5c03a4d33dd1545f123a2797b0f5a09, 1894da94501cc9b0f4bf4a11104c7a08, f2d96a72961ef1dad353cc576b11acf9, fe34b74c1197dc596bee746cdafe2245, b1fb51131a3025da4e96e332ed63c0ed, 5a0a6205a353975fffec177234bdd33a, d2b61f1376879275659346e5cdd83a13, b35fb54ed1388a2a27add01ef0c8ea29, e9ae39fe8e15f463d6eb91b81442d671, 89dd2cdf643028fb348c4bf3bae0d860, d2f7320c0835a8afd80bc5b530a5816f, 2863466a0c773dd4de1fabed6a0cd234, b0585723844f158bc144614a42685b4e, 29f219d49956f830ad0a1172e14f283d, c676139ed635cbceba572de6f7290a8d, a9c35c1a49f58a224e248d6417a32dff, 44406701ab23f8af2b5dd15646441756, 3022898e383f32f48ee140a44427dd42, 90e3851b4fc54d291b89d5d732b4ed0b, a9c9a1b160e587eeee5b216e41d5366b, 1ef8a3f0b2c9558ff6103366f10106ff, 3b4af4b16ba3d79583c6bc97dfe210a7, 411565ac51837a5228ecdcbff390c455, 519d9a1815ae4bf047d7f05fef74f958, eec1fb1d5dc5d4c9b501765a3eeda531, 867cac263cfdeaa0832248c12deeb744, b5b079c2547adc352da5b6db0e68ab7b, d86d216211b3daaf3be2e75f5b13fe98, d7920458368b31cfdee5dafc92e10539, c5463d71989a1aed8dba03374892e117, 317a2df2cccbe96435050535646dfa16, 2294a3865a28efac436ee15fc69f1d02, a61b28c36d50bb107f3630239dccd146, 766989a9a768a1170c3362f15c692aa6, b4bd6d7210d83fd242832dbd5c239e4, 170020d2cd373be542e05fc0e16425cc, 7c1f6e693ccbe4e768668379deed1c8a, ad6f6a4316c3f5790e4dc319144be503, 4ed1c766d1ffa572728ded2ec1b6aae2, da8e614d92640399c89236ada6d198d2, 132a318162a7fdbc1bed3ad42a39b66a, 5b0ff4f16f4a7136dd54fd08b73c2d83, c4af6be47f495f334d73f2f0666a5f99, e570aa3c6ccd3f0f9075c3389f81c768, 65fa1f39100a1af90f77b9e15fd0bdc4, bd33edddc7dfa9058390b3a0859da9ca, 4ea02a5a169ec38387d7a8613c741bbc, 587723bb5f0eb4d6d44bdd6bb19ca220, 8c3630a2418a8f5472614b472a68ab8b, 1c906bbcc4c401a4c0a839ff20ad7e9b, 6cd5a28713ed30c574a982b5b8da1493, 1f3bdcb3a7e27bcf43807106d1f16da6, 5cf4064fed4cc125bc2b7d6d8c5e2194, da55ce52973ef6be79b7ad261aa26d3e, a091e1a60c218f407778bea42627fd06, 2c2fc6bfe660d0664c3f70ab94bd5e28, 7b0ff88966a3c44784c858ef302a8ce8, 36359b0444b94bf4fdda58fb9a083d3a, 349314578001623267fa2f4845618869, c7b6c67626045c66b346ec63527ce9f6, 88bf6257ad2361541ba71e6aad077580, f42c4d1df6187f5c320216b5ee75b71c, ace317424c9c082b953d76143d637a90, 1d4e6fbe062b2fe2097572ad7aa9f449, d63eb5abb33c78e41d8fcfb06fe2e8ac, 1ee4c494f513a7411f99be3de1ed28e7, 6d62ac855a08a2beac2f2c355203c343, be3c43801dab5bdb9dc40049a97712c4, d62f14fadb8b5e7c85fa626dfe41bbc6, b6cd69932dbd736542c7e139b51424ef, d186f51e49c5c800942dc5739f230b5, 2a17c4c8cab346a4460c1da869acb302, 30325e1718638d05e84fa54a0e8c3fd6, 4b2b7794960087339a26084f0b513c02, 1a010490511a822519345ebf8bc96ba9, 62531896dccad175df02db717aec36be, a7ae58caeced79e8d2087bc72b7d38ce, 50a35dbc36b83bc71028be307836777e, 7cb0841ed0aead460f8744b35b1cbc05, c4ec57925e7d030e016a14046b4853fb, 77085f06a321d23f9fa243bf318ff72f, f7c4461d5a6c4511d3bf32c29366e959, 9da6551ccba39c550341ebe06ca21ba3, 25b7ebb958f6e890b82d3462e871740c, 20ee8f85d8a8b8e6b025495e3135c551, 19c57e7df943c4f4b0813480a1c4f937, b05e3483c555e5fd3651631e2148f63, 977b764d78d97a182a8a04c1393ffb9f, eff2e43b2b94f2401327176a35c2d660, 9db064bd20c8b2d2daf2a2b0faa5f1bd, b0f0f6c745f78c3aa316a98c014c72c8, ee71da5c91398b2a9f5d056b01d8520, 95267f002b2084023d670624fbcccf01, 7e7b1b335bb7cc62ee83d3a3d91f6f46, c0808501474c4d752294c7093aed7b71, 61420c7c2724c7e6f27f2e6dc212cb38, 7fefa38843229dea0d1d4145cdaee966, 330e98d2cdc8bb151e7810dcb0cecdf0, bc0065e6da8eef13866cf970aab97217, d90ba703f2d9520d362041c625bc1c44, eda970abfa3a591d616b8da7772ddd9, e2e955da4065dda781cf9c1e36748c13, e2f4414f2b2c93c61f9fed7516a93b57, 434194a071f584f763e92b3bcfa733f1, cea3d1572df0b08b62bfd8c4387d9da4, 7895da6bf0465a3d3c4cb97f1873d313, 4777a706727015164b67647366c0fb7, 31ec3e68631b4a25eb73f2e5125e2413, dafacdce70739801604cb5d604a40baa, 43e170b35e05885e6f8f44569e1ddc51, 871a7014552767a38dd15875309d28f7, f6c2d8c7d8edfd2bb64f199e021090b6, e2f0389794a99aafc346ef49b879c41f, 61406e88a0fb8c34d2807df236d3fd6f, b33e82a3076efb81966a0dae4e38e608, fb91e1bcfa5add4374448d21a629bf2, 2efdf27235eff8bf4f5a49b31815bb96, 78d7fe6d5c218b33c90efe6eff79563a, 1cc3e879b1cda5eb0ffdc1de2e9bf099, ac7251a8a32f125076f2a2b682ab9636, b04e3cccc7d3dc0a40b2f099711eb861, 3947cbc5a253dd32cd054f8eef137c33, 53c7298c3ad6adc13c7f66059247684e, 95df46d991397fa3fb666e6f10be620a, fdee7e9905272682261745e664734ab6, 8487d36f2ac894468d2adea6a1dadfc5, 422883e3966f70929260508c571ace34, abb2c90f2134fd1064b6bc25562d55c0)

## BEGIN_GRAPH
HloModule IrToHlo.3918, entry_computation_layout={(f32[], f32[], f32[1024]{0}, f32[1024]{0}, f32[1024]{0}, /*index=5*/f32[1024]{0}, f32[1024]{0}, f32[1024]{0}, f32[1024]{0}, f32[1024]{0}, /*index=10*/f32[1024]{0}, f32[1024]{0}, f32[1024]{0}, f32[1024]{0}, f32[1024]{0}, /*index=15*/f32[1024]{0}, f32[1024]{0}, f32[1024]{0}, f32[1024]{0}, f32[1024]{0}, /*index=20*/f32[1024]{0}, f32[1024]{0}, f32[1024]{0}, f32[1024]{0}, f32[1024]{0}, /*index=25*/f32[1024]{0}, f32[1024]{0}, f32[1024]{0}, f32[1024]{0}, f32[1024]{0}, /*index=30*/f32[1024]{0}, f32[1024]{0}, f32[1024]{0}, f32[1024]{0}, f32[1024]{0}, /*index=35*/f32[1024]{0}, f32[1024]{0}, f32[1024]{0}, f32[1024]{0}, f32[1024]{0}, /*index=40*/f32[1024]{0}, f32[1024]{0}, f32[1024]{0}, f32[1024]{0}, f32[1024]{0}, /*index=45*/f32[1024]{0}, f32[1024]{0}, f32[1024]{0}, f32[1024]{0}, f32[1024]{0}, /*index=50*/f32[1024]{0}, f32[1024]{0}, f32[1024]{0}, f32[1024]{0}, f32[1024]{0}, /*index=55*/f32[1024]{0}, f32[1024]{0}, f32[1024]{0}, f32[1024]{0}, f32[1024]{0}, /*index=60*/f32[1024]{0}, f32[1024]{0}, f32[1024,4096]{1,0}, f32[1024,4096]{1,0}, f32[1024,4096]{1,0}, /*index=65*/f32[1024,4096]{1,0}, f32[1024,4096]{1,0}, f32[1024,4096]{1,0}, f32[1024,4096]{1,0}, f32[1024,4096]{1,0}, /*index=70*/f32[1024,4096]{1,0}, f32[1024,4096]{1,0}, f32[1024,4096]{1,0}, f32[1024,4096]{1,0}, f32[1024,4096]{1,0}, /*index=75*/f32[1024,4096]{1,0}, f32[1024,4096]{1,0}, f32[1024,4096]{1,0}, f32[1024,4096]{1,0}, f32[1024,4096]{1,0}, /*index=80*/f32[1024,4096]{1,0}, f32[1024,4096]{1,0}, f32[1024,4096]{1,0}, f32[1024,4096]{1,0}, f32[1024,4096]{1,0}, /*index=85*/f32[1024,4096]{1,0}, f32[1024,4096]{1,0}, f32[1024,4096]{1,0}, f32[1024,4096]{1,0}, f32[1024,4096]{1,0}, /*index=90*/f32[1024,4096]{1,0}, f32[1024,4096]{1,0}, f32[4096,1024]{1,0}, f32[4096,1024]{1,0}, f32[4096,1024]{1,0}, /*index=95*/f32[4096,1024]{1,0}, f32[4096,1024]{1,0}, f32[4096,1024]{1,0}, f32[4096,1024]{1,0}, f32[4096,1024]{1,0}, /*index=100*/f32[4096,1024]{1,0}, f32[4096,1024]{1,0}, f32[4096,1024]{1,0}, f32[4096,1024]{1,0}, f32[4096,1024]{1,0}, /*index=105*/f32[4096,1024]{1,0}, f32[4096,1024]{1,0}, f32[4096,1024]{1,0}, f32[4096,1024]{1,0}, f32[4096,1024]{1,0}, /*index=110*/f32[4096,1024]{1,0}, f32[4096,1024]{1,0}, f32[4096,1024]{1,0}, f32[4096,1024]{1,0}, f32[4096,1024]{1,0}, /*index=115*/f32[4096,1024]{1,0}, f32[4096,1024]{1,0}, f32[4096,1024]{1,0}, f32[4096,1024]{1,0}, f32[4096,1024]{1,0}, /*index=120*/f32[4096,1024]{1,0}, f32[4096,1024]{1,0}, f32[4096,1024]{1,0}, f32[4096,1024]{1,0}, f32[4096,1024]{1,0}, /*index=125*/f32[4096,1024]{1,0}, f32[4096,1024]{1,0}, f32[4096,1024]{1,0}, f32[4096,1024]{1,0}, f32[4096,1024]{1,0}, /*index=130*/f32[4096,1024]{1,0}, f32[4096,1024]{1,0}, f32[4096,1024]{1,0}, f32[4096,1024]{1,0}, f32[4096,1024]{1,0}, /*index=135*/f32[4096,1024]{1,0}, f32[4096,1024]{1,0}, f32[4096,1024]{1,0}, f32[4096,1024]{1,0}, f32[4096,1024]{1,0}, /*index=140*/f32[4096,1024]{1,0}, f32[4096,1024]{1,0}, f32[4096,1024]{1,0}, f32[4096,1024]{1,0}, f32[4096,1024]{1,0}, /*index=145*/f32[4096,1024]{1,0}, f32[4096,1024]{1,0}, f32[4096,1024]{1,0}, f32[4096,1024]{1,0}, f32[4096,1024]{1,0}, /*index=150*/f32[4096,1024]{1,0}, f32[4096,1024]{1,0}, f32[1024,1024]{1,0}, f32[1024,1024]{1,0}, f32[1024,1024]{1,0}, /*index=155*/f32[1024,1024]{1,0}, f32[1024,1024]{1,0}, f32[1024,1024]{1,0}, f32[1024,1024]{1,0}, f32[1024,1024]{1,0}, /*index=160*/f32[1024,1024]{1,0}, f32[1024,1024]{1,0}, f32[1024,1024]{1,0}, f32[1024,1024]{1,0}, f32[1024,1024]{1,0}, /*index=165*/f32[1024,1024]{1,0}, f32[1024,1024]{1,0}, f32[1024,1024]{1,0}, f32[1024,1024]{1,0}, f32[1024,1024]{1,0}, /*index=170*/f32[1024,1024]{1,0}, f32[1024,1024]{1,0}, f32[1024,1024]{1,0}, f32[1024,1024]{1,0}, f32[1024,1024]{1,0}, /*index=175*/f32[1024,1024]{1,0}, f32[1024,1024]{1,0}, f32[1024,1024]{1,0}, f32[1024,1024]{1,0}, f32[1024,1024]{1,0}, /*index=180*/f32[1024,1024]{1,0}, f32[1024,1024]{1,0}, f32[512,1024]{1,0}, f32[512,1024]{1,0}, f32[512,1024]{1,0}, /*index=185*/f32[512,1024]{1,0}, f32[512,1024]{1,0}, f32[512,1024]{1,0}, f32[512,1024]{1,0}, f32[512,1024]{1,0}, /*index=190*/f32[512,1024]{1,0}, f32[512,1024]{1,0}, f32[512,1024]{1,0}, f32[512,1024]{1,0}, f32[512,1024]{1,0}, /*index=195*/f32[512,1024]{1,0}, f32[512,1024]{1,0}, f32[512,1024]{1,0}, f32[512,1024]{1,0}, f32[512,1024]{1,0}, /*index=200*/f32[512,1024]{1,0}, f32[512,1024]{1,0}, f32[512,1024]{1,0}, f32[512,1024]{1,0}, f32[512,1024]{1,0}, /*index=205*/f32[512,1024]{1,0}, f32[512,1024]{1,0}, f32[512,1024]{1,0}, f32[512,1024]{1,0}, f32[512,1024]{1,0}, /*index=210*/f32[512,1024]{1,0}, f32[512,1024]{1,0}, f32[512,1024]{1,0}, f32[512,1024]{1,0}, f32[512,1024]{1,0}, /*index=215*/f32[512,1024]{1,0}, f32[512,1024]{1,0}, f32[512,1024]{1,0}, f32[512,1024]{1,0}, f32[512,1024]{1,0}, /*index=220*/f32[512,1024]{1,0}, f32[512,1024]{1,0}, f32[512,1024]{1,0}, f32[512,1024]{1,0}, f32[512,1024]{1,0}, /*index=225*/f32[512,1024]{1,0}, f32[512,1024]{1,0}, f32[512,1024]{1,0}, f32[512,1024]{1,0}, f32[512,1024]{1,0}, /*index=230*/f32[512,1024]{1,0}, f32[512,1024]{1,0}, f32[512,1024]{1,0}, f32[512,1024]{1,0}, f32[512,1024]{1,0}, /*index=235*/f32[512,1024]{1,0}, f32[512,1024]{1,0}, f32[512,1024]{1,0}, f32[512,1024]{1,0}, f32[512,1024]{1,0}, /*index=240*/f32[512,1024]{1,0}, f32[512,1024]{1,0}, f32[1024,1024]{1,0}, f32[1024,1024]{1,0}, f32[1024,1024]{1,0}, /*index=245*/f32[1024,1024]{1,0}, f32[1024,1024]{1,0}, f32[1024,1024]{1,0}, f32[1024,1024]{1,0}, f32[1024,1024]{1,0}, /*index=250*/f32[1024,1024]{1,0}, f32[1024,1024]{1,0}, f32[1024,1024]{1,0}, f32[1024,1024]{1,0}, f32[1024,1024]{1,0}, /*index=255*/f32[1024,1024]{1,0}, f32[1024,1024]{1,0}, f32[1024,1024]{1,0}, f32[1024,1024]{1,0}, f32[1024,1024]{1,0}, /*index=260*/f32[1024,1024]{1,0}, f32[1024,1024]{1,0}, f32[1024,1024]{1,0}, f32[1024,1024]{1,0}, f32[1024,1024]{1,0}, /*index=265*/f32[1024,1024]{1,0}, f32[1024,1024]{1,0}, f32[1024,1024]{1,0}, f32[1024,1024]{1,0}, f32[1024,1024]{1,0}, /*index=270*/f32[1024,1024]{1,0}, f32[1024,1024]{1,0}, s64[16,512]{1,0}, f32[8192,1024]{1,0}, f32[1024]{0}, /*index=275*/f32[8192,1024]{1,0}, f32[], f32[], f32[], s64[], /*index=280*/f32[])->(f32[1024,8192]{1,0}, f32[8192,1024]{0,1}, f32[1,1,1024]{2,1,0}, f32[1024]{0}, f32[30,1024,1024]{2,1,0}, /*index=5*/f32[30,512,1024]{2,1,0}, f32[30,512,1024]{2,1,0}, f32[30,1024,1024]{2,1,0}, f32[30,4096,1024]{2,1,0}, f32[30,4096,1024]{2,1,0}, /*index=10*/f32[30,1024,4096]{2,1,0}, f32[30,1024]{1,0}, f32[30,1024]{1,0}, f32[1024]{0}, f32[1024]{0}, /*index=15*/f32[1024]{0}, f32[1024]{0}, f32[1024]{0}, f32[1024]{0}, f32[1024]{0}, /*index=20*/f32[1024]{0}, f32[1024]{0}, f32[1024]{0}, f32[1024]{0}, f32[1024]{0}, /*index=25*/f32[1024]{0}, f32[1024]{0}, f32[1024]{0}, f32[1024]{0}, f32[1024]{0}, /*index=30*/f32[1024]{0}, f32[1024]{0}, f32[1024]{0}, f32[1024]{0}, f32[1024]{0}, /*index=35*/f32[1024]{0}, f32[1024]{0}, f32[1024]{0}, f32[1024]{0}, f32[1024]{0}, /*index=40*/f32[1024]{0}, f32[1024]{0}, f32[1024]{0}, f32[1024]{0}, f32[1024]{0}, /*index=45*/f32[1024]{0}, f32[1024]{0}, f32[1024]{0}, f32[1024]{0}, f32[1024]{0}, /*index=50*/f32[1024]{0}, f32[1024]{0}, f32[1024]{0}, f32[1024]{0}, f32[1024]{0}, /*index=55*/f32[1024]{0}, f32[1024]{0}, f32[1024]{0}, f32[1024]{0}, f32[1024]{0}, /*index=60*/f32[1024]{0}, f32[1024]{0}, f32[1024]{0}, f32[1024]{0}, f32[1024]{0}, /*index=65*/f32[1024]{0}, f32[1024]{0}, f32[1024]{0}, f32[1024]{0}, f32[1024]{0}, /*index=70*/f32[1024]{0}, f32[1024]{0}, f32[1024]{0}, f32[1024,4096]{1,0}, f32[1024,4096]{1,0}, /*index=75*/f32[1024,4096]{1,0}, f32[1024,4096]{1,0}, f32[1024,4096]{1,0}, f32[1024,4096]{1,0}, f32[1024,4096]{1,0}, /*index=80*/f32[1024,4096]{1,0}, f32[1024,4096]{1,0}, f32[1024,4096]{1,0}, f32[1024,4096]{1,0}, f32[1024,4096]{1,0}, /*index=85*/f32[1024,4096]{1,0}, f32[1024,4096]{1,0}, f32[1024,4096]{1,0}, f32[1024,4096]{1,0}, f32[1024,4096]{1,0}, /*index=90*/f32[1024,4096]{1,0}, f32[1024,4096]{1,0}, f32[1024,4096]{1,0}, f32[1024,4096]{1,0}, f32[1024,4096]{1,0}, /*index=95*/f32[1024,4096]{1,0}, f32[1024,4096]{1,0}, f32[1024,4096]{1,0}, f32[1024,4096]{1,0}, f32[1024,4096]{1,0}, /*index=100*/f32[1024,4096]{1,0}, f32[1024,4096]{1,0}, f32[1024,4096]{1,0}, f32[4096,1024]{1,0}, f32[4096,1024]{1,0}, /*index=105*/f32[4096,1024]{1,0}, f32[4096,1024]{1,0}, f32[4096,1024]{1,0}, f32[4096,1024]{1,0}, f32[4096,1024]{1,0}, /*index=110*/f32[4096,1024]{1,0}, f32[4096,1024]{1,0}, f32[4096,1024]{1,0}, f32[4096,1024]{1,0}, f32[4096,1024]{1,0}, /*index=115*/f32[4096,1024]{1,0}, f32[4096,1024]{1,0}, f32[4096,1024]{1,0}, f32[4096,1024]{1,0}, f32[4096,1024]{1,0}, /*index=120*/f32[4096,1024]{1,0}, f32[4096,1024]{1,0}, f32[4096,1024]{1,0}, f32[4096,1024]{1,0}, f32[4096,1024]{1,0}, /*index=125*/f32[4096,1024]{1,0}, f32[4096,1024]{1,0}, f32[4096,1024]{1,0}, f32[4096,1024]{1,0}, f32[4096,1024]{1,0}, /*index=130*/f32[4096,1024]{1,0}, f32[4096,1024]{1,0}, f32[4096,1024]{1,0}, f32[4096,1024]{1,0}, f32[4096,1024]{1,0}, /*index=135*/f32[4096,1024]{1,0}, f32[4096,1024]{1,0}, f32[4096,1024]{1,0}, f32[4096,1024]{1,0}, f32[4096,1024]{1,0}, /*index=140*/f32[4096,1024]{1,0}, f32[4096,1024]{1,0}, f32[4096,1024]{1,0}, f32[4096,1024]{1,0}, f32[4096,1024]{1,0}, /*index=145*/f32[4096,1024]{1,0}, f32[4096,1024]{1,0}, f32[4096,1024]{1,0}, f32[4096,1024]{1,0}, f32[4096,1024]{1,0}, /*index=150*/f32[4096,1024]{1,0}, f32[4096,1024]{1,0}, f32[4096,1024]{1,0}, f32[4096,1024]{1,0}, f32[4096,1024]{1,0}, /*index=155*/f32[4096,1024]{1,0}, f32[4096,1024]{1,0}, f32[4096,1024]{1,0}, f32[4096,1024]{1,0}, f32[4096,1024]{1,0}, /*index=160*/f32[4096,1024]{1,0}, f32[4096,1024]{1,0}, f32[4096,1024]{1,0}, f32[1024,1024]{1,0}, f32[1024,1024]{1,0}, /*index=165*/f32[1024,1024]{1,0}, f32[1024,1024]{1,0}, f32[1024,1024]{1,0}, f32[1024,1024]{1,0}, f32[1024,1024]{1,0}, /*index=170*/f32[1024,1024]{1,0}, f32[1024,1024]{1,0}, f32[1024,1024]{1,0}, f32[1024,1024]{1,0}, f32[1024,1024]{1,0}, /*index=175*/f32[1024,1024]{1,0}, f32[1024,1024]{1,0}, f32[1024,1024]{1,0}, f32[1024,1024]{1,0}, f32[1024,1024]{1,0}, /*index=180*/f32[1024,1024]{1,0}, f32[1024,1024]{1,0}, f32[1024,1024]{1,0}, f32[1024,1024]{1,0}, f32[1024,1024]{1,0}, /*index=185*/f32[1024,1024]{1,0}, f32[1024,1024]{1,0}, f32[1024,1024]{1,0}, f32[1024,1024]{1,0}, f32[1024,1024]{1,0}, /*index=190*/f32[1024,1024]{1,0}, f32[1024,1024]{1,0}, f32[1024,1024]{1,0}, f32[512,1024]{1,0}, f32[512,1024]{1,0}, /*index=195*/f32[512,1024]{1,0}, f32[512,1024]{1,0}, f32[512,1024]{1,0}, f32[512,1024]{1,0}, f32[512,1024]{1,0}, /*index=200*/f32[512,1024]{1,0}, f32[512,1024]{1,0}, f32[512,1024]{1,0}, f32[512,1024]{1,0}, f32[512,1024]{1,0}, /*index=205*/f32[512,1024]{1,0}, f32[512,1024]{1,0}, f32[512,1024]{1,0}, f32[512,1024]{1,0}, f32[512,1024]{1,0}, /*index=210*/f32[512,1024]{1,0}, f32[512,1024]{1,0}, f32[512,1024]{1,0}, f32[512,1024]{1,0}, f32[512,1024]{1,0}, /*index=215*/f32[512,1024]{1,0}, f32[512,1024]{1,0}, f32[512,1024]{1,0}, f32[512,1024]{1,0}, f32[512,1024]{1,0}, /*index=220*/f32[512,1024]{1,0}, f32[512,1024]{1,0}, f32[512,1024]{1,0}, f32[512,1024]{1,0}, f32[512,1024]{1,0}, /*index=225*/f32[512,1024]{1,0}, f32[512,1024]{1,0}, f32[512,1024]{1,0}, f32[512,1024]{1,0}, f32[512,1024]{1,0}, /*index=230*/f32[512,1024]{1,0}, f32[512,1024]{1,0}, f32[512,1024]{1,0}, f32[512,1024]{1,0}, f32[512,1024]{1,0}, /*index=235*/f32[512,1024]{1,0}, f32[512,1024]{1,0}, f32[512,1024]{1,0}, f32[512,1024]{1,0}, f32[512,1024]{1,0}, /*index=240*/f32[512,1024]{1,0}, f32[512,1024]{1,0}, f32[512,1024]{1,0}, f32[512,1024]{1,0}, f32[512,1024]{1,0}, /*index=245*/f32[512,1024]{1,0}, f32[512,1024]{1,0}, f32[512,1024]{1,0}, f32[512,1024]{1,0}, f32[512,1024]{1,0}, /*index=250*/f32[512,1024]{1,0}, f32[512,1024]{1,0}, f32[512,1024]{1,0}, f32[1024,1024]{1,0}, f32[1024,1024]{1,0}, /*index=255*/f32[1024,1024]{1,0}, f32[1024,1024]{1,0}, f32[1024,1024]{1,0}, f32[1024,1024]{1,0}, f32[1024,1024]{1,0}, /*index=260*/f32[1024,1024]{1,0}, f32[1024,1024]{1,0}, f32[1024,1024]{1,0}, f32[1024,1024]{1,0}, f32[1024,1024]{1,0}, /*index=265*/f32[1024,1024]{1,0}, f32[1024,1024]{1,0}, f32[1024,1024]{1,0}, f32[1024,1024]{1,0}, f32[1024,1024]{1,0}, /*index=270*/f32[1024,1024]{1,0}, f32[1024,1024]{1,0}, f32[1024,1024]{1,0}, f32[1024,1024]{1,0}, f32[1024,1024]{1,0}, /*index=275*/f32[1024,1024]{1,0}, f32[1024,1024]{1,0}, f32[1024,1024]{1,0}, f32[1024,1024]{1,0}, f32[1024,1024]{1,0}, /*index=280*/f32[1024,1024]{1,0}, f32[1024,1024]{1,0}, f32[1024,1024]{1,0}, f32[8192,1024]{1,0}, f32[8192,1024]{1,0}, /*index=285*/f32[1024,1024]{1,0}, f32[512,1024]{1,0}, f32[512,1024]{1,0}, f32[1024,1024]{1,0}, f32[4096,1024]{1,0}, /*index=290*/f32[4096,1024]{1,0}, f32[1024,4096]{1,0}, f32[1024]{0}, f32[1024]{0}, f32[1024,1024]{1,0}, /*index=295*/f32[512,1024]{1,0}, f32[512,1024]{1,0}, f32[1024,1024]{1,0}, f32[4096,1024]{1,0}, f32[4096,1024]{1,0}, /*index=300*/f32[1024,4096]{1,0}, f32[1024]{0}, f32[1024]{0}, f32[1024,1024]{1,0}, f32[512,1024]{1,0}, /*index=305*/f32[512,1024]{1,0}, f32[1024,1024]{1,0}, f32[4096,1024]{1,0}, f32[4096,1024]{1,0}, f32[1024,4096]{1,0}, /*index=310*/f32[1024]{0}, f32[1024]{0}, f32[1024,1024]{1,0}, f32[512,1024]{1,0}, f32[512,1024]{1,0}, /*index=315*/f32[1024,1024]{1,0}, f32[4096,1024]{1,0}, f32[4096,1024]{1,0}, f32[1024,4096]{1,0}, f32[1024]{0}, /*index=320*/f32[1024]{0}, f32[1024,1024]{1,0}, f32[512,1024]{1,0}, f32[512,1024]{1,0}, f32[1024,1024]{1,0}, /*index=325*/f32[4096,1024]{1,0}, f32[4096,1024]{1,0}, f32[1024,4096]{1,0}, f32[1024]{0}, f32[1024]{0}, /*index=330*/f32[1024,1024]{1,0}, f32[512,1024]{1,0}, f32[512,1024]{1,0}, f32[1024,1024]{1,0}, f32[4096,1024]{1,0}, /*index=335*/f32[4096,1024]{1,0}, f32[1024,4096]{1,0}, f32[1024]{0}, f32[1024]{0}, f32[1024,1024]{1,0}, /*index=340*/f32[512,1024]{1,0}, f32[512,1024]{1,0}, f32[1024,1024]{1,0}, f32[4096,1024]{1,0}, f32[4096,1024]{1,0}, /*index=345*/f32[1024,4096]{1,0}, f32[1024]{0}, f32[1024]{0}, f32[1024,1024]{1,0}, f32[512,1024]{1,0}, /*index=350*/f32[512,1024]{1,0}, f32[1024,1024]{1,0}, f32[4096,1024]{1,0}, f32[4096,1024]{1,0}, f32[1024,4096]{1,0}, /*index=355*/f32[1024]{0}, f32[1024]{0}, f32[1024,1024]{1,0}, f32[512,1024]{1,0}, f32[512,1024]{1,0}, /*index=360*/f32[1024,1024]{1,0}, f32[4096,1024]{1,0}, f32[4096,1024]{1,0}, f32[1024,4096]{1,0}, f32[1024]{0}, /*index=365*/f32[1024]{0}, f32[1024,1024]{1,0}, f32[512,1024]{1,0}, f32[512,1024]{1,0}, f32[1024,1024]{1,0}, /*index=370*/f32[4096,1024]{1,0}, f32[4096,1024]{1,0}, f32[1024,4096]{1,0}, f32[1024]{0}, f32[1024]{0}, /*index=375*/f32[1024,1024]{1,0}, f32[512,1024]{1,0}, f32[512,1024]{1,0}, f32[1024,1024]{1,0}, f32[4096,1024]{1,0}, /*index=380*/f32[4096,1024]{1,0}, f32[1024,4096]{1,0}, f32[1024]{0}, f32[1024]{0}, f32[1024,1024]{1,0}, /*index=385*/f32[512,1024]{1,0}, f32[512,1024]{1,0}, f32[1024,1024]{1,0}, f32[4096,1024]{1,0}, f32[4096,1024]{1,0}, /*index=390*/f32[1024,4096]{1,0}, f32[1024]{0}, f32[1024]{0}, f32[1024,1024]{1,0}, f32[512,1024]{1,0}, /*index=395*/f32[512,1024]{1,0}, f32[1024,1024]{1,0}, f32[4096,1024]{1,0}, f32[4096,1024]{1,0}, f32[1024,4096]{1,0}, /*index=400*/f32[1024]{0}, f32[1024]{0}, f32[1024,1024]{1,0}, f32[512,1024]{1,0}, f32[512,1024]{1,0}, /*index=405*/f32[1024,1024]{1,0}, f32[4096,1024]{1,0}, f32[4096,1024]{1,0}, f32[1024,4096]{1,0}, f32[1024]{0}, /*index=410*/f32[1024]{0}, f32[1024,1024]{1,0}, f32[512,1024]{1,0}, f32[512,1024]{1,0}, f32[1024,1024]{1,0}, /*index=415*/f32[4096,1024]{1,0}, f32[4096,1024]{1,0}, f32[1024,4096]{1,0}, f32[1024]{0}, f32[1024]{0}, /*index=420*/f32[1024,1024]{1,0}, f32[512,1024]{1,0}, f32[512,1024]{1,0}, f32[1024,1024]{1,0}, f32[4096,1024]{1,0}, /*index=425*/f32[4096,1024]{1,0}, f32[1024,4096]{1,0}, f32[1024]{0}, f32[1024]{0}, f32[1024,1024]{1,0}, /*index=430*/f32[512,1024]{1,0}, f32[512,1024]{1,0}, f32[1024,1024]{1,0}, f32[4096,1024]{1,0}, f32[4096,1024]{1,0}, /*index=435*/f32[1024,4096]{1,0}, f32[1024]{0}, f32[1024]{0}, f32[1024,1024]{1,0}, f32[512,1024]{1,0}, /*index=440*/f32[512,1024]{1,0}, f32[1024,1024]{1,0}, f32[4096,1024]{1,0}, f32[4096,1024]{1,0}, f32[1024,4096]{1,0}, /*index=445*/f32[1024]{0}, f32[1024]{0}, f32[1024,1024]{1,0}, f32[512,1024]{1,0}, f32[512,1024]{1,0}, /*index=450*/f32[1024,1024]{1,0}, f32[4096,1024]{1,0}, f32[4096,1024]{1,0}, f32[1024,4096]{1,0}, f32[1024]{0}, /*index=455*/f32[1024]{0}, f32[1024,1024]{1,0}, f32[512,1024]{1,0}, f32[512,1024]{1,0}, f32[1024,1024]{1,0}, /*index=460*/f32[4096,1024]{1,0}, f32[4096,1024]{1,0}, f32[1024,4096]{1,0}, f32[1024]{0}, f32[1024]{0}, /*index=465*/f32[1024,1024]{1,0}, f32[512,1024]{1,0}, f32[512,1024]{1,0}, f32[1024,1024]{1,0}, f32[4096,1024]{1,0}, /*index=470*/f32[4096,1024]{1,0}, f32[1024,4096]{1,0}, f32[1024]{0}, f32[1024]{0}, f32[1024,1024]{1,0}, /*index=475*/f32[512,1024]{1,0}, f32[512,1024]{1,0}, f32[1024,1024]{1,0}, f32[4096,1024]{1,0}, f32[4096,1024]{1,0}, /*index=480*/f32[1024,4096]{1,0}, f32[1024]{0}, f32[1024]{0}, f32[1024,1024]{1,0}, f32[512,1024]{1,0}, /*index=485*/f32[512,1024]{1,0}, f32[1024,1024]{1,0}, f32[4096,1024]{1,0}, f32[4096,1024]{1,0}, f32[1024,4096]{1,0}, /*index=490*/f32[1024]{0}, f32[1024]{0}, f32[1024,1024]{1,0}, f32[512,1024]{1,0}, f32[512,1024]{1,0}, /*index=495*/f32[1024,1024]{1,0}, f32[4096,1024]{1,0}, f32[4096,1024]{1,0}, f32[1024,4096]{1,0}, f32[1024]{0}, /*index=500*/f32[1024]{0}, f32[1024,1024]{1,0}, f32[512,1024]{1,0}, f32[512,1024]{1,0}, f32[1024,1024]{1,0}, /*index=505*/f32[4096,1024]{1,0}, f32[4096,1024]{1,0}, f32[1024,4096]{1,0}, f32[1024]{0}, f32[1024]{0}, /*index=510*/f32[1024,1024]{1,0}, f32[512,1024]{1,0}, f32[512,1024]{1,0}, f32[1024,1024]{1,0}, f32[4096,1024]{1,0}, /*index=515*/f32[4096,1024]{1,0}, f32[1024,4096]{1,0}, f32[1024]{0}, f32[1024]{0}, f32[1024,1024]{1,0}, /*index=520*/f32[512,1024]{1,0}, f32[512,1024]{1,0}, f32[1024,1024]{1,0}, f32[4096,1024]{1,0}, f32[4096,1024]{1,0}, /*index=525*/f32[1024,4096]{1,0}, f32[1024]{0}, f32[1024]{0}, f32[1024,1024]{1,0}, f32[512,1024]{1,0}, /*index=530*/f32[512,1024]{1,0}, f32[1024,1024]{1,0}, f32[4096,1024]{1,0}, f32[4096,1024]{1,0}, f32[1024,4096]{1,0}, /*index=535*/f32[1024]{0}, f32[1024]{0}, f32[1024,1024]{1,0}, f32[512,1024]{1,0}, f32[512,1024]{1,0}, /*index=540*/f32[1024,1024]{1,0}, f32[4096,1024]{1,0}, f32[4096,1024]{1,0}, f32[1024,4096]{1,0}, f32[1024]{0}, /*index=545*/f32[1024]{0}, f32[1024,1024]{1,0}, f32[512,1024]{1,0}, f32[512,1024]{1,0}, f32[1024,1024]{1,0}, /*index=550*/f32[4096,1024]{1,0}, f32[4096,1024]{1,0}, f32[1024,4096]{1,0}, f32[1024]{0}, f32[1024]{0}, /*index=555*/f32[1024]{0}, f32[8192,1024]{1,0})}

%AddComputation.718 (x.719: f32[], y.720: f32[]) -> f32[] {
  %x.719 = f32[] parameter(0)
  %y.720 = f32[] parameter(1)
  ROOT %add.721 = f32[] add(f32[] %x.719, f32[] %y.720)
}

%MaxComputation.722 (x.723: f32[], y.724: f32[]) -> f32[] {
  %x.723 = f32[] parameter(0)
  %y.724 = f32[] parameter(1)
  ROOT %maximum.725 = f32[] maximum(f32[] %x.723, f32[] %y.724)
}

%AddComputation.726 (x.727: f32[], y.728: f32[]) -> f32[] {
  %x.727 = f32[] parameter(0)
  %y.728 = f32[] parameter(1)
  ROOT %add.729 = f32[] add(f32[] %x.727, f32[] %y.728)
}

%AddComputation.730 (x.731: f32[], y.732: f32[]) -> f32[] {
  %x.731 = f32[] parameter(0)
  %y.732 = f32[] parameter(1)
  ROOT %add.733 = f32[] add(f32[] %x.731, f32[] %y.732)
}

%FnComputation.734 (p0.736: f32[1024,4096], p1.738: f32[4096,1024], p2.741: f32[], p3.744: f32[1024,1024], p4.746: f32[512,1024], p5.750: f32[16,512,1024], p6.774: f32[1024], p7.795: f32[], p8.796: f32[512,1024], p9.816: f32[1024,1024], p10.881: f32[1024], p11.887: f32[4096,1024]) -> (f32[16,512,1024], f32[16,512,1024], f32[1024], f32[1024], f32[16,512,1], /*index=5*/f32[16,512,1024], f32[1024,1024], f32[8192,1024], f32[1024,512], f32[8192,1024], /*index=10*/f32[1024,512], f32[8192,1024], f32[128,512,128], f32[128,128,512], f32[16,8,512,512], /*index=15*/f32[128,512,512], f32[128,512,128], f32[1024,1024], f32[8192,1024], f32[16,512,1024], /*index=20*/f32[16,512,1], f32[16,512,1024], f32[1024,4096], f32[8192,1024], f32[16,512,4096], /*index=25*/f32[1024,4096], f32[8192,1024], f32[16,512,4096], f32[16,512,4096], f32[4096,1024], /*index=30*/f32[8192,4096]) {
  %p5.750 = f32[16,512,1024]{2,1,0} parameter(5)
  %p6.774 = f32[1024]{0} parameter(6)
  %broadcast.775 = f32[16,512,1024]{2,1,0} broadcast(f32[1024]{0} %p6.774), dimensions={2}
  %constant.749 = f32[] constant(2)
  %broadcast.751 = f32[16,512,1024]{2,1,0} broadcast(f32[] %constant.749), dimensions={}
  %power.752 = f32[16,512,1024]{2,1,0} power(f32[16,512,1024]{2,1,0} %p5.750, f32[16,512,1024]{2,1,0} %broadcast.751)
  %constant.753 = f32[] constant(0)
  %reduce.755 = f32[16,512]{1,0} reduce(f32[16,512,1024]{2,1,0} %power.752, f32[] %constant.753), dimensions={2}, to_apply=%AddComputation.718
  %constant.754 = s32[] constant(1024)
  %constant.756 = s32[] constant(0)
  %compare.761 = pred[] compare(s32[] %constant.754, s32[] %constant.756), direction=NE
  %constant.757 = f32[] constant(1)
  %convert.759 = f32[] convert(s32[] %constant.754)
  %divide.760 = f32[] divide(f32[] %constant.757, f32[] %convert.759)
  %constant.758 = f32[] constant(nan)
  %select.762 = f32[] select(pred[] %compare.761, f32[] %divide.760, f32[] %constant.758)
  %broadcast.763 = f32[16,512]{1,0} broadcast(f32[] %select.762), dimensions={}
  %multiply.764 = f32[16,512]{1,0} multiply(f32[16,512]{1,0} %reduce.755, f32[16,512]{1,0} %broadcast.763)
  %reshape.765 = f32[16,512,1]{2,1,0} reshape(f32[16,512]{1,0} %multiply.764)
  %convert.766 = f32[16,512,1]{2,1,0} convert(f32[16,512,1]{2,1,0} %reshape.765)
  %p2.741 = f32[] parameter(2)
  %constant.748 = f32[] constant(1)
  %multiply.767 = f32[] multiply(f32[] %p2.741, f32[] %constant.748)
  %broadcast.768 = f32[16,512,1]{2,1,0} broadcast(f32[] %multiply.767), dimensions={}
  %add.769 = f32[16,512,1]{2,1,0} add(f32[16,512,1]{2,1,0} %convert.766, f32[16,512,1]{2,1,0} %broadcast.768)
  %rsqrt.770 = f32[16,512,1]{2,1,0} rsqrt(f32[16,512,1]{2,1,0} %add.769)
  %reshape.771 = f32[16,512]{1,0} reshape(f32[16,512,1]{2,1,0} %rsqrt.770)
  %broadcast.772 = f32[16,512,1024]{2,1,0} broadcast(f32[16,512]{1,0} %reshape.771), dimensions={0,1}
  %multiply.773 = f32[16,512,1024]{2,1,0} multiply(f32[16,512,1024]{2,1,0} %p5.750, f32[16,512,1024]{2,1,0} %broadcast.772)
  %multiply.776 = f32[16,512,1024]{2,1,0} multiply(f32[16,512,1024]{2,1,0} %broadcast.775, f32[16,512,1024]{2,1,0} %multiply.773)
  %reshape.818 = f32[8192,1024]{1,0} reshape(f32[16,512,1024]{2,1,0} %multiply.776)
  %p9.816 = f32[1024,1024]{1,0} parameter(9)
  %transpose.817 = f32[1024,1024]{0,1} transpose(f32[1024,1024]{1,0} %p9.816), dimensions={1,0}
  %dot.819 = f32[8192,1024]{1,0} dot(f32[8192,1024]{1,0} %reshape.818, f32[1024,1024]{0,1} %transpose.817), lhs_contracting_dims={1}, rhs_contracting_dims={0}
  %reshape.820 = f32[16,512,1024]{2,1,0} reshape(f32[8192,1024]{1,0} %dot.819)
  %reshape.821 = f32[16,512,8,128]{3,2,1,0} reshape(f32[16,512,1024]{2,1,0} %reshape.820)
  %transpose.822 = f32[16,8,512,128]{3,1,2,0} transpose(f32[16,512,8,128]{3,2,1,0} %reshape.821), dimensions={0,2,1,3}
  %reshape.823 = f32[16,8,512,128,1]{4,3,2,1,0} reshape(f32[16,8,512,128]{3,1,2,0} %transpose.822)
  %transpose.824 = f32[16,8,512,1,128]{3,4,2,1,0} transpose(f32[16,8,512,128,1]{4,3,2,1,0} %reshape.823), dimensions={0,1,2,4,3}
  %transpose.825 = f32[16,8,512,128,1]{4,3,2,1,0} transpose(f32[16,8,512,1,128]{3,4,2,1,0} %transpose.824), dimensions={0,1,2,4,3}
  %reshape.826 = f32[128,512,128]{2,1,0} reshape(f32[16,8,512,128,1]{4,3,2,1,0} %transpose.825)
  %reshape.798 = f32[8192,1024]{1,0} reshape(f32[16,512,1024]{2,1,0} %multiply.776)
  %p8.796 = f32[512,1024]{1,0} parameter(8)
  %transpose.797 = f32[1024,512]{0,1} transpose(f32[512,1024]{1,0} %p8.796), dimensions={1,0}
  %dot.799 = f32[8192,512]{1,0} dot(f32[8192,1024]{1,0} %reshape.798, f32[1024,512]{0,1} %transpose.797), lhs_contracting_dims={1}, rhs_contracting_dims={0}
  %reshape.800 = f32[16,512,512]{2,1,0} reshape(f32[8192,512]{1,0} %dot.799)
  %reshape.801 = f32[16,512,4,128]{3,2,1,0} reshape(f32[16,512,512]{2,1,0} %reshape.800)
  %transpose.802 = f32[16,4,512,128]{3,1,2,0} transpose(f32[16,512,4,128]{3,2,1,0} %reshape.801), dimensions={0,2,1,3}
  %slice.803 = f32[16,4,512,128]{3,2,1,0} slice(f32[16,4,512,128]{3,1,2,0} %transpose.802), slice={[0:16], [0:4], [0:512], [0:128]}
  %slice.804 = f32[16,4,512,128]{3,2,1,0} slice(f32[16,4,512,128]{3,2,1,0} %slice.803), slice={[0:16], [0:4], [0:512], [0:128]}
  %reshape.805 = f32[16,4,1,512,128]{4,3,2,1,0} reshape(f32[16,4,512,128]{3,2,1,0} %slice.804)
  %slice.806 = f32[16,4,1,512,128]{4,3,2,1,0} slice(f32[16,4,1,512,128]{4,3,2,1,0} %reshape.805), slice={[0:16], [0:4], [0:1], [0:512], [0:128]}
  %slice.807 = f32[16,4,1,512,128]{4,3,2,1,0} slice(f32[16,4,1,512,128]{4,3,2,1,0} %slice.806), slice={[0:16], [0:4], [0:1], [0:512], [0:128]}
  %broadcast.808 = f32[16,4,1,512,128]{4,3,2,1,0} broadcast(f32[16,4,1,512,128]{4,3,2,1,0} %slice.807), dimensions={0,1,2,3,4}
  %reshape.809 = f32[16,4,512,128]{3,2,1,0} reshape(f32[16,4,1,512,128]{4,3,2,1,0} %broadcast.808)
  %broadcast.810 = f32[16,4,2,512,128]{4,3,2,1,0} broadcast(f32[16,4,512,128]{3,2,1,0} %reshape.809), dimensions={0,1,3,4}
  %reshape.811 = f32[16,8,512,128]{3,2,1,0} reshape(f32[16,4,2,512,128]{4,3,2,1,0} %broadcast.810)
  %reshape.812 = f32[16,8,512,128,1]{4,3,2,1,0} reshape(f32[16,8,512,128]{3,2,1,0} %reshape.811)
  %transpose.813 = f32[16,8,1,512,128]{2,4,3,1,0} transpose(f32[16,8,512,128,1]{4,3,2,1,0} %reshape.812), dimensions={0,1,4,2,3}
  %transpose.814 = f32[16,8,128,512,1]{4,2,3,1,0} transpose(f32[16,8,1,512,128]{2,4,3,1,0} %transpose.813), dimensions={0,1,4,3,2}
  %reshape.815 = f32[128,128,512]{2,1,0} reshape(f32[16,8,128,512,1]{4,2,3,1,0} %transpose.814)
  %dot.827 = f32[128,512,512]{2,1,0} dot(f32[128,512,128]{2,1,0} %reshape.826, f32[128,128,512]{2,1,0} %reshape.815), lhs_batch_dims={0}, lhs_contracting_dims={2}, rhs_batch_dims={0}, rhs_contracting_dims={1}
  %reshape.828 = f32[16,8,512,1,512]{4,3,2,1,0} reshape(f32[128,512,512]{2,1,0} %dot.827)
  %transpose.829 = f32[16,8,512,512,1]{3,4,2,1,0} transpose(f32[16,8,512,1,512]{4,3,2,1,0} %reshape.828), dimensions={0,1,2,4,3}
  %reshape.830 = f32[16,8,512,512]{3,2,1,0} reshape(f32[16,8,512,512,1]{3,4,2,1,0} %transpose.829)
  %p7.795 = f32[] parameter(7)
  %broadcast.831 = f32[16,8,512,512]{3,2,1,0} broadcast(f32[] %p7.795), dimensions={}
  %divide.832 = f32[16,8,512,512]{3,2,1,0} divide(f32[16,8,512,512]{3,2,1,0} %reshape.830, f32[16,8,512,512]{3,2,1,0} %broadcast.831)
  %constant.833 = f32[] constant(-inf)
  %reduce.834 = f32[16,8,512]{2,1,0} reduce(f32[16,8,512,512]{3,2,1,0} %divide.832, f32[] %constant.833), dimensions={3}, to_apply=%MaxComputation.722
  %broadcast.835 = f32[16,8,512,512]{3,2,1,0} broadcast(f32[16,8,512]{2,1,0} %reduce.834), dimensions={0,1,2}
  %subtract.836 = f32[16,8,512,512]{3,2,1,0} subtract(f32[16,8,512,512]{3,2,1,0} %divide.832, f32[16,8,512,512]{3,2,1,0} %broadcast.835)
  %exponential.837 = f32[16,8,512,512]{3,2,1,0} exponential(f32[16,8,512,512]{3,2,1,0} %subtract.836)
  %constant.838 = f32[] constant(0)
  %reduce.839 = f32[16,8,512]{2,1,0} reduce(f32[16,8,512,512]{3,2,1,0} %exponential.837, f32[] %constant.838), dimensions={3}, to_apply=%AddComputation.726
  %broadcast.840 = f32[16,8,512,512]{3,2,1,0} broadcast(f32[16,8,512]{2,1,0} %reduce.839), dimensions={0,1,2}
  %divide.841 = f32[16,8,512,512]{3,2,1,0} divide(f32[16,8,512,512]{3,2,1,0} %exponential.837, f32[16,8,512,512]{3,2,1,0} %broadcast.840)
  %reshape.842 = f32[16,8,512,512,1]{4,3,2,1,0} reshape(f32[16,8,512,512]{3,2,1,0} %divide.841)
  %transpose.843 = f32[16,8,512,1,512]{3,4,2,1,0} transpose(f32[16,8,512,512,1]{4,3,2,1,0} %reshape.842), dimensions={0,1,2,4,3}
  %transpose.844 = f32[16,8,512,512,1]{4,3,2,1,0} transpose(f32[16,8,512,1,512]{3,4,2,1,0} %transpose.843), dimensions={0,1,2,4,3}
  %reshape.845 = f32[128,512,512]{2,1,0} reshape(f32[16,8,512,512,1]{4,3,2,1,0} %transpose.844)
  %reshape.777 = f32[8192,1024]{1,0} reshape(f32[16,512,1024]{2,1,0} %multiply.776)
  %p4.746 = f32[512,1024]{1,0} parameter(4)
  %transpose.747 = f32[1024,512]{0,1} transpose(f32[512,1024]{1,0} %p4.746), dimensions={1,0}
  %dot.778 = f32[8192,512]{1,0} dot(f32[8192,1024]{1,0} %reshape.777, f32[1024,512]{0,1} %transpose.747), lhs_contracting_dims={1}, rhs_contracting_dims={0}
  %reshape.779 = f32[16,512,512]{2,1,0} reshape(f32[8192,512]{1,0} %dot.778)
  %reshape.780 = f32[16,512,4,128]{3,2,1,0} reshape(f32[16,512,512]{2,1,0} %reshape.779)
  %transpose.781 = f32[16,4,512,128]{3,1,2,0} transpose(f32[16,512,4,128]{3,2,1,0} %reshape.780), dimensions={0,2,1,3}
  %slice.782 = f32[16,4,512,128]{3,2,1,0} slice(f32[16,4,512,128]{3,1,2,0} %transpose.781), slice={[0:16], [0:4], [0:512], [0:128]}
  %slice.783 = f32[16,4,512,128]{3,2,1,0} slice(f32[16,4,512,128]{3,2,1,0} %slice.782), slice={[0:16], [0:4], [0:512], [0:128]}
  %reshape.784 = f32[16,4,1,512,128]{4,3,2,1,0} reshape(f32[16,4,512,128]{3,2,1,0} %slice.783)
  %slice.785 = f32[16,4,1,512,128]{4,3,2,1,0} slice(f32[16,4,1,512,128]{4,3,2,1,0} %reshape.784), slice={[0:16], [0:4], [0:1], [0:512], [0:128]}
  %slice.786 = f32[16,4,1,512,128]{4,3,2,1,0} slice(f32[16,4,1,512,128]{4,3,2,1,0} %slice.785), slice={[0:16], [0:4], [0:1], [0:512], [0:128]}
  %broadcast.787 = f32[16,4,1,512,128]{4,3,2,1,0} broadcast(f32[16,4,1,512,128]{4,3,2,1,0} %slice.786), dimensions={0,1,2,3,4}
  %reshape.788 = f32[16,4,512,128]{3,2,1,0} reshape(f32[16,4,1,512,128]{4,3,2,1,0} %broadcast.787)
  %broadcast.789 = f32[16,4,2,512,128]{4,3,2,1,0} broadcast(f32[16,4,512,128]{3,2,1,0} %reshape.788), dimensions={0,1,3,4}
  %reshape.790 = f32[16,8,512,128]{3,2,1,0} reshape(f32[16,4,2,512,128]{4,3,2,1,0} %broadcast.789)
  %reshape.791 = f32[16,8,512,128,1]{4,3,2,1,0} reshape(f32[16,8,512,128]{3,2,1,0} %reshape.790)
  %transpose.792 = f32[16,8,1,128,512]{2,3,4,1,0} transpose(f32[16,8,512,128,1]{4,3,2,1,0} %reshape.791), dimensions={0,1,4,3,2}
  %transpose.793 = f32[16,8,512,128,1]{4,3,2,1,0} transpose(f32[16,8,1,128,512]{2,3,4,1,0} %transpose.792), dimensions={0,1,4,3,2}
  %reshape.794 = f32[128,512,128]{2,1,0} reshape(f32[16,8,512,128,1]{4,3,2,1,0} %transpose.793)
  %dot.846 = f32[128,512,128]{2,1,0} dot(f32[128,512,512]{2,1,0} %reshape.845, f32[128,512,128]{2,1,0} %reshape.794), lhs_batch_dims={0}, lhs_contracting_dims={2}, rhs_batch_dims={0}, rhs_contracting_dims={1}
  %reshape.847 = f32[16,8,512,1,128]{4,3,2,1,0} reshape(f32[128,512,128]{2,1,0} %dot.846)
  %transpose.848 = f32[16,8,512,128,1]{3,4,2,1,0} transpose(f32[16,8,512,1,128]{4,3,2,1,0} %reshape.847), dimensions={0,1,2,4,3}
  %reshape.849 = f32[16,8,512,128]{3,2,1,0} reshape(f32[16,8,512,128,1]{3,4,2,1,0} %transpose.848)
  %transpose.850 = f32[16,512,8,128]{3,1,2,0} transpose(f32[16,8,512,128]{3,2,1,0} %reshape.849), dimensions={0,2,1,3}
  %reshape.851 = f32[16,512,1024]{2,1,0} reshape(f32[16,512,8,128]{3,1,2,0} %transpose.850)
  %reshape.852 = f32[8192,1024]{1,0} reshape(f32[16,512,1024]{2,1,0} %reshape.851)
  %p3.744 = f32[1024,1024]{1,0} parameter(3)
  %transpose.745 = f32[1024,1024]{0,1} transpose(f32[1024,1024]{1,0} %p3.744), dimensions={1,0}
  %dot.853 = f32[8192,1024]{1,0} dot(f32[8192,1024]{1,0} %reshape.852, f32[1024,1024]{0,1} %transpose.745), lhs_contracting_dims={1}, rhs_contracting_dims={0}
  %reshape.854 = f32[16,512,1024]{2,1,0} reshape(f32[8192,1024]{1,0} %dot.853)
  %constant.743 = f32[] constant(1)
  %broadcast.855 = f32[16,512,1024]{2,1,0} broadcast(f32[] %constant.743), dimensions={}
  %multiply.856 = f32[16,512,1024]{2,1,0} multiply(f32[16,512,1024]{2,1,0} %reshape.854, f32[16,512,1024]{2,1,0} %broadcast.855)
  %add.857 = f32[16,512,1024]{2,1,0} add(f32[16,512,1024]{2,1,0} %p5.750, f32[16,512,1024]{2,1,0} %multiply.856)
  %p10.881 = f32[1024]{0} parameter(10)
  %broadcast.882 = f32[16,512,1024]{2,1,0} broadcast(f32[1024]{0} %p10.881), dimensions={2}
  %constant.742 = f32[] constant(2)
  %broadcast.858 = f32[16,512,1024]{2,1,0} broadcast(f32[] %constant.742), dimensions={}
  %power.859 = f32[16,512,1024]{2,1,0} power(f32[16,512,1024]{2,1,0} %add.857, f32[16,512,1024]{2,1,0} %broadcast.858)
  %constant.860 = f32[] constant(0)
  %reduce.862 = f32[16,512]{1,0} reduce(f32[16,512,1024]{2,1,0} %power.859, f32[] %constant.860), dimensions={2}, to_apply=%AddComputation.730
  %constant.861 = s32[] constant(1024)
  %constant.863 = s32[] constant(0)
  %compare.868 = pred[] compare(s32[] %constant.861, s32[] %constant.863), direction=NE
  %constant.864 = f32[] constant(1)
  %convert.866 = f32[] convert(s32[] %constant.861)
  %divide.867 = f32[] divide(f32[] %constant.864, f32[] %convert.866)
  %constant.865 = f32[] constant(nan)
  %select.869 = f32[] select(pred[] %compare.868, f32[] %divide.867, f32[] %constant.865)
  %broadcast.870 = f32[16,512]{1,0} broadcast(f32[] %select.869), dimensions={}
  %multiply.871 = f32[16,512]{1,0} multiply(f32[16,512]{1,0} %reduce.862, f32[16,512]{1,0} %broadcast.870)
  %reshape.872 = f32[16,512,1]{2,1,0} reshape(f32[16,512]{1,0} %multiply.871)
  %convert.873 = f32[16,512,1]{2,1,0} convert(f32[16,512,1]{2,1,0} %reshape.872)
  %constant.740 = f32[] constant(1)
  %multiply.874 = f32[] multiply(f32[] %p2.741, f32[] %constant.740)
  %broadcast.875 = f32[16,512,1]{2,1,0} broadcast(f32[] %multiply.874), dimensions={}
  %add.876 = f32[16,512,1]{2,1,0} add(f32[16,512,1]{2,1,0} %convert.873, f32[16,512,1]{2,1,0} %broadcast.875)
  %rsqrt.877 = f32[16,512,1]{2,1,0} rsqrt(f32[16,512,1]{2,1,0} %add.876)
  %reshape.878 = f32[16,512]{1,0} reshape(f32[16,512,1]{2,1,0} %rsqrt.877)
  %broadcast.879 = f32[16,512,1024]{2,1,0} broadcast(f32[16,512]{1,0} %reshape.878), dimensions={0,1}
  %multiply.880 = f32[16,512,1024]{2,1,0} multiply(f32[16,512,1024]{2,1,0} %add.857, f32[16,512,1024]{2,1,0} %broadcast.879)
  %multiply.883 = f32[16,512,1024]{2,1,0} multiply(f32[16,512,1024]{2,1,0} %broadcast.882, f32[16,512,1024]{2,1,0} %multiply.880)
  %reshape.889 = f32[8192,1024]{1,0} reshape(f32[16,512,1024]{2,1,0} %multiply.883)
  %p11.887 = f32[4096,1024]{1,0} parameter(11)
  %transpose.888 = f32[1024,4096]{0,1} transpose(f32[4096,1024]{1,0} %p11.887), dimensions={1,0}
  %dot.890 = f32[8192,4096]{1,0} dot(f32[8192,1024]{1,0} %reshape.889, f32[1024,4096]{0,1} %transpose.888), lhs_contracting_dims={1}, rhs_contracting_dims={0}
  %reshape.891 = f32[16,512,4096]{2,1,0} reshape(f32[8192,4096]{1,0} %dot.890)
  %logistic.892 = f32[16,512,4096]{2,1,0} logistic(f32[16,512,4096]{2,1,0} %reshape.891)
  %multiply.893 = f32[16,512,4096]{2,1,0} multiply(f32[16,512,4096]{2,1,0} %reshape.891, f32[16,512,4096]{2,1,0} %logistic.892)
  %reshape.884 = f32[8192,1024]{1,0} reshape(f32[16,512,1024]{2,1,0} %multiply.883)
  %p1.738 = f32[4096,1024]{1,0} parameter(1)
  %transpose.739 = f32[1024,4096]{0,1} transpose(f32[4096,1024]{1,0} %p1.738), dimensions={1,0}
  %dot.885 = f32[8192,4096]{1,0} dot(f32[8192,1024]{1,0} %reshape.884, f32[1024,4096]{0,1} %transpose.739), lhs_contracting_dims={1}, rhs_contracting_dims={0}
  %reshape.886 = f32[16,512,4096]{2,1,0} reshape(f32[8192,4096]{1,0} %dot.885)
  %multiply.894 = f32[16,512,4096]{2,1,0} multiply(f32[16,512,4096]{2,1,0} %multiply.893, f32[16,512,4096]{2,1,0} %reshape.886)
  %reshape.895 = f32[8192,4096]{1,0} reshape(f32[16,512,4096]{2,1,0} %multiply.894)
  %p0.736 = f32[1024,4096]{1,0} parameter(0)
  %transpose.737 = f32[4096,1024]{0,1} transpose(f32[1024,4096]{1,0} %p0.736), dimensions={1,0}
  %dot.896 = f32[8192,1024]{1,0} dot(f32[8192,4096]{1,0} %reshape.895, f32[4096,1024]{0,1} %transpose.737), lhs_contracting_dims={1}, rhs_contracting_dims={0}
  %reshape.897 = f32[16,512,1024]{2,1,0} reshape(f32[8192,1024]{1,0} %dot.896)
  %constant.735 = f32[] constant(1)
  %broadcast.898 = f32[16,512,1024]{2,1,0} broadcast(f32[] %constant.735), dimensions={}
  %multiply.899 = f32[16,512,1024]{2,1,0} multiply(f32[16,512,1024]{2,1,0} %reshape.897, f32[16,512,1024]{2,1,0} %broadcast.898)
  %add.900 = f32[16,512,1024]{2,1,0} add(f32[16,512,1024]{2,1,0} %add.857, f32[16,512,1024]{2,1,0} %multiply.899)
  ROOT %tuple.901 = (f32[16,512,1024]{2,1,0}, f32[16,512,1024]{2,1,0}, f32[1024]{0}, f32[1024]{0}, f32[16,512,1]{2,1,0}, /*index=5*/f32[16,512,1024]{2,1,0}, f32[1024,1024]{0,1}, f32[8192,1024]{1,0}, f32[1024,512]{0,1}, f32[8192,1024]{1,0}, /*index=10*/f32[1024,512]{0,1}, f32[8192,1024]{1,0}, f32[128,512,128]{2,1,0}, f32[128,128,512]{2,1,0}, f32[16,8,512,512]{3,2,1,0}, /*index=15*/f32[128,512,512]{2,1,0}, f32[128,512,128]{2,1,0}, f32[1024,1024]{0,1}, f32[8192,1024]{1,0}, f32[16,512,1024]{2,1,0}, /*index=20*/f32[16,512,1]{2,1,0}, f32[16,512,1024]{2,1,0}, f32[1024,4096]{0,1}, f32[8192,1024]{1,0}, f32[16,512,4096]{2,1,0}, /*index=25*/f32[1024,4096]{0,1}, f32[8192,1024]{1,0}, f32[16,512,4096]{2,1,0}, f32[16,512,4096]{2,1,0}, f32[4096,1024]{0,1}, /*index=30*/f32[8192,4096]{1,0}) tuple(f32[16,512,1024]{2,1,0} %add.900, f32[16,512,1024]{2,1,0} %p5.750, f32[1024]{0} %p6.774, f32[1024]{0} %p10.881, f32[16,512,1]{2,1,0} %rsqrt.770, /*index=5*/f32[16,512,1024]{2,1,0} %multiply.773, f32[1024,1024]{0,1} %transpose.817, f32[8192,1024]{1,0} %reshape.818, f32[1024,512]{0,1} %transpose.797, f32[8192,1024]{1,0} %reshape.798, /*index=10*/f32[1024,512]{0,1} %transpose.747, f32[8192,1024]{1,0} %reshape.777, f32[128,512,128]{2,1,0} %reshape.826, f32[128,128,512]{2,1,0} %reshape.815, f32[16,8,512,512]{3,2,1,0} %divide.841, /*index=15*/f32[128,512,512]{2,1,0} %reshape.845, f32[128,512,128]{2,1,0} %reshape.794, f32[1024,1024]{0,1} %transpose.745, f32[8192,1024]{1,0} %reshape.852, f32[16,512,1024]{2,1,0} %add.857, /*index=20*/f32[16,512,1]{2,1,0} %rsqrt.877, f32[16,512,1024]{2,1,0} %multiply.880, f32[1024,4096]{0,1} %transpose.739, f32[8192,1024]{1,0} %reshape.884, f32[16,512,4096]{2,1,0} %reshape.886, /*index=25*/f32[1024,4096]{0,1} %transpose.888, f32[8192,1024]{1,0} %reshape.889, f32[16,512,4096]{2,1,0} %reshape.891, f32[16,512,4096]{2,1,0} %multiply.893, f32[4096,1024]{0,1} %transpose.737, /*index=30*/f32[8192,4096]{1,0} %reshape.895)
}

%Body.902 (p0.903: (s64[], f32[16,512,1024], f32[30,1024,1024], f32[30,512,1024], f32[30,512,1024], /*index=5*/f32[30,1024,1024], f32[30,4096,1024], f32[30,4096,1024], f32[30,1024,4096], f32[30,1024], /*index=10*/f32[30,1024], f32[30,16,512,1024], f32[30,1024], f32[30,1024], f32[30,16,512,1], /*index=15*/f32[30,16,512,1024], f32[30,1024,1024], f32[30,8192,1024], f32[30,1024,512], f32[30,8192,1024], /*index=20*/f32[30,1024,512], f32[30,8192,1024], f32[30,128,512,128], f32[30,128,128,512], f32[30,16,8,512,512], /*index=25*/f32[30,128,512,512], f32[30,128,512,128], f32[30,1024,1024], f32[30,8192,1024], f32[30,16,512,1024], /*index=30*/f32[30,16,512,1], f32[30,16,512,1024], f32[30,1024,4096], f32[30,8192,1024], f32[30,16,512,4096], /*index=35*/f32[30,1024,4096], f32[30,8192,1024], f32[30,16,512,4096], f32[30,16,512,4096], f32[30,4096,1024], /*index=40*/f32[30,8192,4096], f32[], f32[])) -> (s64[], f32[16,512,1024], f32[30,1024,1024], f32[30,512,1024], f32[30,512,1024], /*index=5*/f32[30,1024,1024], f32[30,4096,1024], f32[30,4096,1024], f32[30,1024,4096], f32[30,1024], /*index=10*/f32[30,1024], f32[30,16,512,1024], f32[30,1024], f32[30,1024], f32[30,16,512,1], /*index=15*/f32[30,16,512,1024], f32[30,1024,1024], f32[30,8192,1024], f32[30,1024,512], f32[30,8192,1024], /*index=20*/f32[30,1024,512], f32[30,8192,1024], f32[30,128,512,128], f32[30,128,128,512], f32[30,16,8,512,512], /*index=25*/f32[30,128,512,512], f32[30,128,512,128], f32[30,1024,1024], f32[30,8192,1024], f32[30,16,512,1024], /*index=30*/f32[30,16,512,1], f32[30,16,512,1024], f32[30,1024,4096], f32[30,8192,1024], f32[30,16,512,4096], /*index=35*/f32[30,1024,4096], f32[30,8192,1024], f32[30,16,512,4096], f32[30,16,512,4096], f32[30,4096,1024], /*index=40*/f32[30,8192,4096], f32[], f32[]) {
  %p0.903 = (s64[], f32[16,512,1024]{2,1,0}, f32[30,1024,1024]{2,1,0}, f32[30,512,1024]{2,1,0}, f32[30,512,1024]{2,1,0}, /*index=5*/f32[30,1024,1024]{2,1,0}, f32[30,4096,1024]{2,1,0}, f32[30,4096,1024]{2,1,0}, f32[30,1024,4096]{2,1,0}, f32[30,1024]{1,0}, /*index=10*/f32[30,1024]{1,0}, f32[30,16,512,1024]{3,2,1,0}, f32[30,1024]{1,0}, f32[30,1024]{1,0}, f32[30,16,512,1]{3,2,1,0}, /*index=15*/f32[30,16,512,1024]{3,2,1,0}, f32[30,1024,1024]{2,1,0}, f32[30,8192,1024]{2,1,0}, f32[30,1024,512]{2,1,0}, f32[30,8192,1024]{2,1,0}, /*index=20*/f32[30,1024,512]{2,1,0}, f32[30,8192,1024]{2,1,0}, f32[30,128,512,128]{3,2,1,0}, f32[30,128,128,512]{3,2,1,0}, f32[30,16,8,512,512]{4,3,2,1,0}, /*index=25*/f32[30,128,512,512]{3,2,1,0}, f32[30,128,512,128]{3,2,1,0}, f32[30,1024,1024]{2,1,0}, f32[30,8192,1024]{2,1,0}, f32[30,16,512,1024]{3,2,1,0}, /*index=30*/f32[30,16,512,1]{3,2,1,0}, f32[30,16,512,1024]{3,2,1,0}, f32[30,1024,4096]{2,1,0}, f32[30,8192,1024]{2,1,0}, f32[30,16,512,4096]{3,2,1,0}, /*index=35*/f32[30,1024,4096]{2,1,0}, f32[30,8192,1024]{2,1,0}, f32[30,16,512,4096]{3,2,1,0}, f32[30,16,512,4096]{3,2,1,0}, f32[30,4096,1024]{2,1,0}, /*index=40*/f32[30,8192,4096]{2,1,0}, f32[], f32[]) parameter(0)
  %get-tuple-element.904 = s64[] get-tuple-element((s64[], f32[16,512,1024]{2,1,0}, f32[30,1024,1024]{2,1,0}, f32[30,512,1024]{2,1,0}, f32[30,512,1024]{2,1,0}, /*index=5*/f32[30,1024,1024]{2,1,0}, f32[30,4096,1024]{2,1,0}, f32[30,4096,1024]{2,1,0}, f32[30,1024,4096]{2,1,0}, f32[30,1024]{1,0}, /*index=10*/f32[30,1024]{1,0}, f32[30,16,512,1024]{3,2,1,0}, f32[30,1024]{1,0}, f32[30,1024]{1,0}, f32[30,16,512,1]{3,2,1,0}, /*index=15*/f32[30,16,512,1024]{3,2,1,0}, f32[30,1024,1024]{2,1,0}, f32[30,8192,1024]{2,1,0}, f32[30,1024,512]{2,1,0}, f32[30,8192,1024]{2,1,0}, /*index=20*/f32[30,1024,512]{2,1,0}, f32[30,8192,1024]{2,1,0}, f32[30,128,512,128]{3,2,1,0}, f32[30,128,128,512]{3,2,1,0}, f32[30,16,8,512,512]{4,3,2,1,0}, /*index=25*/f32[30,128,512,512]{3,2,1,0}, f32[30,128,512,128]{3,2,1,0}, f32[30,1024,1024]{2,1,0}, f32[30,8192,1024]{2,1,0}, f32[30,16,512,1024]{3,2,1,0}, /*index=30*/f32[30,16,512,1]{3,2,1,0}, f32[30,16,512,1024]{3,2,1,0}, f32[30,1024,4096]{2,1,0}, f32[30,8192,1024]{2,1,0}, f32[30,16,512,4096]{3,2,1,0}, /*index=35*/f32[30,1024,4096]{2,1,0}, f32[30,8192,1024]{2,1,0}, f32[30,16,512,4096]{3,2,1,0}, f32[30,16,512,4096]{3,2,1,0}, f32[30,4096,1024]{2,1,0}, /*index=40*/f32[30,8192,4096]{2,1,0}, f32[], f32[]) %p0.903), index=0
  %constant.1235 = s64[] constant(1)
  %add.1236 = s64[] add(s64[] %get-tuple-element.904, s64[] %constant.1235)
  %get-tuple-element.912 = f32[30,1024,4096]{2,1,0} get-tuple-element((s64[], f32[16,512,1024]{2,1,0}, f32[30,1024,1024]{2,1,0}, f32[30,512,1024]{2,1,0}, f32[30,512,1024]{2,1,0}, /*index=5*/f32[30,1024,1024]{2,1,0}, f32[30,4096,1024]{2,1,0}, f32[30,4096,1024]{2,1,0}, f32[30,1024,4096]{2,1,0}, f32[30,1024]{1,0}, /*index=10*/f32[30,1024]{1,0}, f32[30,16,512,1024]{3,2,1,0}, f32[30,1024]{1,0}, f32[30,1024]{1,0}, f32[30,16,512,1]{3,2,1,0}, /*index=15*/f32[30,16,512,1024]{3,2,1,0}, f32[30,1024,1024]{2,1,0}, f32[30,8192,1024]{2,1,0}, f32[30,1024,512]{2,1,0}, f32[30,8192,1024]{2,1,0}, /*index=20*/f32[30,1024,512]{2,1,0}, f32[30,8192,1024]{2,1,0}, f32[30,128,512,128]{3,2,1,0}, f32[30,128,128,512]{3,2,1,0}, f32[30,16,8,512,512]{4,3,2,1,0}, /*index=25*/f32[30,128,512,512]{3,2,1,0}, f32[30,128,512,128]{3,2,1,0}, f32[30,1024,1024]{2,1,0}, f32[30,8192,1024]{2,1,0}, f32[30,16,512,1024]{3,2,1,0}, /*index=30*/f32[30,16,512,1]{3,2,1,0}, f32[30,16,512,1024]{3,2,1,0}, f32[30,1024,4096]{2,1,0}, f32[30,8192,1024]{2,1,0}, f32[30,16,512,4096]{3,2,1,0}, /*index=35*/f32[30,1024,4096]{2,1,0}, f32[30,8192,1024]{2,1,0}, f32[30,16,512,4096]{3,2,1,0}, f32[30,16,512,4096]{3,2,1,0}, f32[30,4096,1024]{2,1,0}, /*index=40*/f32[30,8192,4096]{2,1,0}, f32[], f32[]) %p0.903), index=8
  %constant.983 = s64[] constant(0)
  %broadcast.984 = s64[] broadcast(s64[] %constant.983), dimensions={}
  %constant.985 = s64[] constant(0)
  %broadcast.986 = s64[] broadcast(s64[] %constant.985), dimensions={}
  %dynamic-slice.987 = f32[1,1024,4096]{2,1,0} dynamic-slice(f32[30,1024,4096]{2,1,0} %get-tuple-element.912, s64[] %get-tuple-element.904, s64[] %broadcast.984, s64[] %broadcast.986), dynamic_slice_sizes={1,1024,4096}
  %reshape.988 = f32[1024,4096]{1,0} reshape(f32[1,1024,4096]{2,1,0} %dynamic-slice.987)
  %get-tuple-element.911 = f32[30,4096,1024]{2,1,0} get-tuple-element((s64[], f32[16,512,1024]{2,1,0}, f32[30,1024,1024]{2,1,0}, f32[30,512,1024]{2,1,0}, f32[30,512,1024]{2,1,0}, /*index=5*/f32[30,1024,1024]{2,1,0}, f32[30,4096,1024]{2,1,0}, f32[30,4096,1024]{2,1,0}, f32[30,1024,4096]{2,1,0}, f32[30,1024]{1,0}, /*index=10*/f32[30,1024]{1,0}, f32[30,16,512,1024]{3,2,1,0}, f32[30,1024]{1,0}, f32[30,1024]{1,0}, f32[30,16,512,1]{3,2,1,0}, /*index=15*/f32[30,16,512,1024]{3,2,1,0}, f32[30,1024,1024]{2,1,0}, f32[30,8192,1024]{2,1,0}, f32[30,1024,512]{2,1,0}, f32[30,8192,1024]{2,1,0}, /*index=20*/f32[30,1024,512]{2,1,0}, f32[30,8192,1024]{2,1,0}, f32[30,128,512,128]{3,2,1,0}, f32[30,128,128,512]{3,2,1,0}, f32[30,16,8,512,512]{4,3,2,1,0}, /*index=25*/f32[30,128,512,512]{3,2,1,0}, f32[30,128,512,128]{3,2,1,0}, f32[30,1024,1024]{2,1,0}, f32[30,8192,1024]{2,1,0}, f32[30,16,512,1024]{3,2,1,0}, /*index=30*/f32[30,16,512,1]{3,2,1,0}, f32[30,16,512,1024]{3,2,1,0}, f32[30,1024,4096]{2,1,0}, f32[30,8192,1024]{2,1,0}, f32[30,16,512,4096]{3,2,1,0}, /*index=35*/f32[30,1024,4096]{2,1,0}, f32[30,8192,1024]{2,1,0}, f32[30,16,512,4096]{3,2,1,0}, f32[30,16,512,4096]{3,2,1,0}, f32[30,4096,1024]{2,1,0}, /*index=40*/f32[30,8192,4096]{2,1,0}, f32[], f32[]) %p0.903), index=7
  %constant.977 = s64[] constant(0)
  %broadcast.978 = s64[] broadcast(s64[] %constant.977), dimensions={}
  %constant.979 = s64[] constant(0)
  %broadcast.980 = s64[] broadcast(s64[] %constant.979), dimensions={}
  %dynamic-slice.981 = f32[1,4096,1024]{2,1,0} dynamic-slice(f32[30,4096,1024]{2,1,0} %get-tuple-element.911, s64[] %get-tuple-element.904, s64[] %broadcast.978, s64[] %broadcast.980), dynamic_slice_sizes={1,4096,1024}
  %reshape.982 = f32[4096,1024]{1,0} reshape(f32[1,4096,1024]{2,1,0} %dynamic-slice.981)
  %get-tuple-element.946 = f32[] get-tuple-element((s64[], f32[16,512,1024]{2,1,0}, f32[30,1024,1024]{2,1,0}, f32[30,512,1024]{2,1,0}, f32[30,512,1024]{2,1,0}, /*index=5*/f32[30,1024,1024]{2,1,0}, f32[30,4096,1024]{2,1,0}, f32[30,4096,1024]{2,1,0}, f32[30,1024,4096]{2,1,0}, f32[30,1024]{1,0}, /*index=10*/f32[30,1024]{1,0}, f32[30,16,512,1024]{3,2,1,0}, f32[30,1024]{1,0}, f32[30,1024]{1,0}, f32[30,16,512,1]{3,2,1,0}, /*index=15*/f32[30,16,512,1024]{3,2,1,0}, f32[30,1024,1024]{2,1,0}, f32[30,8192,1024]{2,1,0}, f32[30,1024,512]{2,1,0}, f32[30,8192,1024]{2,1,0}, /*index=20*/f32[30,1024,512]{2,1,0}, f32[30,8192,1024]{2,1,0}, f32[30,128,512,128]{3,2,1,0}, f32[30,128,128,512]{3,2,1,0}, f32[30,16,8,512,512]{4,3,2,1,0}, /*index=25*/f32[30,128,512,512]{3,2,1,0}, f32[30,128,512,128]{3,2,1,0}, f32[30,1024,1024]{2,1,0}, f32[30,8192,1024]{2,1,0}, f32[30,16,512,1024]{3,2,1,0}, /*index=30*/f32[30,16,512,1]{3,2,1,0}, f32[30,16,512,1024]{3,2,1,0}, f32[30,1024,4096]{2,1,0}, f32[30,8192,1024]{2,1,0}, f32[30,16,512,4096]{3,2,1,0}, /*index=35*/f32[30,1024,4096]{2,1,0}, f32[30,8192,1024]{2,1,0}, f32[30,16,512,4096]{3,2,1,0}, f32[30,16,512,4096]{3,2,1,0}, f32[30,4096,1024]{2,1,0}, /*index=40*/f32[30,8192,4096]{2,1,0}, f32[], f32[]) %p0.903), index=42
  %get-tuple-element.909 = f32[30,1024,1024]{2,1,0} get-tuple-element((s64[], f32[16,512,1024]{2,1,0}, f32[30,1024,1024]{2,1,0}, f32[30,512,1024]{2,1,0}, f32[30,512,1024]{2,1,0}, /*index=5*/f32[30,1024,1024]{2,1,0}, f32[30,4096,1024]{2,1,0}, f32[30,4096,1024]{2,1,0}, f32[30,1024,4096]{2,1,0}, f32[30,1024]{1,0}, /*index=10*/f32[30,1024]{1,0}, f32[30,16,512,1024]{3,2,1,0}, f32[30,1024]{1,0}, f32[30,1024]{1,0}, f32[30,16,512,1]{3,2,1,0}, /*index=15*/f32[30,16,512,1024]{3,2,1,0}, f32[30,1024,1024]{2,1,0}, f32[30,8192,1024]{2,1,0}, f32[30,1024,512]{2,1,0}, f32[30,8192,1024]{2,1,0}, /*index=20*/f32[30,1024,512]{2,1,0}, f32[30,8192,1024]{2,1,0}, f32[30,128,512,128]{3,2,1,0}, f32[30,128,128,512]{3,2,1,0}, f32[30,16,8,512,512]{4,3,2,1,0}, /*index=25*/f32[30,128,512,512]{3,2,1,0}, f32[30,128,512,128]{3,2,1,0}, f32[30,1024,1024]{2,1,0}, f32[30,8192,1024]{2,1,0}, f32[30,16,512,1024]{3,2,1,0}, /*index=30*/f32[30,16,512,1]{3,2,1,0}, f32[30,16,512,1024]{3,2,1,0}, f32[30,1024,4096]{2,1,0}, f32[30,8192,1024]{2,1,0}, f32[30,16,512,4096]{3,2,1,0}, /*index=35*/f32[30,1024,4096]{2,1,0}, f32[30,8192,1024]{2,1,0}, f32[30,16,512,4096]{3,2,1,0}, f32[30,16,512,4096]{3,2,1,0}, f32[30,4096,1024]{2,1,0}, /*index=40*/f32[30,8192,4096]{2,1,0}, f32[], f32[]) %p0.903), index=5
  %constant.965 = s64[] constant(0)
  %broadcast.966 = s64[] broadcast(s64[] %constant.965), dimensions={}
  %constant.967 = s64[] constant(0)
  %broadcast.968 = s64[] broadcast(s64[] %constant.967), dimensions={}
  %dynamic-slice.969 = f32[1,1024,1024]{2,1,0} dynamic-slice(f32[30,1024,1024]{2,1,0} %get-tuple-element.909, s64[] %get-tuple-element.904, s64[] %broadcast.966, s64[] %broadcast.968), dynamic_slice_sizes={1,1024,1024}
  %reshape.970 = f32[1024,1024]{1,0} reshape(f32[1,1024,1024]{2,1,0} %dynamic-slice.969)
  %get-tuple-element.908 = f32[30,512,1024]{2,1,0} get-tuple-element((s64[], f32[16,512,1024]{2,1,0}, f32[30,1024,1024]{2,1,0}, f32[30,512,1024]{2,1,0}, f32[30,512,1024]{2,1,0}, /*index=5*/f32[30,1024,1024]{2,1,0}, f32[30,4096,1024]{2,1,0}, f32[30,4096,1024]{2,1,0}, f32[30,1024,4096]{2,1,0}, f32[30,1024]{1,0}, /*index=10*/f32[30,1024]{1,0}, f32[30,16,512,1024]{3,2,1,0}, f32[30,1024]{1,0}, f32[30,1024]{1,0}, f32[30,16,512,1]{3,2,1,0}, /*index=15*/f32[30,16,512,1024]{3,2,1,0}, f32[30,1024,1024]{2,1,0}, f32[30,8192,1024]{2,1,0}, f32[30,1024,512]{2,1,0}, f32[30,8192,1024]{2,1,0}, /*index=20*/f32[30,1024,512]{2,1,0}, f32[30,8192,1024]{2,1,0}, f32[30,128,512,128]{3,2,1,0}, f32[30,128,128,512]{3,2,1,0}, f32[30,16,8,512,512]{4,3,2,1,0}, /*index=25*/f32[30,128,512,512]{3,2,1,0}, f32[30,128,512,128]{3,2,1,0}, f32[30,1024,1024]{2,1,0}, f32[30,8192,1024]{2,1,0}, f32[30,16,512,1024]{3,2,1,0}, /*index=30*/f32[30,16,512,1]{3,2,1,0}, f32[30,16,512,1024]{3,2,1,0}, f32[30,1024,4096]{2,1,0}, f32[30,8192,1024]{2,1,0}, f32[30,16,512,4096]{3,2,1,0}, /*index=35*/f32[30,1024,4096]{2,1,0}, f32[30,8192,1024]{2,1,0}, f32[30,16,512,4096]{3,2,1,0}, f32[30,16,512,4096]{3,2,1,0}, f32[30,4096,1024]{2,1,0}, /*index=40*/f32[30,8192,4096]{2,1,0}, f32[], f32[]) %p0.903), index=4
  %constant.959 = s64[] constant(0)
  %broadcast.960 = s64[] broadcast(s64[] %constant.959), dimensions={}
  %constant.961 = s64[] constant(0)
  %broadcast.962 = s64[] broadcast(s64[] %constant.961), dimensions={}
  %dynamic-slice.963 = f32[1,512,1024]{2,1,0} dynamic-slice(f32[30,512,1024]{2,1,0} %get-tuple-element.908, s64[] %get-tuple-element.904, s64[] %broadcast.960, s64[] %broadcast.962), dynamic_slice_sizes={1,512,1024}
  %reshape.964 = f32[512,1024]{1,0} reshape(f32[1,512,1024]{2,1,0} %dynamic-slice.963)
  %get-tuple-element.905 = f32[16,512,1024]{2,1,0} get-tuple-element((s64[], f32[16,512,1024]{2,1,0}, f32[30,1024,1024]{2,1,0}, f32[30,512,1024]{2,1,0}, f32[30,512,1024]{2,1,0}, /*index=5*/f32[30,1024,1024]{2,1,0}, f32[30,4096,1024]{2,1,0}, f32[30,4096,1024]{2,1,0}, f32[30,1024,4096]{2,1,0}, f32[30,1024]{1,0}, /*index=10*/f32[30,1024]{1,0}, f32[30,16,512,1024]{3,2,1,0}, f32[30,1024]{1,0}, f32[30,1024]{1,0}, f32[30,16,512,1]{3,2,1,0}, /*index=15*/f32[30,16,512,1024]{3,2,1,0}, f32[30,1024,1024]{2,1,0}, f32[30,8192,1024]{2,1,0}, f32[30,1024,512]{2,1,0}, f32[30,8192,1024]{2,1,0}, /*index=20*/f32[30,1024,512]{2,1,0}, f32[30,8192,1024]{2,1,0}, f32[30,128,512,128]{3,2,1,0}, f32[30,128,128,512]{3,2,1,0}, f32[30,16,8,512,512]{4,3,2,1,0}, /*index=25*/f32[30,128,512,512]{3,2,1,0}, f32[30,128,512,128]{3,2,1,0}, f32[30,1024,1024]{2,1,0}, f32[30,8192,1024]{2,1,0}, f32[30,16,512,1024]{3,2,1,0}, /*index=30*/f32[30,16,512,1]{3,2,1,0}, f32[30,16,512,1024]{3,2,1,0}, f32[30,1024,4096]{2,1,0}, f32[30,8192,1024]{2,1,0}, f32[30,16,512,4096]{3,2,1,0}, /*index=35*/f32[30,1024,4096]{2,1,0}, f32[30,8192,1024]{2,1,0}, f32[30,16,512,4096]{3,2,1,0}, f32[30,16,512,4096]{3,2,1,0}, f32[30,4096,1024]{2,1,0}, /*index=40*/f32[30,8192,4096]{2,1,0}, f32[], f32[]) %p0.903), index=1
  %get-tuple-element.913 = f32[30,1024]{1,0} get-tuple-element((s64[], f32[16,512,1024]{2,1,0}, f32[30,1024,1024]{2,1,0}, f32[30,512,1024]{2,1,0}, f32[30,512,1024]{2,1,0}, /*index=5*/f32[30,1024,1024]{2,1,0}, f32[30,4096,1024]{2,1,0}, f32[30,4096,1024]{2,1,0}, f32[30,1024,4096]{2,1,0}, f32[30,1024]{1,0}, /*index=10*/f32[30,1024]{1,0}, f32[30,16,512,1024]{3,2,1,0}, f32[30,1024]{1,0}, f32[30,1024]{1,0}, f32[30,16,512,1]{3,2,1,0}, /*index=15*/f32[30,16,512,1024]{3,2,1,0}, f32[30,1024,1024]{2,1,0}, f32[30,8192,1024]{2,1,0}, f32[30,1024,512]{2,1,0}, f32[30,8192,1024]{2,1,0}, /*index=20*/f32[30,1024,512]{2,1,0}, f32[30,8192,1024]{2,1,0}, f32[30,128,512,128]{3,2,1,0}, f32[30,128,128,512]{3,2,1,0}, f32[30,16,8,512,512]{4,3,2,1,0}, /*index=25*/f32[30,128,512,512]{3,2,1,0}, f32[30,128,512,128]{3,2,1,0}, f32[30,1024,1024]{2,1,0}, f32[30,8192,1024]{2,1,0}, f32[30,16,512,1024]{3,2,1,0}, /*index=30*/f32[30,16,512,1]{3,2,1,0}, f32[30,16,512,1024]{3,2,1,0}, f32[30,1024,4096]{2,1,0}, f32[30,8192,1024]{2,1,0}, f32[30,16,512,4096]{3,2,1,0}, /*index=35*/f32[30,1024,4096]{2,1,0}, f32[30,8192,1024]{2,1,0}, f32[30,16,512,4096]{3,2,1,0}, f32[30,16,512,4096]{3,2,1,0}, f32[30,4096,1024]{2,1,0}, /*index=40*/f32[30,8192,4096]{2,1,0}, f32[], f32[]) %p0.903), index=9
  %constant.989 = s64[] constant(0)
  %broadcast.990 = s64[] broadcast(s64[] %constant.989), dimensions={}
  %dynamic-slice.991 = f32[1,1024]{1,0} dynamic-slice(f32[30,1024]{1,0} %get-tuple-element.913, s64[] %get-tuple-element.904, s64[] %broadcast.990), dynamic_slice_sizes={1,1024}
  %reshape.992 = f32[1024]{0} reshape(f32[1,1024]{1,0} %dynamic-slice.991)
  %get-tuple-element.945 = f32[] get-tuple-element((s64[], f32[16,512,1024]{2,1,0}, f32[30,1024,1024]{2,1,0}, f32[30,512,1024]{2,1,0}, f32[30,512,1024]{2,1,0}, /*index=5*/f32[30,1024,1024]{2,1,0}, f32[30,4096,1024]{2,1,0}, f32[30,4096,1024]{2,1,0}, f32[30,1024,4096]{2,1,0}, f32[30,1024]{1,0}, /*index=10*/f32[30,1024]{1,0}, f32[30,16,512,1024]{3,2,1,0}, f32[30,1024]{1,0}, f32[30,1024]{1,0}, f32[30,16,512,1]{3,2,1,0}, /*index=15*/f32[30,16,512,1024]{3,2,1,0}, f32[30,1024,1024]{2,1,0}, f32[30,8192,1024]{2,1,0}, f32[30,1024,512]{2,1,0}, f32[30,8192,1024]{2,1,0}, /*index=20*/f32[30,1024,512]{2,1,0}, f32[30,8192,1024]{2,1,0}, f32[30,128,512,128]{3,2,1,0}, f32[30,128,128,512]{3,2,1,0}, f32[30,16,8,512,512]{4,3,2,1,0}, /*index=25*/f32[30,128,512,512]{3,2,1,0}, f32[30,128,512,128]{3,2,1,0}, f32[30,1024,1024]{2,1,0}, f32[30,8192,1024]{2,1,0}, f32[30,16,512,1024]{3,2,1,0}, /*index=30*/f32[30,16,512,1]{3,2,1,0}, f32[30,16,512,1024]{3,2,1,0}, f32[30,1024,4096]{2,1,0}, f32[30,8192,1024]{2,1,0}, f32[30,16,512,4096]{3,2,1,0}, /*index=35*/f32[30,1024,4096]{2,1,0}, f32[30,8192,1024]{2,1,0}, f32[30,16,512,4096]{3,2,1,0}, f32[30,16,512,4096]{3,2,1,0}, f32[30,4096,1024]{2,1,0}, /*index=40*/f32[30,8192,4096]{2,1,0}, f32[], f32[]) %p0.903), index=41
  %get-tuple-element.907 = f32[30,512,1024]{2,1,0} get-tuple-element((s64[], f32[16,512,1024]{2,1,0}, f32[30,1024,1024]{2,1,0}, f32[30,512,1024]{2,1,0}, f32[30,512,1024]{2,1,0}, /*index=5*/f32[30,1024,1024]{2,1,0}, f32[30,4096,1024]{2,1,0}, f32[30,4096,1024]{2,1,0}, f32[30,1024,4096]{2,1,0}, f32[30,1024]{1,0}, /*index=10*/f32[30,1024]{1,0}, f32[30,16,512,1024]{3,2,1,0}, f32[30,1024]{1,0}, f32[30,1024]{1,0}, f32[30,16,512,1]{3,2,1,0}, /*index=15*/f32[30,16,512,1024]{3,2,1,0}, f32[30,1024,1024]{2,1,0}, f32[30,8192,1024]{2,1,0}, f32[30,1024,512]{2,1,0}, f32[30,8192,1024]{2,1,0}, /*index=20*/f32[30,1024,512]{2,1,0}, f32[30,8192,1024]{2,1,0}, f32[30,128,512,128]{3,2,1,0}, f32[30,128,128,512]{3,2,1,0}, f32[30,16,8,512,512]{4,3,2,1,0}, /*index=25*/f32[30,128,512,512]{3,2,1,0}, f32[30,128,512,128]{3,2,1,0}, f32[30,1024,1024]{2,1,0}, f32[30,8192,1024]{2,1,0}, f32[30,16,512,1024]{3,2,1,0}, /*index=30*/f32[30,16,512,1]{3,2,1,0}, f32[30,16,512,1024]{3,2,1,0}, f32[30,1024,4096]{2,1,0}, f32[30,8192,1024]{2,1,0}, f32[30,16,512,4096]{3,2,1,0}, /*index=35*/f32[30,1024,4096]{2,1,0}, f32[30,8192,1024]{2,1,0}, f32[30,16,512,4096]{3,2,1,0}, f32[30,16,512,4096]{3,2,1,0}, f32[30,4096,1024]{2,1,0}, /*index=40*/f32[30,8192,4096]{2,1,0}, f32[], f32[]) %p0.903), index=3
  %constant.953 = s64[] constant(0)
  %broadcast.954 = s64[] broadcast(s64[] %constant.953), dimensions={}
  %constant.955 = s64[] constant(0)
  %broadcast.956 = s64[] broadcast(s64[] %constant.955), dimensions={}
  %dynamic-slice.957 = f32[1,512,1024]{2,1,0} dynamic-slice(f32[30,512,1024]{2,1,0} %get-tuple-element.907, s64[] %get-tuple-element.904, s64[] %broadcast.954, s64[] %broadcast.956), dynamic_slice_sizes={1,512,1024}
  %reshape.958 = f32[512,1024]{1,0} reshape(f32[1,512,1024]{2,1,0} %dynamic-slice.957)
  %get-tuple-element.906 = f32[30,1024,1024]{2,1,0} get-tuple-element((s64[], f32[16,512,1024]{2,1,0}, f32[30,1024,1024]{2,1,0}, f32[30,512,1024]{2,1,0}, f32[30,512,1024]{2,1,0}, /*index=5*/f32[30,1024,1024]{2,1,0}, f32[30,4096,1024]{2,1,0}, f32[30,4096,1024]{2,1,0}, f32[30,1024,4096]{2,1,0}, f32[30,1024]{1,0}, /*index=10*/f32[30,1024]{1,0}, f32[30,16,512,1024]{3,2,1,0}, f32[30,1024]{1,0}, f32[30,1024]{1,0}, f32[30,16,512,1]{3,2,1,0}, /*index=15*/f32[30,16,512,1024]{3,2,1,0}, f32[30,1024,1024]{2,1,0}, f32[30,8192,1024]{2,1,0}, f32[30,1024,512]{2,1,0}, f32[30,8192,1024]{2,1,0}, /*index=20*/f32[30,1024,512]{2,1,0}, f32[30,8192,1024]{2,1,0}, f32[30,128,512,128]{3,2,1,0}, f32[30,128,128,512]{3,2,1,0}, f32[30,16,8,512,512]{4,3,2,1,0}, /*index=25*/f32[30,128,512,512]{3,2,1,0}, f32[30,128,512,128]{3,2,1,0}, f32[30,1024,1024]{2,1,0}, f32[30,8192,1024]{2,1,0}, f32[30,16,512,1024]{3,2,1,0}, /*index=30*/f32[30,16,512,1]{3,2,1,0}, f32[30,16,512,1024]{3,2,1,0}, f32[30,1024,4096]{2,1,0}, f32[30,8192,1024]{2,1,0}, f32[30,16,512,4096]{3,2,1,0}, /*index=35*/f32[30,1024,4096]{2,1,0}, f32[30,8192,1024]{2,1,0}, f32[30,16,512,4096]{3,2,1,0}, f32[30,16,512,4096]{3,2,1,0}, f32[30,4096,1024]{2,1,0}, /*index=40*/f32[30,8192,4096]{2,1,0}, f32[], f32[]) %p0.903), index=2
  %constant.947 = s64[] constant(0)
  %broadcast.948 = s64[] broadcast(s64[] %constant.947), dimensions={}
  %constant.949 = s64[] constant(0)
  %broadcast.950 = s64[] broadcast(s64[] %constant.949), dimensions={}
  %dynamic-slice.951 = f32[1,1024,1024]{2,1,0} dynamic-slice(f32[30,1024,1024]{2,1,0} %get-tuple-element.906, s64[] %get-tuple-element.904, s64[] %broadcast.948, s64[] %broadcast.950), dynamic_slice_sizes={1,1024,1024}
  %reshape.952 = f32[1024,1024]{1,0} reshape(f32[1,1024,1024]{2,1,0} %dynamic-slice.951)
  %get-tuple-element.914 = f32[30,1024]{1,0} get-tuple-element((s64[], f32[16,512,1024]{2,1,0}, f32[30,1024,1024]{2,1,0}, f32[30,512,1024]{2,1,0}, f32[30,512,1024]{2,1,0}, /*index=5*/f32[30,1024,1024]{2,1,0}, f32[30,4096,1024]{2,1,0}, f32[30,4096,1024]{2,1,0}, f32[30,1024,4096]{2,1,0}, f32[30,1024]{1,0}, /*index=10*/f32[30,1024]{1,0}, f32[30,16,512,1024]{3,2,1,0}, f32[30,1024]{1,0}, f32[30,1024]{1,0}, f32[30,16,512,1]{3,2,1,0}, /*index=15*/f32[30,16,512,1024]{3,2,1,0}, f32[30,1024,1024]{2,1,0}, f32[30,8192,1024]{2,1,0}, f32[30,1024,512]{2,1,0}, f32[30,8192,1024]{2,1,0}, /*index=20*/f32[30,1024,512]{2,1,0}, f32[30,8192,1024]{2,1,0}, f32[30,128,512,128]{3,2,1,0}, f32[30,128,128,512]{3,2,1,0}, f32[30,16,8,512,512]{4,3,2,1,0}, /*index=25*/f32[30,128,512,512]{3,2,1,0}, f32[30,128,512,128]{3,2,1,0}, f32[30,1024,1024]{2,1,0}, f32[30,8192,1024]{2,1,0}, f32[30,16,512,1024]{3,2,1,0}, /*index=30*/f32[30,16,512,1]{3,2,1,0}, f32[30,16,512,1024]{3,2,1,0}, f32[30,1024,4096]{2,1,0}, f32[30,8192,1024]{2,1,0}, f32[30,16,512,4096]{3,2,1,0}, /*index=35*/f32[30,1024,4096]{2,1,0}, f32[30,8192,1024]{2,1,0}, f32[30,16,512,4096]{3,2,1,0}, f32[30,16,512,4096]{3,2,1,0}, f32[30,4096,1024]{2,1,0}, /*index=40*/f32[30,8192,4096]{2,1,0}, f32[], f32[]) %p0.903), index=10
  %constant.993 = s64[] constant(0)
  %broadcast.994 = s64[] broadcast(s64[] %constant.993), dimensions={}
  %dynamic-slice.995 = f32[1,1024]{1,0} dynamic-slice(f32[30,1024]{1,0} %get-tuple-element.914, s64[] %get-tuple-element.904, s64[] %broadcast.994), dynamic_slice_sizes={1,1024}
  %reshape.996 = f32[1024]{0} reshape(f32[1,1024]{1,0} %dynamic-slice.995)
  %get-tuple-element.910 = f32[30,4096,1024]{2,1,0} get-tuple-element((s64[], f32[16,512,1024]{2,1,0}, f32[30,1024,1024]{2,1,0}, f32[30,512,1024]{2,1,0}, f32[30,512,1024]{2,1,0}, /*index=5*/f32[30,1024,1024]{2,1,0}, f32[30,4096,1024]{2,1,0}, f32[30,4096,1024]{2,1,0}, f32[30,1024,4096]{2,1,0}, f32[30,1024]{1,0}, /*index=10*/f32[30,1024]{1,0}, f32[30,16,512,1024]{3,2,1,0}, f32[30,1024]{1,0}, f32[30,1024]{1,0}, f32[30,16,512,1]{3,2,1,0}, /*index=15*/f32[30,16,512,1024]{3,2,1,0}, f32[30,1024,1024]{2,1,0}, f32[30,8192,1024]{2,1,0}, f32[30,1024,512]{2,1,0}, f32[30,8192,1024]{2,1,0}, /*index=20*/f32[30,1024,512]{2,1,0}, f32[30,8192,1024]{2,1,0}, f32[30,128,512,128]{3,2,1,0}, f32[30,128,128,512]{3,2,1,0}, f32[30,16,8,512,512]{4,3,2,1,0}, /*index=25*/f32[30,128,512,512]{3,2,1,0}, f32[30,128,512,128]{3,2,1,0}, f32[30,1024,1024]{2,1,0}, f32[30,8192,1024]{2,1,0}, f32[30,16,512,1024]{3,2,1,0}, /*index=30*/f32[30,16,512,1]{3,2,1,0}, f32[30,16,512,1024]{3,2,1,0}, f32[30,1024,4096]{2,1,0}, f32[30,8192,1024]{2,1,0}, f32[30,16,512,4096]{3,2,1,0}, /*index=35*/f32[30,1024,4096]{2,1,0}, f32[30,8192,1024]{2,1,0}, f32[30,16,512,4096]{3,2,1,0}, f32[30,16,512,4096]{3,2,1,0}, f32[30,4096,1024]{2,1,0}, /*index=40*/f32[30,8192,4096]{2,1,0}, f32[], f32[]) %p0.903), index=6
  %constant.971 = s64[] constant(0)
  %broadcast.972 = s64[] broadcast(s64[] %constant.971), dimensions={}
  %constant.973 = s64[] constant(0)
  %broadcast.974 = s64[] broadcast(s64[] %constant.973), dimensions={}
  %dynamic-slice.975 = f32[1,4096,1024]{2,1,0} dynamic-slice(f32[30,4096,1024]{2,1,0} %get-tuple-element.910, s64[] %get-tuple-element.904, s64[] %broadcast.972, s64[] %broadcast.974), dynamic_slice_sizes={1,4096,1024}
  %reshape.976 = f32[4096,1024]{1,0} reshape(f32[1,4096,1024]{2,1,0} %dynamic-slice.975)
  %call.997 = (f32[16,512,1024]{2,1,0}, f32[16,512,1024]{2,1,0}, f32[1024]{0}, f32[1024]{0}, f32[16,512,1]{2,1,0}, /*index=5*/f32[16,512,1024]{2,1,0}, f32[1024,1024]{0,1}, f32[8192,1024]{1,0}, f32[1024,512]{0,1}, f32[8192,1024]{1,0}, /*index=10*/f32[1024,512]{0,1}, f32[8192,1024]{1,0}, f32[128,512,128]{2,1,0}, f32[128,128,512]{2,1,0}, f32[16,8,512,512]{3,2,1,0}, /*index=15*/f32[128,512,512]{2,1,0}, f32[128,512,128]{2,1,0}, f32[1024,1024]{0,1}, f32[8192,1024]{1,0}, f32[16,512,1024]{2,1,0}, /*index=20*/f32[16,512,1]{2,1,0}, f32[16,512,1024]{2,1,0}, f32[1024,4096]{0,1}, f32[8192,1024]{1,0}, f32[16,512,4096]{2,1,0}, /*index=25*/f32[1024,4096]{0,1}, f32[8192,1024]{1,0}, f32[16,512,4096]{2,1,0}, f32[16,512,4096]{2,1,0}, f32[4096,1024]{0,1}, /*index=30*/f32[8192,4096]{1,0}) call(f32[1024,4096]{1,0} %reshape.988, f32[4096,1024]{1,0} %reshape.982, f32[] %get-tuple-element.946, f32[1024,1024]{1,0} %reshape.970, f32[512,1024]{1,0} %reshape.964, /*index=5*/f32[16,512,1024]{2,1,0} %get-tuple-element.905, f32[1024]{0} %reshape.992, f32[] %get-tuple-element.945, f32[512,1024]{1,0} %reshape.958, f32[1024,1024]{1,0} %reshape.952, /*index=10*/f32[1024]{0} %reshape.996, f32[4096,1024]{1,0} %reshape.976), to_apply=%FnComputation.734
  %get-tuple-element.998 = f32[16,512,1024]{2,1,0} get-tuple-element((f32[16,512,1024]{2,1,0}, f32[16,512,1024]{2,1,0}, f32[1024]{0}, f32[1024]{0}, f32[16,512,1]{2,1,0}, /*index=5*/f32[16,512,1024]{2,1,0}, f32[1024,1024]{0,1}, f32[8192,1024]{1,0}, f32[1024,512]{0,1}, f32[8192,1024]{1,0}, /*index=10*/f32[1024,512]{0,1}, f32[8192,1024]{1,0}, f32[128,512,128]{2,1,0}, f32[128,128,512]{2,1,0}, f32[16,8,512,512]{3,2,1,0}, /*index=15*/f32[128,512,512]{2,1,0}, f32[128,512,128]{2,1,0}, f32[1024,1024]{0,1}, f32[8192,1024]{1,0}, f32[16,512,1024]{2,1,0}, /*index=20*/f32[16,512,1]{2,1,0}, f32[16,512,1024]{2,1,0}, f32[1024,4096]{0,1}, f32[8192,1024]{1,0}, f32[16,512,4096]{2,1,0}, /*index=25*/f32[1024,4096]{0,1}, f32[8192,1024]{1,0}, f32[16,512,4096]{2,1,0}, f32[16,512,4096]{2,1,0}, f32[4096,1024]{0,1}, /*index=30*/f32[8192,4096]{1,0}) %call.997), index=0
  %get-tuple-element.915 = f32[30,16,512,1024]{3,2,1,0} get-tuple-element((s64[], f32[16,512,1024]{2,1,0}, f32[30,1024,1024]{2,1,0}, f32[30,512,1024]{2,1,0}, f32[30,512,1024]{2,1,0}, /*index=5*/f32[30,1024,1024]{2,1,0}, f32[30,4096,1024]{2,1,0}, f32[30,4096,1024]{2,1,0}, f32[30,1024,4096]{2,1,0}, f32[30,1024]{1,0}, /*index=10*/f32[30,1024]{1,0}, f32[30,16,512,1024]{3,2,1,0}, f32[30,1024]{1,0}, f32[30,1024]{1,0}, f32[30,16,512,1]{3,2,1,0}, /*index=15*/f32[30,16,512,1024]{3,2,1,0}, f32[30,1024,1024]{2,1,0}, f32[30,8192,1024]{2,1,0}, f32[30,1024,512]{2,1,0}, f32[30,8192,1024]{2,1,0}, /*index=20*/f32[30,1024,512]{2,1,0}, f32[30,8192,1024]{2,1,0}, f32[30,128,512,128]{3,2,1,0}, f32[30,128,128,512]{3,2,1,0}, f32[30,16,8,512,512]{4,3,2,1,0}, /*index=25*/f32[30,128,512,512]{3,2,1,0}, f32[30,128,512,128]{3,2,1,0}, f32[30,1024,1024]{2,1,0}, f32[30,8192,1024]{2,1,0}, f32[30,16,512,1024]{3,2,1,0}, /*index=30*/f32[30,16,512,1]{3,2,1,0}, f32[30,16,512,1024]{3,2,1,0}, f32[30,1024,4096]{2,1,0}, f32[30,8192,1024]{2,1,0}, f32[30,16,512,4096]{3,2,1,0}, /*index=35*/f32[30,1024,4096]{2,1,0}, f32[30,8192,1024]{2,1,0}, f32[30,16,512,4096]{3,2,1,0}, f32[30,16,512,4096]{3,2,1,0}, f32[30,4096,1024]{2,1,0}, /*index=40*/f32[30,8192,4096]{2,1,0}, f32[], f32[]) %p0.903), index=11
  %get-tuple-element.999 = f32[16,512,1024]{2,1,0} get-tuple-element((f32[16,512,1024]{2,1,0}, f32[16,512,1024]{2,1,0}, f32[1024]{0}, f32[1024]{0}, f32[16,512,1]{2,1,0}, /*index=5*/f32[16,512,1024]{2,1,0}, f32[1024,1024]{0,1}, f32[8192,1024]{1,0}, f32[1024,512]{0,1}, f32[8192,1024]{1,0}, /*index=10*/f32[1024,512]{0,1}, f32[8192,1024]{1,0}, f32[128,512,128]{2,1,0}, f32[128,128,512]{2,1,0}, f32[16,8,512,512]{3,2,1,0}, /*index=15*/f32[128,512,512]{2,1,0}, f32[128,512,128]{2,1,0}, f32[1024,1024]{0,1}, f32[8192,1024]{1,0}, f32[16,512,1024]{2,1,0}, /*index=20*/f32[16,512,1]{2,1,0}, f32[16,512,1024]{2,1,0}, f32[1024,4096]{0,1}, f32[8192,1024]{1,0}, f32[16,512,4096]{2,1,0}, /*index=25*/f32[1024,4096]{0,1}, f32[8192,1024]{1,0}, f32[16,512,4096]{2,1,0}, f32[16,512,4096]{2,1,0}, f32[4096,1024]{0,1}, /*index=30*/f32[8192,4096]{1,0}) %call.997), index=1
  %broadcast.1000 = f32[1,16,512,1024]{3,2,1,0} broadcast(f32[16,512,1024]{2,1,0} %get-tuple-element.999), dimensions={1,2,3}
  %constant.1001 = s64[] constant(0)
  %broadcast.1002 = s64[] broadcast(s64[] %constant.1001), dimensions={}
  %constant.1003 = s64[] constant(0)
  %broadcast.1004 = s64[] broadcast(s64[] %constant.1003), dimensions={}
  %constant.1005 = s64[] constant(0)
  %broadcast.1006 = s64[] broadcast(s64[] %constant.1005), dimensions={}
  %dynamic-update-slice.1007 = f32[30,16,512,1024]{3,2,1,0} dynamic-update-slice(f32[30,16,512,1024]{3,2,1,0} %get-tuple-element.915, f32[1,16,512,1024]{3,2,1,0} %broadcast.1000, s64[] %get-tuple-element.904, s64[] %broadcast.1002, s64[] %broadcast.1004, /*index=5*/s64[] %broadcast.1006)
  %get-tuple-element.916 = f32[30,1024]{1,0} get-tuple-element((s64[], f32[16,512,1024]{2,1,0}, f32[30,1024,1024]{2,1,0}, f32[30,512,1024]{2,1,0}, f32[30,512,1024]{2,1,0}, /*index=5*/f32[30,1024,1024]{2,1,0}, f32[30,4096,1024]{2,1,0}, f32[30,4096,1024]{2,1,0}, f32[30,1024,4096]{2,1,0}, f32[30,1024]{1,0}, /*index=10*/f32[30,1024]{1,0}, f32[30,16,512,1024]{3,2,1,0}, f32[30,1024]{1,0}, f32[30,1024]{1,0}, f32[30,16,512,1]{3,2,1,0}, /*index=15*/f32[30,16,512,1024]{3,2,1,0}, f32[30,1024,1024]{2,1,0}, f32[30,8192,1024]{2,1,0}, f32[30,1024,512]{2,1,0}, f32[30,8192,1024]{2,1,0}, /*index=20*/f32[30,1024,512]{2,1,0}, f32[30,8192,1024]{2,1,0}, f32[30,128,512,128]{3,2,1,0}, f32[30,128,128,512]{3,2,1,0}, f32[30,16,8,512,512]{4,3,2,1,0}, /*index=25*/f32[30,128,512,512]{3,2,1,0}, f32[30,128,512,128]{3,2,1,0}, f32[30,1024,1024]{2,1,0}, f32[30,8192,1024]{2,1,0}, f32[30,16,512,1024]{3,2,1,0}, /*index=30*/f32[30,16,512,1]{3,2,1,0}, f32[30,16,512,1024]{3,2,1,0}, f32[30,1024,4096]{2,1,0}, f32[30,8192,1024]{2,1,0}, f32[30,16,512,4096]{3,2,1,0}, /*index=35*/f32[30,1024,4096]{2,1,0}, f32[30,8192,1024]{2,1,0}, f32[30,16,512,4096]{3,2,1,0}, f32[30,16,512,4096]{3,2,1,0}, f32[30,4096,1024]{2,1,0}, /*index=40*/f32[30,8192,4096]{2,1,0}, f32[], f32[]) %p0.903), index=12
  %get-tuple-element.1008 = f32[1024]{0} get-tuple-element((f32[16,512,1024]{2,1,0}, f32[16,512,1024]{2,1,0}, f32[1024]{0}, f32[1024]{0}, f32[16,512,1]{2,1,0}, /*index=5*/f32[16,512,1024]{2,1,0}, f32[1024,1024]{0,1}, f32[8192,1024]{1,0}, f32[1024,512]{0,1}, f32[8192,1024]{1,0}, /*index=10*/f32[1024,512]{0,1}, f32[8192,1024]{1,0}, f32[128,512,128]{2,1,0}, f32[128,128,512]{2,1,0}, f32[16,8,512,512]{3,2,1,0}, /*index=15*/f32[128,512,512]{2,1,0}, f32[128,512,128]{2,1,0}, f32[1024,1024]{0,1}, f32[8192,1024]{1,0}, f32[16,512,1024]{2,1,0}, /*index=20*/f32[16,512,1]{2,1,0}, f32[16,512,1024]{2,1,0}, f32[1024,4096]{0,1}, f32[8192,1024]{1,0}, f32[16,512,4096]{2,1,0}, /*index=25*/f32[1024,4096]{0,1}, f32[8192,1024]{1,0}, f32[16,512,4096]{2,1,0}, f32[16,512,4096]{2,1,0}, f32[4096,1024]{0,1}, /*index=30*/f32[8192,4096]{1,0}) %call.997), index=2
  %broadcast.1009 = f32[1,1024]{1,0} broadcast(f32[1024]{0} %get-tuple-element.1008), dimensions={1}
  %constant.1010 = s64[] constant(0)
  %broadcast.1011 = s64[] broadcast(s64[] %constant.1010), dimensions={}
  %dynamic-update-slice.1012 = f32[30,1024]{1,0} dynamic-update-slice(f32[30,1024]{1,0} %get-tuple-element.916, f32[1,1024]{1,0} %broadcast.1009, s64[] %get-tuple-element.904, s64[] %broadcast.1011)
  %get-tuple-element.917 = f32[30,1024]{1,0} get-tuple-element((s64[], f32[16,512,1024]{2,1,0}, f32[30,1024,1024]{2,1,0}, f32[30,512,1024]{2,1,0}, f32[30,512,1024]{2,1,0}, /*index=5*/f32[30,1024,1024]{2,1,0}, f32[30,4096,1024]{2,1,0}, f32[30,4096,1024]{2,1,0}, f32[30,1024,4096]{2,1,0}, f32[30,1024]{1,0}, /*index=10*/f32[30,1024]{1,0}, f32[30,16,512,1024]{3,2,1,0}, f32[30,1024]{1,0}, f32[30,1024]{1,0}, f32[30,16,512,1]{3,2,1,0}, /*index=15*/f32[30,16,512,1024]{3,2,1,0}, f32[30,1024,1024]{2,1,0}, f32[30,8192,1024]{2,1,0}, f32[30,1024,512]{2,1,0}, f32[30,8192,1024]{2,1,0}, /*index=20*/f32[30,1024,512]{2,1,0}, f32[30,8192,1024]{2,1,0}, f32[30,128,512,128]{3,2,1,0}, f32[30,128,128,512]{3,2,1,0}, f32[30,16,8,512,512]{4,3,2,1,0}, /*index=25*/f32[30,128,512,512]{3,2,1,0}, f32[30,128,512,128]{3,2,1,0}, f32[30,1024,1024]{2,1,0}, f32[30,8192,1024]{2,1,0}, f32[30,16,512,1024]{3,2,1,0}, /*index=30*/f32[30,16,512,1]{3,2,1,0}, f32[30,16,512,1024]{3,2,1,0}, f32[30,1024,4096]{2,1,0}, f32[30,8192,1024]{2,1,0}, f32[30,16,512,4096]{3,2,1,0}, /*index=35*/f32[30,1024,4096]{2,1,0}, f32[30,8192,1024]{2,1,0}, f32[30,16,512,4096]{3,2,1,0}, f32[30,16,512,4096]{3,2,1,0}, f32[30,4096,1024]{2,1,0}, /*index=40*/f32[30,8192,4096]{2,1,0}, f32[], f32[]) %p0.903), index=13
  %get-tuple-element.1013 = f32[1024]{0} get-tuple-element((f32[16,512,1024]{2,1,0}, f32[16,512,1024]{2,1,0}, f32[1024]{0}, f32[1024]{0}, f32[16,512,1]{2,1,0}, /*index=5*/f32[16,512,1024]{2,1,0}, f32[1024,1024]{0,1}, f32[8192,1024]{1,0}, f32[1024,512]{0,1}, f32[8192,1024]{1,0}, /*index=10*/f32[1024,512]{0,1}, f32[8192,1024]{1,0}, f32[128,512,128]{2,1,0}, f32[128,128,512]{2,1,0}, f32[16,8,512,512]{3,2,1,0}, /*index=15*/f32[128,512,512]{2,1,0}, f32[128,512,128]{2,1,0}, f32[1024,1024]{0,1}, f32[8192,1024]{1,0}, f32[16,512,1024]{2,1,0}, /*index=20*/f32[16,512,1]{2,1,0}, f32[16,512,1024]{2,1,0}, f32[1024,4096]{0,1}, f32[8192,1024]{1,0}, f32[16,512,4096]{2,1,0}, /*index=25*/f32[1024,4096]{0,1}, f32[8192,1024]{1,0}, f32[16,512,4096]{2,1,0}, f32[16,512,4096]{2,1,0}, f32[4096,1024]{0,1}, /*index=30*/f32[8192,4096]{1,0}) %call.997), index=3
  %broadcast.1014 = f32[1,1024]{1,0} broadcast(f32[1024]{0} %get-tuple-element.1013), dimensions={1}
  %constant.1015 = s64[] constant(0)
  %broadcast.1016 = s64[] broadcast(s64[] %constant.1015), dimensions={}
  %dynamic-update-slice.1017 = f32[30,1024]{1,0} dynamic-update-slice(f32[30,1024]{1,0} %get-tuple-element.917, f32[1,1024]{1,0} %broadcast.1014, s64[] %get-tuple-element.904, s64[] %broadcast.1016)
  %get-tuple-element.918 = f32[30,16,512,1]{3,2,1,0} get-tuple-element((s64[], f32[16,512,1024]{2,1,0}, f32[30,1024,1024]{2,1,0}, f32[30,512,1024]{2,1,0}, f32[30,512,1024]{2,1,0}, /*index=5*/f32[30,1024,1024]{2,1,0}, f32[30,4096,1024]{2,1,0}, f32[30,4096,1024]{2,1,0}, f32[30,1024,4096]{2,1,0}, f32[30,1024]{1,0}, /*index=10*/f32[30,1024]{1,0}, f32[30,16,512,1024]{3,2,1,0}, f32[30,1024]{1,0}, f32[30,1024]{1,0}, f32[30,16,512,1]{3,2,1,0}, /*index=15*/f32[30,16,512,1024]{3,2,1,0}, f32[30,1024,1024]{2,1,0}, f32[30,8192,1024]{2,1,0}, f32[30,1024,512]{2,1,0}, f32[30,8192,1024]{2,1,0}, /*index=20*/f32[30,1024,512]{2,1,0}, f32[30,8192,1024]{2,1,0}, f32[30,128,512,128]{3,2,1,0}, f32[30,128,128,512]{3,2,1,0}, f32[30,16,8,512,512]{4,3,2,1,0}, /*index=25*/f32[30,128,512,512]{3,2,1,0}, f32[30,128,512,128]{3,2,1,0}, f32[30,1024,1024]{2,1,0}, f32[30,8192,1024]{2,1,0}, f32[30,16,512,1024]{3,2,1,0}, /*index=30*/f32[30,16,512,1]{3,2,1,0}, f32[30,16,512,1024]{3,2,1,0}, f32[30,1024,4096]{2,1,0}, f32[30,8192,1024]{2,1,0}, f32[30,16,512,4096]{3,2,1,0}, /*index=35*/f32[30,1024,4096]{2,1,0}, f32[30,8192,1024]{2,1,0}, f32[30,16,512,4096]{3,2,1,0}, f32[30,16,512,4096]{3,2,1,0}, f32[30,4096,1024]{2,1,0}, /*index=40*/f32[30,8192,4096]{2,1,0}, f32[], f32[]) %p0.903), index=14
  %get-tuple-element.1018 = f32[16,512,1]{2,1,0} get-tuple-element((f32[16,512,1024]{2,1,0}, f32[16,512,1024]{2,1,0}, f32[1024]{0}, f32[1024]{0}, f32[16,512,1]{2,1,0}, /*index=5*/f32[16,512,1024]{2,1,0}, f32[1024,1024]{0,1}, f32[8192,1024]{1,0}, f32[1024,512]{0,1}, f32[8192,1024]{1,0}, /*index=10*/f32[1024,512]{0,1}, f32[8192,1024]{1,0}, f32[128,512,128]{2,1,0}, f32[128,128,512]{2,1,0}, f32[16,8,512,512]{3,2,1,0}, /*index=15*/f32[128,512,512]{2,1,0}, f32[128,512,128]{2,1,0}, f32[1024,1024]{0,1}, f32[8192,1024]{1,0}, f32[16,512,1024]{2,1,0}, /*index=20*/f32[16,512,1]{2,1,0}, f32[16,512,1024]{2,1,0}, f32[1024,4096]{0,1}, f32[8192,1024]{1,0}, f32[16,512,4096]{2,1,0}, /*index=25*/f32[1024,4096]{0,1}, f32[8192,1024]{1,0}, f32[16,512,4096]{2,1,0}, f32[16,512,4096]{2,1,0}, f32[4096,1024]{0,1}, /*index=30*/f32[8192,4096]{1,0}) %call.997), index=4
  %broadcast.1019 = f32[1,16,512,1]{3,2,1,0} broadcast(f32[16,512,1]{2,1,0} %get-tuple-element.1018), dimensions={1,2,3}
  %constant.1020 = s64[] constant(0)
  %broadcast.1021 = s64[] broadcast(s64[] %constant.1020), dimensions={}
  %constant.1022 = s64[] constant(0)
  %broadcast.1023 = s64[] broadcast(s64[] %constant.1022), dimensions={}
  %constant.1024 = s64[] constant(0)
  %broadcast.1025 = s64[] broadcast(s64[] %constant.1024), dimensions={}
  %dynamic-update-slice.1026 = f32[30,16,512,1]{3,2,1,0} dynamic-update-slice(f32[30,16,512,1]{3,2,1,0} %get-tuple-element.918, f32[1,16,512,1]{3,2,1,0} %broadcast.1019, s64[] %get-tuple-element.904, s64[] %broadcast.1021, s64[] %broadcast.1023, /*index=5*/s64[] %broadcast.1025)
  %get-tuple-element.919 = f32[30,16,512,1024]{3,2,1,0} get-tuple-element((s64[], f32[16,512,1024]{2,1,0}, f32[30,1024,1024]{2,1,0}, f32[30,512,1024]{2,1,0}, f32[30,512,1024]{2,1,0}, /*index=5*/f32[30,1024,1024]{2,1,0}, f32[30,4096,1024]{2,1,0}, f32[30,4096,1024]{2,1,0}, f32[30,1024,4096]{2,1,0}, f32[30,1024]{1,0}, /*index=10*/f32[30,1024]{1,0}, f32[30,16,512,1024]{3,2,1,0}, f32[30,1024]{1,0}, f32[30,1024]{1,0}, f32[30,16,512,1]{3,2,1,0}, /*index=15*/f32[30,16,512,1024]{3,2,1,0}, f32[30,1024,1024]{2,1,0}, f32[30,8192,1024]{2,1,0}, f32[30,1024,512]{2,1,0}, f32[30,8192,1024]{2,1,0}, /*index=20*/f32[30,1024,512]{2,1,0}, f32[30,8192,1024]{2,1,0}, f32[30,128,512,128]{3,2,1,0}, f32[30,128,128,512]{3,2,1,0}, f32[30,16,8,512,512]{4,3,2,1,0}, /*index=25*/f32[30,128,512,512]{3,2,1,0}, f32[30,128,512,128]{3,2,1,0}, f32[30,1024,1024]{2,1,0}, f32[30,8192,1024]{2,1,0}, f32[30,16,512,1024]{3,2,1,0}, /*index=30*/f32[30,16,512,1]{3,2,1,0}, f32[30,16,512,1024]{3,2,1,0}, f32[30,1024,4096]{2,1,0}, f32[30,8192,1024]{2,1,0}, f32[30,16,512,4096]{3,2,1,0}, /*index=35*/f32[30,1024,4096]{2,1,0}, f32[30,8192,1024]{2,1,0}, f32[30,16,512,4096]{3,2,1,0}, f32[30,16,512,4096]{3,2,1,0}, f32[30,4096,1024]{2,1,0}, /*index=40*/f32[30,8192,4096]{2,1,0}, f32[], f32[]) %p0.903), index=15
  %get-tuple-element.1027 = f32[16,512,1024]{2,1,0} get-tuple-element((f32[16,512,1024]{2,1,0}, f32[16,512,1024]{2,1,0}, f32[1024]{0}, f32[1024]{0}, f32[16,512,1]{2,1,0}, /*index=5*/f32[16,512,1024]{2,1,0}, f32[1024,1024]{0,1}, f32[8192,1024]{1,0}, f32[1024,512]{0,1}, f32[8192,1024]{1,0}, /*index=10*/f32[1024,512]{0,1}, f32[8192,1024]{1,0}, f32[128,512,128]{2,1,0}, f32[128,128,512]{2,1,0}, f32[16,8,512,512]{3,2,1,0}, /*index=15*/f32[128,512,512]{2,1,0}, f32[128,512,128]{2,1,0}, f32[1024,1024]{0,1}, f32[8192,1024]{1,0}, f32[16,512,1024]{2,1,0}, /*index=20*/f32[16,512,1]{2,1,0}, f32[16,512,1024]{2,1,0}, f32[1024,4096]{0,1}, f32[8192,1024]{1,0}, f32[16,512,4096]{2,1,0}, /*index=25*/f32[1024,4096]{0,1}, f32[8192,1024]{1,0}, f32[16,512,4096]{2,1,0}, f32[16,512,4096]{2,1,0}, f32[4096,1024]{0,1}, /*index=30*/f32[8192,4096]{1,0}) %call.997), index=5
  %broadcast.1028 = f32[1,16,512,1024]{3,2,1,0} broadcast(f32[16,512,1024]{2,1,0} %get-tuple-element.1027), dimensions={1,2,3}
  %constant.1029 = s64[] constant(0)
  %broadcast.1030 = s64[] broadcast(s64[] %constant.1029), dimensions={}
  %constant.1031 = s64[] constant(0)
  %broadcast.1032 = s64[] broadcast(s64[] %constant.1031), dimensions={}
  %constant.1033 = s64[] constant(0)
  %broadcast.1034 = s64[] broadcast(s64[] %constant.1033), dimensions={}
  %dynamic-update-slice.1035 = f32[30,16,512,1024]{3,2,1,0} dynamic-update-slice(f32[30,16,512,1024]{3,2,1,0} %get-tuple-element.919, f32[1,16,512,1024]{3,2,1,0} %broadcast.1028, s64[] %get-tuple-element.904, s64[] %broadcast.1030, s64[] %broadcast.1032, /*index=5*/s64[] %broadcast.1034)
  %get-tuple-element.920 = f32[30,1024,1024]{2,1,0} get-tuple-element((s64[], f32[16,512,1024]{2,1,0}, f32[30,1024,1024]{2,1,0}, f32[30,512,1024]{2,1,0}, f32[30,512,1024]{2,1,0}, /*index=5*/f32[30,1024,1024]{2,1,0}, f32[30,4096,1024]{2,1,0}, f32[30,4096,1024]{2,1,0}, f32[30,1024,4096]{2,1,0}, f32[30,1024]{1,0}, /*index=10*/f32[30,1024]{1,0}, f32[30,16,512,1024]{3,2,1,0}, f32[30,1024]{1,0}, f32[30,1024]{1,0}, f32[30,16,512,1]{3,2,1,0}, /*index=15*/f32[30,16,512,1024]{3,2,1,0}, f32[30,1024,1024]{2,1,0}, f32[30,8192,1024]{2,1,0}, f32[30,1024,512]{2,1,0}, f32[30,8192,1024]{2,1,0}, /*index=20*/f32[30,1024,512]{2,1,0}, f32[30,8192,1024]{2,1,0}, f32[30,128,512,128]{3,2,1,0}, f32[30,128,128,512]{3,2,1,0}, f32[30,16,8,512,512]{4,3,2,1,0}, /*index=25*/f32[30,128,512,512]{3,2,1,0}, f32[30,128,512,128]{3,2,1,0}, f32[30,1024,1024]{2,1,0}, f32[30,8192,1024]{2,1,0}, f32[30,16,512,1024]{3,2,1,0}, /*index=30*/f32[30,16,512,1]{3,2,1,0}, f32[30,16,512,1024]{3,2,1,0}, f32[30,1024,4096]{2,1,0}, f32[30,8192,1024]{2,1,0}, f32[30,16,512,4096]{3,2,1,0}, /*index=35*/f32[30,1024,4096]{2,1,0}, f32[30,8192,1024]{2,1,0}, f32[30,16,512,4096]{3,2,1,0}, f32[30,16,512,4096]{3,2,1,0}, f32[30,4096,1024]{2,1,0}, /*index=40*/f32[30,8192,4096]{2,1,0}, f32[], f32[]) %p0.903), index=16
  %get-tuple-element.1036 = f32[1024,1024]{0,1} get-tuple-element((f32[16,512,1024]{2,1,0}, f32[16,512,1024]{2,1,0}, f32[1024]{0}, f32[1024]{0}, f32[16,512,1]{2,1,0}, /*index=5*/f32[16,512,1024]{2,1,0}, f32[1024,1024]{0,1}, f32[8192,1024]{1,0}, f32[1024,512]{0,1}, f32[8192,1024]{1,0}, /*index=10*/f32[1024,512]{0,1}, f32[8192,1024]{1,0}, f32[128,512,128]{2,1,0}, f32[128,128,512]{2,1,0}, f32[16,8,512,512]{3,2,1,0}, /*index=15*/f32[128,512,512]{2,1,0}, f32[128,512,128]{2,1,0}, f32[1024,1024]{0,1}, f32[8192,1024]{1,0}, f32[16,512,1024]{2,1,0}, /*index=20*/f32[16,512,1]{2,1,0}, f32[16,512,1024]{2,1,0}, f32[1024,4096]{0,1}, f32[8192,1024]{1,0}, f32[16,512,4096]{2,1,0}, /*index=25*/f32[1024,4096]{0,1}, f32[8192,1024]{1,0}, f32[16,512,4096]{2,1,0}, f32[16,512,4096]{2,1,0}, f32[4096,1024]{0,1}, /*index=30*/f32[8192,4096]{1,0}) %call.997), index=6
  %broadcast.1037 = f32[1,1024,1024]{2,1,0} broadcast(f32[1024,1024]{0,1} %get-tuple-element.1036), dimensions={1,2}
  %constant.1038 = s64[] constant(0)
  %broadcast.1039 = s64[] broadcast(s64[] %constant.1038), dimensions={}
  %constant.1040 = s64[] constant(0)
  %broadcast.1041 = s64[] broadcast(s64[] %constant.1040), dimensions={}
  %dynamic-update-slice.1042 = f32[30,1024,1024]{2,1,0} dynamic-update-slice(f32[30,1024,1024]{2,1,0} %get-tuple-element.920, f32[1,1024,1024]{2,1,0} %broadcast.1037, s64[] %get-tuple-element.904, s64[] %broadcast.1039, s64[] %broadcast.1041)
  %get-tuple-element.921 = f32[30,8192,1024]{2,1,0} get-tuple-element((s64[], f32[16,512,1024]{2,1,0}, f32[30,1024,1024]{2,1,0}, f32[30,512,1024]{2,1,0}, f32[30,512,1024]{2,1,0}, /*index=5*/f32[30,1024,1024]{2,1,0}, f32[30,4096,1024]{2,1,0}, f32[30,4096,1024]{2,1,0}, f32[30,1024,4096]{2,1,0}, f32[30,1024]{1,0}, /*index=10*/f32[30,1024]{1,0}, f32[30,16,512,1024]{3,2,1,0}, f32[30,1024]{1,0}, f32[30,1024]{1,0}, f32[30,16,512,1]{3,2,1,0}, /*index=15*/f32[30,16,512,1024]{3,2,1,0}, f32[30,1024,1024]{2,1,0}, f32[30,8192,1024]{2,1,0}, f32[30,1024,512]{2,1,0}, f32[30,8192,1024]{2,1,0}, /*index=20*/f32[30,1024,512]{2,1,0}, f32[30,8192,1024]{2,1,0}, f32[30,128,512,128]{3,2,1,0}, f32[30,128,128,512]{3,2,1,0}, f32[30,16,8,512,512]{4,3,2,1,0}, /*index=25*/f32[30,128,512,512]{3,2,1,0}, f32[30,128,512,128]{3,2,1,0}, f32[30,1024,1024]{2,1,0}, f32[30,8192,1024]{2,1,0}, f32[30,16,512,1024]{3,2,1,0}, /*index=30*/f32[30,16,512,1]{3,2,1,0}, f32[30,16,512,1024]{3,2,1,0}, f32[30,1024,4096]{2,1,0}, f32[30,8192,1024]{2,1,0}, f32[30,16,512,4096]{3,2,1,0}, /*index=35*/f32[30,1024,4096]{2,1,0}, f32[30,8192,1024]{2,1,0}, f32[30,16,512,4096]{3,2,1,0}, f32[30,16,512,4096]{3,2,1,0}, f32[30,4096,1024]{2,1,0}, /*index=40*/f32[30,8192,4096]{2,1,0}, f32[], f32[]) %p0.903), index=17
  %get-tuple-element.1043 = f32[8192,1024]{1,0} get-tuple-element((f32[16,512,1024]{2,1,0}, f32[16,512,1024]{2,1,0}, f32[1024]{0}, f32[1024]{0}, f32[16,512,1]{2,1,0}, /*index=5*/f32[16,512,1024]{2,1,0}, f32[1024,1024]{0,1}, f32[8192,1024]{1,0}, f32[1024,512]{0,1}, f32[8192,1024]{1,0}, /*index=10*/f32[1024,512]{0,1}, f32[8192,1024]{1,0}, f32[128,512,128]{2,1,0}, f32[128,128,512]{2,1,0}, f32[16,8,512,512]{3,2,1,0}, /*index=15*/f32[128,512,512]{2,1,0}, f32[128,512,128]{2,1,0}, f32[1024,1024]{0,1}, f32[8192,1024]{1,0}, f32[16,512,1024]{2,1,0}, /*index=20*/f32[16,512,1]{2,1,0}, f32[16,512,1024]{2,1,0}, f32[1024,4096]{0,1}, f32[8192,1024]{1,0}, f32[16,512,4096]{2,1,0}, /*index=25*/f32[1024,4096]{0,1}, f32[8192,1024]{1,0}, f32[16,512,4096]{2,1,0}, f32[16,512,4096]{2,1,0}, f32[4096,1024]{0,1}, /*index=30*/f32[8192,4096]{1,0}) %call.997), index=7
  %broadcast.1044 = f32[1,8192,1024]{2,1,0} broadcast(f32[8192,1024]{1,0} %get-tuple-element.1043), dimensions={1,2}
  %constant.1045 = s64[] constant(0)
  %broadcast.1046 = s64[] broadcast(s64[] %constant.1045), dimensions={}
  %constant.1047 = s64[] constant(0)
  %broadcast.1048 = s64[] broadcast(s64[] %constant.1047), dimensions={}
  %dynamic-update-slice.1049 = f32[30,8192,1024]{2,1,0} dynamic-update-slice(f32[30,8192,1024]{2,1,0} %get-tuple-element.921, f32[1,8192,1024]{2,1,0} %broadcast.1044, s64[] %get-tuple-element.904, s64[] %broadcast.1046, s64[] %broadcast.1048)
  %get-tuple-element.922 = f32[30,1024,512]{2,1,0} get-tuple-element((s64[], f32[16,512,1024]{2,1,0}, f32[30,1024,1024]{2,1,0}, f32[30,512,1024]{2,1,0}, f32[30,512,1024]{2,1,0}, /*index=5*/f32[30,1024,1024]{2,1,0}, f32[30,4096,1024]{2,1,0}, f32[30,4096,1024]{2,1,0}, f32[30,1024,4096]{2,1,0}, f32[30,1024]{1,0}, /*index=10*/f32[30,1024]{1,0}, f32[30,16,512,1024]{3,2,1,0}, f32[30,1024]{1,0}, f32[30,1024]{1,0}, f32[30,16,512,1]{3,2,1,0}, /*index=15*/f32[30,16,512,1024]{3,2,1,0}, f32[30,1024,1024]{2,1,0}, f32[30,8192,1024]{2,1,0}, f32[30,1024,512]{2,1,0}, f32[30,8192,1024]{2,1,0}, /*index=20*/f32[30,1024,512]{2,1,0}, f32[30,8192,1024]{2,1,0}, f32[30,128,512,128]{3,2,1,0}, f32[30,128,128,512]{3,2,1,0}, f32[30,16,8,512,512]{4,3,2,1,0}, /*index=25*/f32[30,128,512,512]{3,2,1,0}, f32[30,128,512,128]{3,2,1,0}, f32[30,1024,1024]{2,1,0}, f32[30,8192,1024]{2,1,0}, f32[30,16,512,1024]{3,2,1,0}, /*index=30*/f32[30,16,512,1]{3,2,1,0}, f32[30,16,512,1024]{3,2,1,0}, f32[30,1024,4096]{2,1,0}, f32[30,8192,1024]{2,1,0}, f32[30,16,512,4096]{3,2,1,0}, /*index=35*/f32[30,1024,4096]{2,1,0}, f32[30,8192,1024]{2,1,0}, f32[30,16,512,4096]{3,2,1,0}, f32[30,16,512,4096]{3,2,1,0}, f32[30,4096,1024]{2,1,0}, /*index=40*/f32[30,8192,4096]{2,1,0}, f32[], f32[]) %p0.903), index=18
  %get-tuple-element.1050 = f32[1024,512]{0,1} get-tuple-element((f32[16,512,1024]{2,1,0}, f32[16,512,1024]{2,1,0}, f32[1024]{0}, f32[1024]{0}, f32[16,512,1]{2,1,0}, /*index=5*/f32[16,512,1024]{2,1,0}, f32[1024,1024]{0,1}, f32[8192,1024]{1,0}, f32[1024,512]{0,1}, f32[8192,1024]{1,0}, /*index=10*/f32[1024,512]{0,1}, f32[8192,1024]{1,0}, f32[128,512,128]{2,1,0}, f32[128,128,512]{2,1,0}, f32[16,8,512,512]{3,2,1,0}, /*index=15*/f32[128,512,512]{2,1,0}, f32[128,512,128]{2,1,0}, f32[1024,1024]{0,1}, f32[8192,1024]{1,0}, f32[16,512,1024]{2,1,0}, /*index=20*/f32[16,512,1]{2,1,0}, f32[16,512,1024]{2,1,0}, f32[1024,4096]{0,1}, f32[8192,1024]{1,0}, f32[16,512,4096]{2,1,0}, /*index=25*/f32[1024,4096]{0,1}, f32[8192,1024]{1,0}, f32[16,512,4096]{2,1,0}, f32[16,512,4096]{2,1,0}, f32[4096,1024]{0,1}, /*index=30*/f32[8192,4096]{1,0}) %call.997), index=8
  %broadcast.1051 = f32[1,1024,512]{2,1,0} broadcast(f32[1024,512]{0,1} %get-tuple-element.1050), dimensions={1,2}
  %constant.1052 = s64[] constant(0)
  %broadcast.1053 = s64[] broadcast(s64[] %constant.1052), dimensions={}
  %constant.1054 = s64[] constant(0)
  %broadcast.1055 = s64[] broadcast(s64[] %constant.1054), dimensions={}
  %dynamic-update-slice.1056 = f32[30,1024,512]{2,1,0} dynamic-update-slice(f32[30,1024,512]{2,1,0} %get-tuple-element.922, f32[1,1024,512]{2,1,0} %broadcast.1051, s64[] %get-tuple-element.904, s64[] %broadcast.1053, s64[] %broadcast.1055)
  %get-tuple-element.923 = f32[30,8192,1024]{2,1,0} get-tuple-element((s64[], f32[16,512,1024]{2,1,0}, f32[30,1024,1024]{2,1,0}, f32[30,512,1024]{2,1,0}, f32[30,512,1024]{2,1,0}, /*index=5*/f32[30,1024,1024]{2,1,0}, f32[30,4096,1024]{2,1,0}, f32[30,4096,1024]{2,1,0}, f32[30,1024,4096]{2,1,0}, f32[30,1024]{1,0}, /*index=10*/f32[30,1024]{1,0}, f32[30,16,512,1024]{3,2,1,0}, f32[30,1024]{1,0}, f32[30,1024]{1,0}, f32[30,16,512,1]{3,2,1,0}, /*index=15*/f32[30,16,512,1024]{3,2,1,0}, f32[30,1024,1024]{2,1,0}, f32[30,8192,1024]{2,1,0}, f32[30,1024,512]{2,1,0}, f32[30,8192,1024]{2,1,0}, /*index=20*/f32[30,1024,512]{2,1,0}, f32[30,8192,1024]{2,1,0}, f32[30,128,512,128]{3,2,1,0}, f32[30,128,128,512]{3,2,1,0}, f32[30,16,8,512,512]{4,3,2,1,0}, /*index=25*/f32[30,128,512,512]{3,2,1,0}, f32[30,128,512,128]{3,2,1,0}, f32[30,1024,1024]{2,1,0}, f32[30,8192,1024]{2,1,0}, f32[30,16,512,1024]{3,2,1,0}, /*index=30*/f32[30,16,512,1]{3,2,1,0}, f32[30,16,512,1024]{3,2,1,0}, f32[30,1024,4096]{2,1,0}, f32[30,8192,1024]{2,1,0}, f32[30,16,512,4096]{3,2,1,0}, /*index=35*/f32[30,1024,4096]{2,1,0}, f32[30,8192,1024]{2,1,0}, f32[30,16,512,4096]{3,2,1,0}, f32[30,16,512,4096]{3,2,1,0}, f32[30,4096,1024]{2,1,0}, /*index=40*/f32[30,8192,4096]{2,1,0}, f32[], f32[]) %p0.903), index=19
  %get-tuple-element.1057 = f32[8192,1024]{1,0} get-tuple-element((f32[16,512,1024]{2,1,0}, f32[16,512,1024]{2,1,0}, f32[1024]{0}, f32[1024]{0}, f32[16,512,1]{2,1,0}, /*index=5*/f32[16,512,1024]{2,1,0}, f32[1024,1024]{0,1}, f32[8192,1024]{1,0}, f32[1024,512]{0,1}, f32[8192,1024]{1,0}, /*index=10*/f32[1024,512]{0,1}, f32[8192,1024]{1,0}, f32[128,512,128]{2,1,0}, f32[128,128,512]{2,1,0}, f32[16,8,512,512]{3,2,1,0}, /*index=15*/f32[128,512,512]{2,1,0}, f32[128,512,128]{2,1,0}, f32[1024,1024]{0,1}, f32[8192,1024]{1,0}, f32[16,512,1024]{2,1,0}, /*index=20*/f32[16,512,1]{2,1,0}, f32[16,512,1024]{2,1,0}, f32[1024,4096]{0,1}, f32[8192,1024]{1,0}, f32[16,512,4096]{2,1,0}, /*index=25*/f32[1024,4096]{0,1}, f32[8192,1024]{1,0}, f32[16,512,4096]{2,1,0}, f32[16,512,4096]{2,1,0}, f32[4096,1024]{0,1}, /*index=30*/f32[8192,4096]{1,0}) %call.997), index=9
  %broadcast.1058 = f32[1,8192,1024]{2,1,0} broadcast(f32[8192,1024]{1,0} %get-tuple-element.1057), dimensions={1,2}
  %constant.1059 = s64[] constant(0)
  %broadcast.1060 = s64[] broadcast(s64[] %constant.1059), dimensions={}
  %constant.1061 = s64[] constant(0)
  %broadcast.1062 = s64[] broadcast(s64[] %constant.1061), dimensions={}
  %dynamic-update-slice.1063 = f32[30,8192,1024]{2,1,0} dynamic-update-slice(f32[30,8192,1024]{2,1,0} %get-tuple-element.923, f32[1,8192,1024]{2,1,0} %broadcast.1058, s64[] %get-tuple-element.904, s64[] %broadcast.1060, s64[] %broadcast.1062)
  %get-tuple-element.924 = f32[30,1024,512]{2,1,0} get-tuple-element((s64[], f32[16,512,1024]{2,1,0}, f32[30,1024,1024]{2,1,0}, f32[30,512,1024]{2,1,0}, f32[30,512,1024]{2,1,0}, /*index=5*/f32[30,1024,1024]{2,1,0}, f32[30,4096,1024]{2,1,0}, f32[30,4096,1024]{2,1,0}, f32[30,1024,4096]{2,1,0}, f32[30,1024]{1,0}, /*index=10*/f32[30,1024]{1,0}, f32[30,16,512,1024]{3,2,1,0}, f32[30,1024]{1,0}, f32[30,1024]{1,0}, f32[30,16,512,1]{3,2,1,0}, /*index=15*/f32[30,16,512,1024]{3,2,1,0}, f32[30,1024,1024]{2,1,0}, f32[30,8192,1024]{2,1,0}, f32[30,1024,512]{2,1,0}, f32[30,8192,1024]{2,1,0}, /*index=20*/f32[30,1024,512]{2,1,0}, f32[30,8192,1024]{2,1,0}, f32[30,128,512,128]{3,2,1,0}, f32[30,128,128,512]{3,2,1,0}, f32[30,16,8,512,512]{4,3,2,1,0}, /*index=25*/f32[30,128,512,512]{3,2,1,0}, f32[30,128,512,128]{3,2,1,0}, f32[30,1024,1024]{2,1,0}, f32[30,8192,1024]{2,1,0}, f32[30,16,512,1024]{3,2,1,0}, /*index=30*/f32[30,16,512,1]{3,2,1,0}, f32[30,16,512,1024]{3,2,1,0}, f32[30,1024,4096]{2,1,0}, f32[30,8192,1024]{2,1,0}, f32[30,16,512,4096]{3,2,1,0}, /*index=35*/f32[30,1024,4096]{2,1,0}, f32[30,8192,1024]{2,1,0}, f32[30,16,512,4096]{3,2,1,0}, f32[30,16,512,4096]{3,2,1,0}, f32[30,4096,1024]{2,1,0}, /*index=40*/f32[30,8192,4096]{2,1,0}, f32[], f32[]) %p0.903), index=20
  %get-tuple-element.1064 = f32[1024,512]{0,1} get-tuple-element((f32[16,512,1024]{2,1,0}, f32[16,512,1024]{2,1,0}, f32[1024]{0}, f32[1024]{0}, f32[16,512,1]{2,1,0}, /*index=5*/f32[16,512,1024]{2,1,0}, f32[1024,1024]{0,1}, f32[8192,1024]{1,0}, f32[1024,512]{0,1}, f32[8192,1024]{1,0}, /*index=10*/f32[1024,512]{0,1}, f32[8192,1024]{1,0}, f32[128,512,128]{2,1,0}, f32[128,128,512]{2,1,0}, f32[16,8,512,512]{3,2,1,0}, /*index=15*/f32[128,512,512]{2,1,0}, f32[128,512,128]{2,1,0}, f32[1024,1024]{0,1}, f32[8192,1024]{1,0}, f32[16,512,1024]{2,1,0}, /*index=20*/f32[16,512,1]{2,1,0}, f32[16,512,1024]{2,1,0}, f32[1024,4096]{0,1}, f32[8192,1024]{1,0}, f32[16,512,4096]{2,1,0}, /*index=25*/f32[1024,4096]{0,1}, f32[8192,1024]{1,0}, f32[16,512,4096]{2,1,0}, f32[16,512,4096]{2,1,0}, f32[4096,1024]{0,1}, /*index=30*/f32[8192,4096]{1,0}) %call.997), index=10
  %broadcast.1065 = f32[1,1024,512]{2,1,0} broadcast(f32[1024,512]{0,1} %get-tuple-element.1064), dimensions={1,2}
  %constant.1066 = s64[] constant(0)
  %broadcast.1067 = s64[] broadcast(s64[] %constant.1066), dimensions={}
  %constant.1068 = s64[] constant(0)
  %broadcast.1069 = s64[] broadcast(s64[] %constant.1068), dimensions={}
  %dynamic-update-slice.1070 = f32[30,1024,512]{2,1,0} dynamic-update-slice(f32[30,1024,512]{2,1,0} %get-tuple-element.924, f32[1,1024,512]{2,1,0} %broadcast.1065, s64[] %get-tuple-element.904, s64[] %broadcast.1067, s64[] %broadcast.1069)
  %get-tuple-element.925 = f32[30,8192,1024]{2,1,0} get-tuple-element((s64[], f32[16,512,1024]{2,1,0}, f32[30,1024,1024]{2,1,0}, f32[30,512,1024]{2,1,0}, f32[30,512,1024]{2,1,0}, /*index=5*/f32[30,1024,1024]{2,1,0}, f32[30,4096,1024]{2,1,0}, f32[30,4096,1024]{2,1,0}, f32[30,1024,4096]{2,1,0}, f32[30,1024]{1,0}, /*index=10*/f32[30,1024]{1,0}, f32[30,16,512,1024]{3,2,1,0}, f32[30,1024]{1,0}, f32[30,1024]{1,0}, f32[30,16,512,1]{3,2,1,0}, /*index=15*/f32[30,16,512,1024]{3,2,1,0}, f32[30,1024,1024]{2,1,0}, f32[30,8192,1024]{2,1,0}, f32[30,1024,512]{2,1,0}, f32[30,8192,1024]{2,1,0}, /*index=20*/f32[30,1024,512]{2,1,0}, f32[30,8192,1024]{2,1,0}, f32[30,128,512,128]{3,2,1,0}, f32[30,128,128,512]{3,2,1,0}, f32[30,16,8,512,512]{4,3,2,1,0}, /*index=25*/f32[30,128,512,512]{3,2,1,0}, f32[30,128,512,128]{3,2,1,0}, f32[30,1024,1024]{2,1,0}, f32[30,8192,1024]{2,1,0}, f32[30,16,512,1024]{3,2,1,0}, /*index=30*/f32[30,16,512,1]{3,2,1,0}, f32[30,16,512,1024]{3,2,1,0}, f32[30,1024,4096]{2,1,0}, f32[30,8192,1024]{2,1,0}, f32[30,16,512,4096]{3,2,1,0}, /*index=35*/f32[30,1024,4096]{2,1,0}, f32[30,8192,1024]{2,1,0}, f32[30,16,512,4096]{3,2,1,0}, f32[30,16,512,4096]{3,2,1,0}, f32[30,4096,1024]{2,1,0}, /*index=40*/f32[30,8192,4096]{2,1,0}, f32[], f32[]) %p0.903), index=21
  %get-tuple-element.1071 = f32[8192,1024]{1,0} get-tuple-element((f32[16,512,1024]{2,1,0}, f32[16,512,1024]{2,1,0}, f32[1024]{0}, f32[1024]{0}, f32[16,512,1]{2,1,0}, /*index=5*/f32[16,512,1024]{2,1,0}, f32[1024,1024]{0,1}, f32[8192,1024]{1,0}, f32[1024,512]{0,1}, f32[8192,1024]{1,0}, /*index=10*/f32[1024,512]{0,1}, f32[8192,1024]{1,0}, f32[128,512,128]{2,1,0}, f32[128,128,512]{2,1,0}, f32[16,8,512,512]{3,2,1,0}, /*index=15*/f32[128,512,512]{2,1,0}, f32[128,512,128]{2,1,0}, f32[1024,1024]{0,1}, f32[8192,1024]{1,0}, f32[16,512,1024]{2,1,0}, /*index=20*/f32[16,512,1]{2,1,0}, f32[16,512,1024]{2,1,0}, f32[1024,4096]{0,1}, f32[8192,1024]{1,0}, f32[16,512,4096]{2,1,0}, /*index=25*/f32[1024,4096]{0,1}, f32[8192,1024]{1,0}, f32[16,512,4096]{2,1,0}, f32[16,512,4096]{2,1,0}, f32[4096,1024]{0,1}, /*index=30*/f32[8192,4096]{1,0}) %call.997), index=11
  %broadcast.1072 = f32[1,8192,1024]{2,1,0} broadcast(f32[8192,1024]{1,0} %get-tuple-element.1071), dimensions={1,2}
  %constant.1073 = s64[] constant(0)
  %broadcast.1074 = s64[] broadcast(s64[] %constant.1073), dimensions={}
  %constant.1075 = s64[] constant(0)
  %broadcast.1076 = s64[] broadcast(s64[] %constant.1075), dimensions={}
  %dynamic-update-slice.1077 = f32[30,8192,1024]{2,1,0} dynamic-update-slice(f32[30,8192,1024]{2,1,0} %get-tuple-element.925, f32[1,8192,1024]{2,1,0} %broadcast.1072, s64[] %get-tuple-element.904, s64[] %broadcast.1074, s64[] %broadcast.1076)
  %get-tuple-element.926 = f32[30,128,512,128]{3,2,1,0} get-tuple-element((s64[], f32[16,512,1024]{2,1,0}, f32[30,1024,1024]{2,1,0}, f32[30,512,1024]{2,1,0}, f32[30,512,1024]{2,1,0}, /*index=5*/f32[30,1024,1024]{2,1,0}, f32[30,4096,1024]{2,1,0}, f32[30,4096,1024]{2,1,0}, f32[30,1024,4096]{2,1,0}, f32[30,1024]{1,0}, /*index=10*/f32[30,1024]{1,0}, f32[30,16,512,1024]{3,2,1,0}, f32[30,1024]{1,0}, f32[30,1024]{1,0}, f32[30,16,512,1]{3,2,1,0}, /*index=15*/f32[30,16,512,1024]{3,2,1,0}, f32[30,1024,1024]{2,1,0}, f32[30,8192,1024]{2,1,0}, f32[30,1024,512]{2,1,0}, f32[30,8192,1024]{2,1,0}, /*index=20*/f32[30,1024,512]{2,1,0}, f32[30,8192,1024]{2,1,0}, f32[30,128,512,128]{3,2,1,0}, f32[30,128,128,512]{3,2,1,0}, f32[30,16,8,512,512]{4,3,2,1,0}, /*index=25*/f32[30,128,512,512]{3,2,1,0}, f32[30,128,512,128]{3,2,1,0}, f32[30,1024,1024]{2,1,0}, f32[30,8192,1024]{2,1,0}, f32[30,16,512,1024]{3,2,1,0}, /*index=30*/f32[30,16,512,1]{3,2,1,0}, f32[30,16,512,1024]{3,2,1,0}, f32[30,1024,4096]{2,1,0}, f32[30,8192,1024]{2,1,0}, f32[30,16,512,4096]{3,2,1,0}, /*index=35*/f32[30,1024,4096]{2,1,0}, f32[30,8192,1024]{2,1,0}, f32[30,16,512,4096]{3,2,1,0}, f32[30,16,512,4096]{3,2,1,0}, f32[30,4096,1024]{2,1,0}, /*index=40*/f32[30,8192,4096]{2,1,0}, f32[], f32[]) %p0.903), index=22
  %get-tuple-element.1078 = f32[128,512,128]{2,1,0} get-tuple-element((f32[16,512,1024]{2,1,0}, f32[16,512,1024]{2,1,0}, f32[1024]{0}, f32[1024]{0}, f32[16,512,1]{2,1,0}, /*index=5*/f32[16,512,1024]{2,1,0}, f32[1024,1024]{0,1}, f32[8192,1024]{1,0}, f32[1024,512]{0,1}, f32[8192,1024]{1,0}, /*index=10*/f32[1024,512]{0,1}, f32[8192,1024]{1,0}, f32[128,512,128]{2,1,0}, f32[128,128,512]{2,1,0}, f32[16,8,512,512]{3,2,1,0}, /*index=15*/f32[128,512,512]{2,1,0}, f32[128,512,128]{2,1,0}, f32[1024,1024]{0,1}, f32[8192,1024]{1,0}, f32[16,512,1024]{2,1,0}, /*index=20*/f32[16,512,1]{2,1,0}, f32[16,512,1024]{2,1,0}, f32[1024,4096]{0,1}, f32[8192,1024]{1,0}, f32[16,512,4096]{2,1,0}, /*index=25*/f32[1024,4096]{0,1}, f32[8192,1024]{1,0}, f32[16,512,4096]{2,1,0}, f32[16,512,4096]{2,1,0}, f32[4096,1024]{0,1}, /*index=30*/f32[8192,4096]{1,0}) %call.997), index=12
  %broadcast.1079 = f32[1,128,512,128]{3,2,1,0} broadcast(f32[128,512,128]{2,1,0} %get-tuple-element.1078), dimensions={1,2,3}
  %constant.1080 = s64[] constant(0)
  %broadcast.1081 = s64[] broadcast(s64[] %constant.1080), dimensions={}
  %constant.1082 = s64[] constant(0)
  %broadcast.1083 = s64[] broadcast(s64[] %constant.1082), dimensions={}
  %constant.1084 = s64[] constant(0)
  %broadcast.1085 = s64[] broadcast(s64[] %constant.1084), dimensions={}
  %dynamic-update-slice.1086 = f32[30,128,512,128]{3,2,1,0} dynamic-update-slice(f32[30,128,512,128]{3,2,1,0} %get-tuple-element.926, f32[1,128,512,128]{3,2,1,0} %broadcast.1079, s64[] %get-tuple-element.904, s64[] %broadcast.1081, s64[] %broadcast.1083, /*index=5*/s64[] %broadcast.1085)
  %get-tuple-element.927 = f32[30,128,128,512]{3,2,1,0} get-tuple-element((s64[], f32[16,512,1024]{2,1,0}, f32[30,1024,1024]{2,1,0}, f32[30,512,1024]{2,1,0}, f32[30,512,1024]{2,1,0}, /*index=5*/f32[30,1024,1024]{2,1,0}, f32[30,4096,1024]{2,1,0}, f32[30,4096,1024]{2,1,0}, f32[30,1024,4096]{2,1,0}, f32[30,1024]{1,0}, /*index=10*/f32[30,1024]{1,0}, f32[30,16,512,1024]{3,2,1,0}, f32[30,1024]{1,0}, f32[30,1024]{1,0}, f32[30,16,512,1]{3,2,1,0}, /*index=15*/f32[30,16,512,1024]{3,2,1,0}, f32[30,1024,1024]{2,1,0}, f32[30,8192,1024]{2,1,0}, f32[30,1024,512]{2,1,0}, f32[30,8192,1024]{2,1,0}, /*index=20*/f32[30,1024,512]{2,1,0}, f32[30,8192,1024]{2,1,0}, f32[30,128,512,128]{3,2,1,0}, f32[30,128,128,512]{3,2,1,0}, f32[30,16,8,512,512]{4,3,2,1,0}, /*index=25*/f32[30,128,512,512]{3,2,1,0}, f32[30,128,512,128]{3,2,1,0}, f32[30,1024,1024]{2,1,0}, f32[30,8192,1024]{2,1,0}, f32[30,16,512,1024]{3,2,1,0}, /*index=30*/f32[30,16,512,1]{3,2,1,0}, f32[30,16,512,1024]{3,2,1,0}, f32[30,1024,4096]{2,1,0}, f32[30,8192,1024]{2,1,0}, f32[30,16,512,4096]{3,2,1,0}, /*index=35*/f32[30,1024,4096]{2,1,0}, f32[30,8192,1024]{2,1,0}, f32[30,16,512,4096]{3,2,1,0}, f32[30,16,512,4096]{3,2,1,0}, f32[30,4096,1024]{2,1,0}, /*index=40*/f32[30,8192,4096]{2,1,0}, f32[], f32[]) %p0.903), index=23
  %get-tuple-element.1087 = f32[128,128,512]{2,1,0} get-tuple-element((f32[16,512,1024]{2,1,0}, f32[16,512,1024]{2,1,0}, f32[1024]{0}, f32[1024]{0}, f32[16,512,1]{2,1,0}, /*index=5*/f32[16,512,1024]{2,1,0}, f32[1024,1024]{0,1}, f32[8192,1024]{1,0}, f32[1024,512]{0,1}, f32[8192,1024]{1,0}, /*index=10*/f32[1024,512]{0,1}, f32[8192,1024]{1,0}, f32[128,512,128]{2,1,0}, f32[128,128,512]{2,1,0}, f32[16,8,512,512]{3,2,1,0}, /*index=15*/f32[128,512,512]{2,1,0}, f32[128,512,128]{2,1,0}, f32[1024,1024]{0,1}, f32[8192,1024]{1,0}, f32[16,512,1024]{2,1,0}, /*index=20*/f32[16,512,1]{2,1,0}, f32[16,512,1024]{2,1,0}, f32[1024,4096]{0,1}, f32[8192,1024]{1,0}, f32[16,512,4096]{2,1,0}, /*index=25*/f32[1024,4096]{0,1}, f32[8192,1024]{1,0}, f32[16,512,4096]{2,1,0}, f32[16,512,4096]{2,1,0}, f32[4096,1024]{0,1}, /*index=30*/f32[8192,4096]{1,0}) %call.997), index=13
  %broadcast.1088 = f32[1,128,128,512]{3,2,1,0} broadcast(f32[128,128,512]{2,1,0} %get-tuple-element.1087), dimensions={1,2,3}
  %constant.1089 = s64[] constant(0)
  %broadcast.1090 = s64[] broadcast(s64[] %constant.1089), dimensions={}
  %constant.1091 = s64[] constant(0)
  %broadcast.1092 = s64[] broadcast(s64[] %constant.1091), dimensions={}
  %constant.1093 = s64[] constant(0)
  %broadcast.1094 = s64[] broadcast(s64[] %constant.1093), dimensions={}
  %dynamic-update-slice.1095 = f32[30,128,128,512]{3,2,1,0} dynamic-update-slice(f32[30,128,128,512]{3,2,1,0} %get-tuple-element.927, f32[1,128,128,512]{3,2,1,0} %broadcast.1088, s64[] %get-tuple-element.904, s64[] %broadcast.1090, s64[] %broadcast.1092, /*index=5*/s64[] %broadcast.1094)
  %get-tuple-element.928 = f32[30,16,8,512,512]{4,3,2,1,0} get-tuple-element((s64[], f32[16,512,1024]{2,1,0}, f32[30,1024,1024]{2,1,0}, f32[30,512,1024]{2,1,0}, f32[30,512,1024]{2,1,0}, /*index=5*/f32[30,1024,1024]{2,1,0}, f32[30,4096,1024]{2,1,0}, f32[30,4096,1024]{2,1,0}, f32[30,1024,4096]{2,1,0}, f32[30,1024]{1,0}, /*index=10*/f32[30,1024]{1,0}, f32[30,16,512,1024]{3,2,1,0}, f32[30,1024]{1,0}, f32[30,1024]{1,0}, f32[30,16,512,1]{3,2,1,0}, /*index=15*/f32[30,16,512,1024]{3,2,1,0}, f32[30,1024,1024]{2,1,0}, f32[30,8192,1024]{2,1,0}, f32[30,1024,512]{2,1,0}, f32[30,8192,1024]{2,1,0}, /*index=20*/f32[30,1024,512]{2,1,0}, f32[30,8192,1024]{2,1,0}, f32[30,128,512,128]{3,2,1,0}, f32[30,128,128,512]{3,2,1,0}, f32[30,16,8,512,512]{4,3,2,1,0}, /*index=25*/f32[30,128,512,512]{3,2,1,0}, f32[30,128,512,128]{3,2,1,0}, f32[30,1024,1024]{2,1,0}, f32[30,8192,1024]{2,1,0}, f32[30,16,512,1024]{3,2,1,0}, /*index=30*/f32[30,16,512,1]{3,2,1,0}, f32[30,16,512,1024]{3,2,1,0}, f32[30,1024,4096]{2,1,0}, f32[30,8192,1024]{2,1,0}, f32[30,16,512,4096]{3,2,1,0}, /*index=35*/f32[30,1024,4096]{2,1,0}, f32[30,8192,1024]{2,1,0}, f32[30,16,512,4096]{3,2,1,0}, f32[30,16,512,4096]{3,2,1,0}, f32[30,4096,1024]{2,1,0}, /*index=40*/f32[30,8192,4096]{2,1,0}, f32[], f32[]) %p0.903), index=24
  %get-tuple-element.1096 = f32[16,8,512,512]{3,2,1,0} get-tuple-element((f32[16,512,1024]{2,1,0}, f32[16,512,1024]{2,1,0}, f32[1024]{0}, f32[1024]{0}, f32[16,512,1]{2,1,0}, /*index=5*/f32[16,512,1024]{2,1,0}, f32[1024,1024]{0,1}, f32[8192,1024]{1,0}, f32[1024,512]{0,1}, f32[8192,1024]{1,0}, /*index=10*/f32[1024,512]{0,1}, f32[8192,1024]{1,0}, f32[128,512,128]{2,1,0}, f32[128,128,512]{2,1,0}, f32[16,8,512,512]{3,2,1,0}, /*index=15*/f32[128,512,512]{2,1,0}, f32[128,512,128]{2,1,0}, f32[1024,1024]{0,1}, f32[8192,1024]{1,0}, f32[16,512,1024]{2,1,0}, /*index=20*/f32[16,512,1]{2,1,0}, f32[16,512,1024]{2,1,0}, f32[1024,4096]{0,1}, f32[8192,1024]{1,0}, f32[16,512,4096]{2,1,0}, /*index=25*/f32[1024,4096]{0,1}, f32[8192,1024]{1,0}, f32[16,512,4096]{2,1,0}, f32[16,512,4096]{2,1,0}, f32[4096,1024]{0,1}, /*index=30*/f32[8192,4096]{1,0}) %call.997), index=14
  %broadcast.1097 = f32[1,16,8,512,512]{4,3,2,1,0} broadcast(f32[16,8,512,512]{3,2,1,0} %get-tuple-element.1096), dimensions={1,2,3,4}
  %constant.1098 = s64[] constant(0)
  %broadcast.1099 = s64[] broadcast(s64[] %constant.1098), dimensions={}
  %constant.1100 = s64[] constant(0)
  %broadcast.1101 = s64[] broadcast(s64[] %constant.1100), dimensions={}
  %constant.1102 = s64[] constant(0)
  %broadcast.1103 = s64[] broadcast(s64[] %constant.1102), dimensions={}
  %constant.1104 = s64[] constant(0)
  %broadcast.1105 = s64[] broadcast(s64[] %constant.1104), dimensions={}
  %dynamic-update-slice.1106 = f32[30,16,8,512,512]{4,3,2,1,0} dynamic-update-slice(f32[30,16,8,512,512]{4,3,2,1,0} %get-tuple-element.928, f32[1,16,8,512,512]{4,3,2,1,0} %broadcast.1097, s64[] %get-tuple-element.904, s64[] %broadcast.1099, s64[] %broadcast.1101, /*index=5*/s64[] %broadcast.1103, s64[] %broadcast.1105)
  %get-tuple-element.929 = f32[30,128,512,512]{3,2,1,0} get-tuple-element((s64[], f32[16,512,1024]{2,1,0}, f32[30,1024,1024]{2,1,0}, f32[30,512,1024]{2,1,0}, f32[30,512,1024]{2,1,0}, /*index=5*/f32[30,1024,1024]{2,1,0}, f32[30,4096,1024]{2,1,0}, f32[30,4096,1024]{2,1,0}, f32[30,1024,4096]{2,1,0}, f32[30,1024]{1,0}, /*index=10*/f32[30,1024]{1,0}, f32[30,16,512,1024]{3,2,1,0}, f32[30,1024]{1,0}, f32[30,1024]{1,0}, f32[30,16,512,1]{3,2,1,0}, /*index=15*/f32[30,16,512,1024]{3,2,1,0}, f32[30,1024,1024]{2,1,0}, f32[30,8192,1024]{2,1,0}, f32[30,1024,512]{2,1,0}, f32[30,8192,1024]{2,1,0}, /*index=20*/f32[30,1024,512]{2,1,0}, f32[30,8192,1024]{2,1,0}, f32[30,128,512,128]{3,2,1,0}, f32[30,128,128,512]{3,2,1,0}, f32[30,16,8,512,512]{4,3,2,1,0}, /*index=25*/f32[30,128,512,512]{3,2,1,0}, f32[30,128,512,128]{3,2,1,0}, f32[30,1024,1024]{2,1,0}, f32[30,8192,1024]{2,1,0}, f32[30,16,512,1024]{3,2,1,0}, /*index=30*/f32[30,16,512,1]{3,2,1,0}, f32[30,16,512,1024]{3,2,1,0}, f32[30,1024,4096]{2,1,0}, f32[30,8192,1024]{2,1,0}, f32[30,16,512,4096]{3,2,1,0}, /*index=35*/f32[30,1024,4096]{2,1,0}, f32[30,8192,1024]{2,1,0}, f32[30,16,512,4096]{3,2,1,0}, f32[30,16,512,4096]{3,2,1,0}, f32[30,4096,1024]{2,1,0}, /*index=40*/f32[30,8192,4096]{2,1,0}, f32[], f32[]) %p0.903), index=25
  %get-tuple-element.1107 = f32[128,512,512]{2,1,0} get-tuple-element((f32[16,512,1024]{2,1,0}, f32[16,512,1024]{2,1,0}, f32[1024]{0}, f32[1024]{0}, f32[16,512,1]{2,1,0}, /*index=5*/f32[16,512,1024]{2,1,0}, f32[1024,1024]{0,1}, f32[8192,1024]{1,0}, f32[1024,512]{0,1}, f32[8192,1024]{1,0}, /*index=10*/f32[1024,512]{0,1}, f32[8192,1024]{1,0}, f32[128,512,128]{2,1,0}, f32[128,128,512]{2,1,0}, f32[16,8,512,512]{3,2,1,0}, /*index=15*/f32[128,512,512]{2,1,0}, f32[128,512,128]{2,1,0}, f32[1024,1024]{0,1}, f32[8192,1024]{1,0}, f32[16,512,1024]{2,1,0}, /*index=20*/f32[16,512,1]{2,1,0}, f32[16,512,1024]{2,1,0}, f32[1024,4096]{0,1}, f32[8192,1024]{1,0}, f32[16,512,4096]{2,1,0}, /*index=25*/f32[1024,4096]{0,1}, f32[8192,1024]{1,0}, f32[16,512,4096]{2,1,0}, f32[16,512,4096]{2,1,0}, f32[4096,1024]{0,1}, /*index=30*/f32[8192,4096]{1,0}) %call.997), index=15
  %broadcast.1108 = f32[1,128,512,512]{3,2,1,0} broadcast(f32[128,512,512]{2,1,0} %get-tuple-element.1107), dimensions={1,2,3}
  %constant.1109 = s64[] constant(0)
  %broadcast.1110 = s64[] broadcast(s64[] %constant.1109), dimensions={}
  %constant.1111 = s64[] constant(0)
  %broadcast.1112 = s64[] broadcast(s64[] %constant.1111), dimensions={}
  %constant.1113 = s64[] constant(0)
  %broadcast.1114 = s64[] broadcast(s64[] %constant.1113), dimensions={}
  %dynamic-update-slice.1115 = f32[30,128,512,512]{3,2,1,0} dynamic-update-slice(f32[30,128,512,512]{3,2,1,0} %get-tuple-element.929, f32[1,128,512,512]{3,2,1,0} %broadcast.1108, s64[] %get-tuple-element.904, s64[] %broadcast.1110, s64[] %broadcast.1112, /*index=5*/s64[] %broadcast.1114)
  %get-tuple-element.930 = f32[30,128,512,128]{3,2,1,0} get-tuple-element((s64[], f32[16,512,1024]{2,1,0}, f32[30,1024,1024]{2,1,0}, f32[30,512,1024]{2,1,0}, f32[30,512,1024]{2,1,0}, /*index=5*/f32[30,1024,1024]{2,1,0}, f32[30,4096,1024]{2,1,0}, f32[30,4096,1024]{2,1,0}, f32[30,1024,4096]{2,1,0}, f32[30,1024]{1,0}, /*index=10*/f32[30,1024]{1,0}, f32[30,16,512,1024]{3,2,1,0}, f32[30,1024]{1,0}, f32[30,1024]{1,0}, f32[30,16,512,1]{3,2,1,0}, /*index=15*/f32[30,16,512,1024]{3,2,1,0}, f32[30,1024,1024]{2,1,0}, f32[30,8192,1024]{2,1,0}, f32[30,1024,512]{2,1,0}, f32[30,8192,1024]{2,1,0}, /*index=20*/f32[30,1024,512]{2,1,0}, f32[30,8192,1024]{2,1,0}, f32[30,128,512,128]{3,2,1,0}, f32[30,128,128,512]{3,2,1,0}, f32[30,16,8,512,512]{4,3,2,1,0}, /*index=25*/f32[30,128,512,512]{3,2,1,0}, f32[30,128,512,128]{3,2,1,0}, f32[30,1024,1024]{2,1,0}, f32[30,8192,1024]{2,1,0}, f32[30,16,512,1024]{3,2,1,0}, /*index=30*/f32[30,16,512,1]{3,2,1,0}, f32[30,16,512,1024]{3,2,1,0}, f32[30,1024,4096]{2,1,0}, f32[30,8192,1024]{2,1,0}, f32[30,16,512,4096]{3,2,1,0}, /*index=35*/f32[30,1024,4096]{2,1,0}, f32[30,8192,1024]{2,1,0}, f32[30,16,512,4096]{3,2,1,0}, f32[30,16,512,4096]{3,2,1,0}, f32[30,4096,1024]{2,1,0}, /*index=40*/f32[30,8192,4096]{2,1,0}, f32[], f32[]) %p0.903), index=26
  %get-tuple-element.1116 = f32[128,512,128]{2,1,0} get-tuple-element((f32[16,512,1024]{2,1,0}, f32[16,512,1024]{2,1,0}, f32[1024]{0}, f32[1024]{0}, f32[16,512,1]{2,1,0}, /*index=5*/f32[16,512,1024]{2,1,0}, f32[1024,1024]{0,1}, f32[8192,1024]{1,0}, f32[1024,512]{0,1}, f32[8192,1024]{1,0}, /*index=10*/f32[1024,512]{0,1}, f32[8192,1024]{1,0}, f32[128,512,128]{2,1,0}, f32[128,128,512]{2,1,0}, f32[16,8,512,512]{3,2,1,0}, /*index=15*/f32[128,512,512]{2,1,0}, f32[128,512,128]{2,1,0}, f32[1024,1024]{0,1}, f32[8192,1024]{1,0}, f32[16,512,1024]{2,1,0}, /*index=20*/f32[16,512,1]{2,1,0}, f32[16,512,1024]{2,1,0}, f32[1024,4096]{0,1}, f32[8192,1024]{1,0}, f32[16,512,4096]{2,1,0}, /*index=25*/f32[1024,4096]{0,1}, f32[8192,1024]{1,0}, f32[16,512,4096]{2,1,0}, f32[16,512,4096]{2,1,0}, f32[4096,1024]{0,1}, /*index=30*/f32[8192,4096]{1,0}) %call.997), index=16
  %broadcast.1117 = f32[1,128,512,128]{3,2,1,0} broadcast(f32[128,512,128]{2,1,0} %get-tuple-element.1116), dimensions={1,2,3}
  %constant.1118 = s64[] constant(0)
  %broadcast.1119 = s64[] broadcast(s64[] %constant.1118), dimensions={}
  %constant.1120 = s64[] constant(0)
  %broadcast.1121 = s64[] broadcast(s64[] %constant.1120), dimensions={}
  %constant.1122 = s64[] constant(0)
  %broadcast.1123 = s64[] broadcast(s64[] %constant.1122), dimensions={}
  %dynamic-update-slice.1124 = f32[30,128,512,128]{3,2,1,0} dynamic-update-slice(f32[30,128,512,128]{3,2,1,0} %get-tuple-element.930, f32[1,128,512,128]{3,2,1,0} %broadcast.1117, s64[] %get-tuple-element.904, s64[] %broadcast.1119, s64[] %broadcast.1121, /*index=5*/s64[] %broadcast.1123)
  %get-tuple-element.931 = f32[30,1024,1024]{2,1,0} get-tuple-element((s64[], f32[16,512,1024]{2,1,0}, f32[30,1024,1024]{2,1,0}, f32[30,512,1024]{2,1,0}, f32[30,512,1024]{2,1,0}, /*index=5*/f32[30,1024,1024]{2,1,0}, f32[30,4096,1024]{2,1,0}, f32[30,4096,1024]{2,1,0}, f32[30,1024,4096]{2,1,0}, f32[30,1024]{1,0}, /*index=10*/f32[30,1024]{1,0}, f32[30,16,512,1024]{3,2,1,0}, f32[30,1024]{1,0}, f32[30,1024]{1,0}, f32[30,16,512,1]{3,2,1,0}, /*index=15*/f32[30,16,512,1024]{3,2,1,0}, f32[30,1024,1024]{2,1,0}, f32[30,8192,1024]{2,1,0}, f32[30,1024,512]{2,1,0}, f32[30,8192,1024]{2,1,0}, /*index=20*/f32[30,1024,512]{2,1,0}, f32[30,8192,1024]{2,1,0}, f32[30,128,512,128]{3,2,1,0}, f32[30,128,128,512]{3,2,1,0}, f32[30,16,8,512,512]{4,3,2,1,0}, /*index=25*/f32[30,128,512,512]{3,2,1,0}, f32[30,128,512,128]{3,2,1,0}, f32[30,1024,1024]{2,1,0}, f32[30,8192,1024]{2,1,0}, f32[30,16,512,1024]{3,2,1,0}, /*index=30*/f32[30,16,512,1]{3,2,1,0}, f32[30,16,512,1024]{3,2,1,0}, f32[30,1024,4096]{2,1,0}, f32[30,8192,1024]{2,1,0}, f32[30,16,512,4096]{3,2,1,0}, /*index=35*/f32[30,1024,4096]{2,1,0}, f32[30,8192,1024]{2,1,0}, f32[30,16,512,4096]{3,2,1,0}, f32[30,16,512,4096]{3,2,1,0}, f32[30,4096,1024]{2,1,0}, /*index=40*/f32[30,8192,4096]{2,1,0}, f32[], f32[]) %p0.903), index=27
  %get-tuple-element.1125 = f32[1024,1024]{0,1} get-tuple-element((f32[16,512,1024]{2,1,0}, f32[16,512,1024]{2,1,0}, f32[1024]{0}, f32[1024]{0}, f32[16,512,1]{2,1,0}, /*index=5*/f32[16,512,1024]{2,1,0}, f32[1024,1024]{0,1}, f32[8192,1024]{1,0}, f32[1024,512]{0,1}, f32[8192,1024]{1,0}, /*index=10*/f32[1024,512]{0,1}, f32[8192,1024]{1,0}, f32[128,512,128]{2,1,0}, f32[128,128,512]{2,1,0}, f32[16,8,512,512]{3,2,1,0}, /*index=15*/f32[128,512,512]{2,1,0}, f32[128,512,128]{2,1,0}, f32[1024,1024]{0,1}, f32[8192,1024]{1,0}, f32[16,512,1024]{2,1,0}, /*index=20*/f32[16,512,1]{2,1,0}, f32[16,512,1024]{2,1,0}, f32[1024,4096]{0,1}, f32[8192,1024]{1,0}, f32[16,512,4096]{2,1,0}, /*index=25*/f32[1024,4096]{0,1}, f32[8192,1024]{1,0}, f32[16,512,4096]{2,1,0}, f32[16,512,4096]{2,1,0}, f32[4096,1024]{0,1}, /*index=30*/f32[8192,4096]{1,0}) %call.997), index=17
  %broadcast.1126 = f32[1,1024,1024]{2,1,0} broadcast(f32[1024,1024]{0,1} %get-tuple-element.1125), dimensions={1,2}
  %constant.1127 = s64[] constant(0)
  %broadcast.1128 = s64[] broadcast(s64[] %constant.1127), dimensions={}
  %constant.1129 = s64[] constant(0)
  %broadcast.1130 = s64[] broadcast(s64[] %constant.1129), dimensions={}
  %dynamic-update-slice.1131 = f32[30,1024,1024]{2,1,0} dynamic-update-slice(f32[30,1024,1024]{2,1,0} %get-tuple-element.931, f32[1,1024,1024]{2,1,0} %broadcast.1126, s64[] %get-tuple-element.904, s64[] %broadcast.1128, s64[] %broadcast.1130)
  %get-tuple-element.932 = f32[30,8192,1024]{2,1,0} get-tuple-element((s64[], f32[16,512,1024]{2,1,0}, f32[30,1024,1024]{2,1,0}, f32[30,512,1024]{2,1,0}, f32[30,512,1024]{2,1,0}, /*index=5*/f32[30,1024,1024]{2,1,0}, f32[30,4096,1024]{2,1,0}, f32[30,4096,1024]{2,1,0}, f32[30,1024,4096]{2,1,0}, f32[30,1024]{1,0}, /*index=10*/f32[30,1024]{1,0}, f32[30,16,512,1024]{3,2,1,0}, f32[30,1024]{1,0}, f32[30,1024]{1,0}, f32[30,16,512,1]{3,2,1,0}, /*index=15*/f32[30,16,512,1024]{3,2,1,0}, f32[30,1024,1024]{2,1,0}, f32[30,8192,1024]{2,1,0}, f32[30,1024,512]{2,1,0}, f32[30,8192,1024]{2,1,0}, /*index=20*/f32[30,1024,512]{2,1,0}, f32[30,8192,1024]{2,1,0}, f32[30,128,512,128]{3,2,1,0}, f32[30,128,128,512]{3,2,1,0}, f32[30,16,8,512,512]{4,3,2,1,0}, /*index=25*/f32[30,128,512,512]{3,2,1,0}, f32[30,128,512,128]{3,2,1,0}, f32[30,1024,1024]{2,1,0}, f32[30,8192,1024]{2,1,0}, f32[30,16,512,1024]{3,2,1,0}, /*index=30*/f32[30,16,512,1]{3,2,1,0}, f32[30,16,512,1024]{3,2,1,0}, f32[30,1024,4096]{2,1,0}, f32[30,8192,1024]{2,1,0}, f32[30,16,512,4096]{3,2,1,0}, /*index=35*/f32[30,1024,4096]{2,1,0}, f32[30,8192,1024]{2,1,0}, f32[30,16,512,4096]{3,2,1,0}, f32[30,16,512,4096]{3,2,1,0}, f32[30,4096,1024]{2,1,0}, /*index=40*/f32[30,8192,4096]{2,1,0}, f32[], f32[]) %p0.903), index=28
  %get-tuple-element.1132 = f32[8192,1024]{1,0} get-tuple-element((f32[16,512,1024]{2,1,0}, f32[16,512,1024]{2,1,0}, f32[1024]{0}, f32[1024]{0}, f32[16,512,1]{2,1,0}, /*index=5*/f32[16,512,1024]{2,1,0}, f32[1024,1024]{0,1}, f32[8192,1024]{1,0}, f32[1024,512]{0,1}, f32[8192,1024]{1,0}, /*index=10*/f32[1024,512]{0,1}, f32[8192,1024]{1,0}, f32[128,512,128]{2,1,0}, f32[128,128,512]{2,1,0}, f32[16,8,512,512]{3,2,1,0}, /*index=15*/f32[128,512,512]{2,1,0}, f32[128,512,128]{2,1,0}, f32[1024,1024]{0,1}, f32[8192,1024]{1,0}, f32[16,512,1024]{2,1,0}, /*index=20*/f32[16,512,1]{2,1,0}, f32[16,512,1024]{2,1,0}, f32[1024,4096]{0,1}, f32[8192,1024]{1,0}, f32[16,512,4096]{2,1,0}, /*index=25*/f32[1024,4096]{0,1}, f32[8192,1024]{1,0}, f32[16,512,4096]{2,1,0}, f32[16,512,4096]{2,1,0}, f32[4096,1024]{0,1}, /*index=30*/f32[8192,4096]{1,0}) %call.997), index=18
  %broadcast.1133 = f32[1,8192,1024]{2,1,0} broadcast(f32[8192,1024]{1,0} %get-tuple-element.1132), dimensions={1,2}
  %constant.1134 = s64[] constant(0)
  %broadcast.1135 = s64[] broadcast(s64[] %constant.1134), dimensions={}
  %constant.1136 = s64[] constant(0)
  %broadcast.1137 = s64[] broadcast(s64[] %constant.1136), dimensions={}
  %dynamic-update-slice.1138 = f32[30,8192,1024]{2,1,0} dynamic-update-slice(f32[30,8192,1024]{2,1,0} %get-tuple-element.932, f32[1,8192,1024]{2,1,0} %broadcast.1133, s64[] %get-tuple-element.904, s64[] %broadcast.1135, s64[] %broadcast.1137)
  %get-tuple-element.933 = f32[30,16,512,1024]{3,2,1,0} get-tuple-element((s64[], f32[16,512,1024]{2,1,0}, f32[30,1024,1024]{2,1,0}, f32[30,512,1024]{2,1,0}, f32[30,512,1024]{2,1,0}, /*index=5*/f32[30,1024,1024]{2,1,0}, f32[30,4096,1024]{2,1,0}, f32[30,4096,1024]{2,1,0}, f32[30,1024,4096]{2,1,0}, f32[30,1024]{1,0}, /*index=10*/f32[30,1024]{1,0}, f32[30,16,512,1024]{3,2,1,0}, f32[30,1024]{1,0}, f32[30,1024]{1,0}, f32[30,16,512,1]{3,2,1,0}, /*index=15*/f32[30,16,512,1024]{3,2,1,0}, f32[30,1024,1024]{2,1,0}, f32[30,8192,1024]{2,1,0}, f32[30,1024,512]{2,1,0}, f32[30,8192,1024]{2,1,0}, /*index=20*/f32[30,1024,512]{2,1,0}, f32[30,8192,1024]{2,1,0}, f32[30,128,512,128]{3,2,1,0}, f32[30,128,128,512]{3,2,1,0}, f32[30,16,8,512,512]{4,3,2,1,0}, /*index=25*/f32[30,128,512,512]{3,2,1,0}, f32[30,128,512,128]{3,2,1,0}, f32[30,1024,1024]{2,1,0}, f32[30,8192,1024]{2,1,0}, f32[30,16,512,1024]{3,2,1,0}, /*index=30*/f32[30,16,512,1]{3,2,1,0}, f32[30,16,512,1024]{3,2,1,0}, f32[30,1024,4096]{2,1,0}, f32[30,8192,1024]{2,1,0}, f32[30,16,512,4096]{3,2,1,0}, /*index=35*/f32[30,1024,4096]{2,1,0}, f32[30,8192,1024]{2,1,0}, f32[30,16,512,4096]{3,2,1,0}, f32[30,16,512,4096]{3,2,1,0}, f32[30,4096,1024]{2,1,0}, /*index=40*/f32[30,8192,4096]{2,1,0}, f32[], f32[]) %p0.903), index=29
  %get-tuple-element.1139 = f32[16,512,1024]{2,1,0} get-tuple-element((f32[16,512,1024]{2,1,0}, f32[16,512,1024]{2,1,0}, f32[1024]{0}, f32[1024]{0}, f32[16,512,1]{2,1,0}, /*index=5*/f32[16,512,1024]{2,1,0}, f32[1024,1024]{0,1}, f32[8192,1024]{1,0}, f32[1024,512]{0,1}, f32[8192,1024]{1,0}, /*index=10*/f32[1024,512]{0,1}, f32[8192,1024]{1,0}, f32[128,512,128]{2,1,0}, f32[128,128,512]{2,1,0}, f32[16,8,512,512]{3,2,1,0}, /*index=15*/f32[128,512,512]{2,1,0}, f32[128,512,128]{2,1,0}, f32[1024,1024]{0,1}, f32[8192,1024]{1,0}, f32[16,512,1024]{2,1,0}, /*index=20*/f32[16,512,1]{2,1,0}, f32[16,512,1024]{2,1,0}, f32[1024,4096]{0,1}, f32[8192,1024]{1,0}, f32[16,512,4096]{2,1,0}, /*index=25*/f32[1024,4096]{0,1}, f32[8192,1024]{1,0}, f32[16,512,4096]{2,1,0}, f32[16,512,4096]{2,1,0}, f32[4096,1024]{0,1}, /*index=30*/f32[8192,4096]{1,0}) %call.997), index=19
  %broadcast.1140 = f32[1,16,512,1024]{3,2,1,0} broadcast(f32[16,512,1024]{2,1,0} %get-tuple-element.1139), dimensions={1,2,3}
  %constant.1141 = s64[] constant(0)
  %broadcast.1142 = s64[] broadcast(s64[] %constant.1141), dimensions={}
  %constant.1143 = s64[] constant(0)
  %broadcast.1144 = s64[] broadcast(s64[] %constant.1143), dimensions={}
  %constant.1145 = s64[] constant(0)
  %broadcast.1146 = s64[] broadcast(s64[] %constant.1145), dimensions={}
  %dynamic-update-slice.1147 = f32[30,16,512,1024]{3,2,1,0} dynamic-update-slice(f32[30,16,512,1024]{3,2,1,0} %get-tuple-element.933, f32[1,16,512,1024]{3,2,1,0} %broadcast.1140, s64[] %get-tuple-element.904, s64[] %broadcast.1142, s64[] %broadcast.1144, /*index=5*/s64[] %broadcast.1146)
  %get-tuple-element.934 = f32[30,16,512,1]{3,2,1,0} get-tuple-element((s64[], f32[16,512,1024]{2,1,0}, f32[30,1024,1024]{2,1,0}, f32[30,512,1024]{2,1,0}, f32[30,512,1024]{2,1,0}, /*index=5*/f32[30,1024,1024]{2,1,0}, f32[30,4096,1024]{2,1,0}, f32[30,4096,1024]{2,1,0}, f32[30,1024,4096]{2,1,0}, f32[30,1024]{1,0}, /*index=10*/f32[30,1024]{1,0}, f32[30,16,512,1024]{3,2,1,0}, f32[30,1024]{1,0}, f32[30,1024]{1,0}, f32[30,16,512,1]{3,2,1,0}, /*index=15*/f32[30,16,512,1024]{3,2,1,0}, f32[30,1024,1024]{2,1,0}, f32[30,8192,1024]{2,1,0}, f32[30,1024,512]{2,1,0}, f32[30,8192,1024]{2,1,0}, /*index=20*/f32[30,1024,512]{2,1,0}, f32[30,8192,1024]{2,1,0}, f32[30,128,512,128]{3,2,1,0}, f32[30,128,128,512]{3,2,1,0}, f32[30,16,8,512,512]{4,3,2,1,0}, /*index=25*/f32[30,128,512,512]{3,2,1,0}, f32[30,128,512,128]{3,2,1,0}, f32[30,1024,1024]{2,1,0}, f32[30,8192,1024]{2,1,0}, f32[30,16,512,1024]{3,2,1,0}, /*index=30*/f32[30,16,512,1]{3,2,1,0}, f32[30,16,512,1024]{3,2,1,0}, f32[30,1024,4096]{2,1,0}, f32[30,8192,1024]{2,1,0}, f32[30,16,512,4096]{3,2,1,0}, /*index=35*/f32[30,1024,4096]{2,1,0}, f32[30,8192,1024]{2,1,0}, f32[30,16,512,4096]{3,2,1,0}, f32[30,16,512,4096]{3,2,1,0}, f32[30,4096,1024]{2,1,0}, /*index=40*/f32[30,8192,4096]{2,1,0}, f32[], f32[]) %p0.903), index=30
  %get-tuple-element.1148 = f32[16,512,1]{2,1,0} get-tuple-element((f32[16,512,1024]{2,1,0}, f32[16,512,1024]{2,1,0}, f32[1024]{0}, f32[1024]{0}, f32[16,512,1]{2,1,0}, /*index=5*/f32[16,512,1024]{2,1,0}, f32[1024,1024]{0,1}, f32[8192,1024]{1,0}, f32[1024,512]{0,1}, f32[8192,1024]{1,0}, /*index=10*/f32[1024,512]{0,1}, f32[8192,1024]{1,0}, f32[128,512,128]{2,1,0}, f32[128,128,512]{2,1,0}, f32[16,8,512,512]{3,2,1,0}, /*index=15*/f32[128,512,512]{2,1,0}, f32[128,512,128]{2,1,0}, f32[1024,1024]{0,1}, f32[8192,1024]{1,0}, f32[16,512,1024]{2,1,0}, /*index=20*/f32[16,512,1]{2,1,0}, f32[16,512,1024]{2,1,0}, f32[1024,4096]{0,1}, f32[8192,1024]{1,0}, f32[16,512,4096]{2,1,0}, /*index=25*/f32[1024,4096]{0,1}, f32[8192,1024]{1,0}, f32[16,512,4096]{2,1,0}, f32[16,512,4096]{2,1,0}, f32[4096,1024]{0,1}, /*index=30*/f32[8192,4096]{1,0}) %call.997), index=20
  %broadcast.1149 = f32[1,16,512,1]{3,2,1,0} broadcast(f32[16,512,1]{2,1,0} %get-tuple-element.1148), dimensions={1,2,3}
  %constant.1150 = s64[] constant(0)
  %broadcast.1151 = s64[] broadcast(s64[] %constant.1150), dimensions={}
  %constant.1152 = s64[] constant(0)
  %broadcast.1153 = s64[] broadcast(s64[] %constant.1152), dimensions={}
  %constant.1154 = s64[] constant(0)
  %broadcast.1155 = s64[] broadcast(s64[] %constant.1154), dimensions={}
  %dynamic-update-slice.1156 = f32[30,16,512,1]{3,2,1,0} dynamic-update-slice(f32[30,16,512,1]{3,2,1,0} %get-tuple-element.934, f32[1,16,512,1]{3,2,1,0} %broadcast.1149, s64[] %get-tuple-element.904, s64[] %broadcast.1151, s64[] %broadcast.1153, /*index=5*/s64[] %broadcast.1155)
  %get-tuple-element.935 = f32[30,16,512,1024]{3,2,1,0} get-tuple-element((s64[], f32[16,512,1024]{2,1,0}, f32[30,1024,1024]{2,1,0}, f32[30,512,1024]{2,1,0}, f32[30,512,1024]{2,1,0}, /*index=5*/f32[30,1024,1024]{2,1,0}, f32[30,4096,1024]{2,1,0}, f32[30,4096,1024]{2,1,0}, f32[30,1024,4096]{2,1,0}, f32[30,1024]{1,0}, /*index=10*/f32[30,1024]{1,0}, f32[30,16,512,1024]{3,2,1,0}, f32[30,1024]{1,0}, f32[30,1024]{1,0}, f32[30,16,512,1]{3,2,1,0}, /*index=15*/f32[30,16,512,1024]{3,2,1,0}, f32[30,1024,1024]{2,1,0}, f32[30,8192,1024]{2,1,0}, f32[30,1024,512]{2,1,0}, f32[30,8192,1024]{2,1,0}, /*index=20*/f32[30,1024,512]{2,1,0}, f32[30,8192,1024]{2,1,0}, f32[30,128,512,128]{3,2,1,0}, f32[30,128,128,512]{3,2,1,0}, f32[30,16,8,512,512]{4,3,2,1,0}, /*index=25*/f32[30,128,512,512]{3,2,1,0}, f32[30,128,512,128]{3,2,1,0}, f32[30,1024,1024]{2,1,0}, f32[30,8192,1024]{2,1,0}, f32[30,16,512,1024]{3,2,1,0}, /*index=30*/f32[30,16,512,1]{3,2,1,0}, f32[30,16,512,1024]{3,2,1,0}, f32[30,1024,4096]{2,1,0}, f32[30,8192,1024]{2,1,0}, f32[30,16,512,4096]{3,2,1,0}, /*index=35*/f32[30,1024,4096]{2,1,0}, f32[30,8192,1024]{2,1,0}, f32[30,16,512,4096]{3,2,1,0}, f32[30,16,512,4096]{3,2,1,0}, f32[30,4096,1024]{2,1,0}, /*index=40*/f32[30,8192,4096]{2,1,0}, f32[], f32[]) %p0.903), index=31
  %get-tuple-element.1157 = f32[16,512,1024]{2,1,0} get-tuple-element((f32[16,512,1024]{2,1,0}, f32[16,512,1024]{2,1,0}, f32[1024]{0}, f32[1024]{0}, f32[16,512,1]{2,1,0}, /*index=5*/f32[16,512,1024]{2,1,0}, f32[1024,1024]{0,1}, f32[8192,1024]{1,0}, f32[1024,512]{0,1}, f32[8192,1024]{1,0}, /*index=10*/f32[1024,512]{0,1}, f32[8192,1024]{1,0}, f32[128,512,128]{2,1,0}, f32[128,128,512]{2,1,0}, f32[16,8,512,512]{3,2,1,0}, /*index=15*/f32[128,512,512]{2,1,0}, f32[128,512,128]{2,1,0}, f32[1024,1024]{0,1}, f32[8192,1024]{1,0}, f32[16,512,1024]{2,1,0}, /*index=20*/f32[16,512,1]{2,1,0}, f32[16,512,1024]{2,1,0}, f32[1024,4096]{0,1}, f32[8192,1024]{1,0}, f32[16,512,4096]{2,1,0}, /*index=25*/f32[1024,4096]{0,1}, f32[8192,1024]{1,0}, f32[16,512,4096]{2,1,0}, f32[16,512,4096]{2,1,0}, f32[4096,1024]{0,1}, /*index=30*/f32[8192,4096]{1,0}) %call.997), index=21
  %broadcast.1158 = f32[1,16,512,1024]{3,2,1,0} broadcast(f32[16,512,1024]{2,1,0} %get-tuple-element.1157), dimensions={1,2,3}
  %constant.1159 = s64[] constant(0)
  %broadcast.1160 = s64[] broadcast(s64[] %constant.1159), dimensions={}
  %constant.1161 = s64[] constant(0)
  %broadcast.1162 = s64[] broadcast(s64[] %constant.1161), dimensions={}
  %constant.1163 = s64[] constant(0)
  %broadcast.1164 = s64[] broadcast(s64[] %constant.1163), dimensions={}
  %dynamic-update-slice.1165 = f32[30,16,512,1024]{3,2,1,0} dynamic-update-slice(f32[30,16,512,1024]{3,2,1,0} %get-tuple-element.935, f32[1,16,512,1024]{3,2,1,0} %broadcast.1158, s64[] %get-tuple-element.904, s64[] %broadcast.1160, s64[] %broadcast.1162, /*index=5*/s64[] %broadcast.1164)
  %get-tuple-element.936 = f32[30,1024,4096]{2,1,0} get-tuple-element((s64[], f32[16,512,1024]{2,1,0}, f32[30,1024,1024]{2,1,0}, f32[30,512,1024]{2,1,0}, f32[30,512,1024]{2,1,0}, /*index=5*/f32[30,1024,1024]{2,1,0}, f32[30,4096,1024]{2,1,0}, f32[30,4096,1024]{2,1,0}, f32[30,1024,4096]{2,1,0}, f32[30,1024]{1,0}, /*index=10*/f32[30,1024]{1,0}, f32[30,16,512,1024]{3,2,1,0}, f32[30,1024]{1,0}, f32[30,1024]{1,0}, f32[30,16,512,1]{3,2,1,0}, /*index=15*/f32[30,16,512,1024]{3,2,1,0}, f32[30,1024,1024]{2,1,0}, f32[30,8192,1024]{2,1,0}, f32[30,1024,512]{2,1,0}, f32[30,8192,1024]{2,1,0}, /*index=20*/f32[30,1024,512]{2,1,0}, f32[30,8192,1024]{2,1,0}, f32[30,128,512,128]{3,2,1,0}, f32[30,128,128,512]{3,2,1,0}, f32[30,16,8,512,512]{4,3,2,1,0}, /*index=25*/f32[30,128,512,512]{3,2,1,0}, f32[30,128,512,128]{3,2,1,0}, f32[30,1024,1024]{2,1,0}, f32[30,8192,1024]{2,1,0}, f32[30,16,512,1024]{3,2,1,0}, /*index=30*/f32[30,16,512,1]{3,2,1,0}, f32[30,16,512,1024]{3,2,1,0}, f32[30,1024,4096]{2,1,0}, f32[30,8192,1024]{2,1,0}, f32[30,16,512,4096]{3,2,1,0}, /*index=35*/f32[30,1024,4096]{2,1,0}, f32[30,8192,1024]{2,1,0}, f32[30,16,512,4096]{3,2,1,0}, f32[30,16,512,4096]{3,2,1,0}, f32[30,4096,1024]{2,1,0}, /*index=40*/f32[30,8192,4096]{2,1,0}, f32[], f32[]) %p0.903), index=32
  %get-tuple-element.1166 = f32[1024,4096]{0,1} get-tuple-element((f32[16,512,1024]{2,1,0}, f32[16,512,1024]{2,1,0}, f32[1024]{0}, f32[1024]{0}, f32[16,512,1]{2,1,0}, /*index=5*/f32[16,512,1024]{2,1,0}, f32[1024,1024]{0,1}, f32[8192,1024]{1,0}, f32[1024,512]{0,1}, f32[8192,1024]{1,0}, /*index=10*/f32[1024,512]{0,1}, f32[8192,1024]{1,0}, f32[128,512,128]{2,1,0}, f32[128,128,512]{2,1,0}, f32[16,8,512,512]{3,2,1,0}, /*index=15*/f32[128,512,512]{2,1,0}, f32[128,512,128]{2,1,0}, f32[1024,1024]{0,1}, f32[8192,1024]{1,0}, f32[16,512,1024]{2,1,0}, /*index=20*/f32[16,512,1]{2,1,0}, f32[16,512,1024]{2,1,0}, f32[1024,4096]{0,1}, f32[8192,1024]{1,0}, f32[16,512,4096]{2,1,0}, /*index=25*/f32[1024,4096]{0,1}, f32[8192,1024]{1,0}, f32[16,512,4096]{2,1,0}, f32[16,512,4096]{2,1,0}, f32[4096,1024]{0,1}, /*index=30*/f32[8192,4096]{1,0}) %call.997), index=22
  %broadcast.1167 = f32[1,1024,4096]{2,1,0} broadcast(f32[1024,4096]{0,1} %get-tuple-element.1166), dimensions={1,2}
  %constant.1168 = s64[] constant(0)
  %broadcast.1169 = s64[] broadcast(s64[] %constant.1168), dimensions={}
  %constant.1170 = s64[] constant(0)
  %broadcast.1171 = s64[] broadcast(s64[] %constant.1170), dimensions={}
  %dynamic-update-slice.1172 = f32[30,1024,4096]{2,1,0} dynamic-update-slice(f32[30,1024,4096]{2,1,0} %get-tuple-element.936, f32[1,1024,4096]{2,1,0} %broadcast.1167, s64[] %get-tuple-element.904, s64[] %broadcast.1169, s64[] %broadcast.1171)
  %get-tuple-element.937 = f32[30,8192,1024]{2,1,0} get-tuple-element((s64[], f32[16,512,1024]{2,1,0}, f32[30,1024,1024]{2,1,0}, f32[30,512,1024]{2,1,0}, f32[30,512,1024]{2,1,0}, /*index=5*/f32[30,1024,1024]{2,1,0}, f32[30,4096,1024]{2,1,0}, f32[30,4096,1024]{2,1,0}, f32[30,1024,4096]{2,1,0}, f32[30,1024]{1,0}, /*index=10*/f32[30,1024]{1,0}, f32[30,16,512,1024]{3,2,1,0}, f32[30,1024]{1,0}, f32[30,1024]{1,0}, f32[30,16,512,1]{3,2,1,0}, /*index=15*/f32[30,16,512,1024]{3,2,1,0}, f32[30,1024,1024]{2,1,0}, f32[30,8192,1024]{2,1,0}, f32[30,1024,512]{2,1,0}, f32[30,8192,1024]{2,1,0}, /*index=20*/f32[30,1024,512]{2,1,0}, f32[30,8192,1024]{2,1,0}, f32[30,128,512,128]{3,2,1,0}, f32[30,128,128,512]{3,2,1,0}, f32[30,16,8,512,512]{4,3,2,1,0}, /*index=25*/f32[30,128,512,512]{3,2,1,0}, f32[30,128,512,128]{3,2,1,0}, f32[30,1024,1024]{2,1,0}, f32[30,8192,1024]{2,1,0}, f32[30,16,512,1024]{3,2,1,0}, /*index=30*/f32[30,16,512,1]{3,2,1,0}, f32[30,16,512,1024]{3,2,1,0}, f32[30,1024,4096]{2,1,0}, f32[30,8192,1024]{2,1,0}, f32[30,16,512,4096]{3,2,1,0}, /*index=35*/f32[30,1024,4096]{2,1,0}, f32[30,8192,1024]{2,1,0}, f32[30,16,512,4096]{3,2,1,0}, f32[30,16,512,4096]{3,2,1,0}, f32[30,4096,1024]{2,1,0}, /*index=40*/f32[30,8192,4096]{2,1,0}, f32[], f32[]) %p0.903), index=33
  %get-tuple-element.1173 = f32[8192,1024]{1,0} get-tuple-element((f32[16,512,1024]{2,1,0}, f32[16,512,1024]{2,1,0}, f32[1024]{0}, f32[1024]{0}, f32[16,512,1]{2,1,0}, /*index=5*/f32[16,512,1024]{2,1,0}, f32[1024,1024]{0,1}, f32[8192,1024]{1,0}, f32[1024,512]{0,1}, f32[8192,1024]{1,0}, /*index=10*/f32[1024,512]{0,1}, f32[8192,1024]{1,0}, f32[128,512,128]{2,1,0}, f32[128,128,512]{2,1,0}, f32[16,8,512,512]{3,2,1,0}, /*index=15*/f32[128,512,512]{2,1,0}, f32[128,512,128]{2,1,0}, f32[1024,1024]{0,1}, f32[8192,1024]{1,0}, f32[16,512,1024]{2,1,0}, /*index=20*/f32[16,512,1]{2,1,0}, f32[16,512,1024]{2,1,0}, f32[1024,4096]{0,1}, f32[8192,1024]{1,0}, f32[16,512,4096]{2,1,0}, /*index=25*/f32[1024,4096]{0,1}, f32[8192,1024]{1,0}, f32[16,512,4096]{2,1,0}, f32[16,512,4096]{2,1,0}, f32[4096,1024]{0,1}, /*index=30*/f32[8192,4096]{1,0}) %call.997), index=23
  %broadcast.1174 = f32[1,8192,1024]{2,1,0} broadcast(f32[8192,1024]{1,0} %get-tuple-element.1173), dimensions={1,2}
  %constant.1175 = s64[] constant(0)
  %broadcast.1176 = s64[] broadcast(s64[] %constant.1175), dimensions={}
  %constant.1177 = s64[] constant(0)
  %broadcast.1178 = s64[] broadcast(s64[] %constant.1177), dimensions={}
  %dynamic-update-slice.1179 = f32[30,8192,1024]{2,1,0} dynamic-update-slice(f32[30,8192,1024]{2,1,0} %get-tuple-element.937, f32[1,8192,1024]{2,1,0} %broadcast.1174, s64[] %get-tuple-element.904, s64[] %broadcast.1176, s64[] %broadcast.1178)
  %get-tuple-element.938 = f32[30,16,512,4096]{3,2,1,0} get-tuple-element((s64[], f32[16,512,1024]{2,1,0}, f32[30,1024,1024]{2,1,0}, f32[30,512,1024]{2,1,0}, f32[30,512,1024]{2,1,0}, /*index=5*/f32[30,1024,1024]{2,1,0}, f32[30,4096,1024]{2,1,0}, f32[30,4096,1024]{2,1,0}, f32[30,1024,4096]{2,1,0}, f32[30,1024]{1,0}, /*index=10*/f32[30,1024]{1,0}, f32[30,16,512,1024]{3,2,1,0}, f32[30,1024]{1,0}, f32[30,1024]{1,0}, f32[30,16,512,1]{3,2,1,0}, /*index=15*/f32[30,16,512,1024]{3,2,1,0}, f32[30,1024,1024]{2,1,0}, f32[30,8192,1024]{2,1,0}, f32[30,1024,512]…
/*index=495*/f32[1024,1024]{1,0}, f32[4096,1024]{1,0}, f32[4096,1024]{1,0}, f32[1024,4096]{1,0}, f32[1024]{0}, /*index=500*/f32[1024]{0}, f32[1024,1024]{1,0}, f32[512,1024]{1,0}, f32[512,1024]{1,0}, f32[1024,1024]{1,0}, /*index=505*/f32[4096,1024]{1,0}, f32[4096,1024]{1,0}, f32[1024,4096]{1,0}, f32[1024]{0}, f32[1024]{0}, /*index=510*/f32[1024,1024]{1,0}, f32[512,1024]{1,0}, f32[512,1024]{1,0}, f32[1024,1024]{1,0}, f32[4096,1024]{1,0}, /*index=515*/f32[4096,1024]{1,0}, f32[1024,4096]{1,0}, f32[1024]{0}, f32[1024]{0}, f32[1024,1024]{1,0}, /*index=520*/f32[512,1024]{1,0}, f32[512,1024]{1,0}, f32[1024,1024]{1,0}, f32[4096,1024]{1,0}, f32[4096,1024]{1,0}, /*index=525*/f32[1024,4096]{1,0}, f32[1024]{0}, f32[1024]{0}, f32[1024,1024]{1,0}, f32[512,1024]{1,0}, /*index=530*/f32[512,1024]{1,0}, f32[1024,1024]{1,0}, f32[4096,1024]{1,0}, f32[4096,1024]{1,0}, f32[1024,4096]{1,0}, /*index=535*/f32[1024]{0}, f32[1024]{0}, f32[1024,1024]{1,0}, f32[512,1024]{1,0}, f32[512,1024]{1,0}, /*index=540*/f32[1024,1024]{1,0}, f32[4096,1024]{1,0}, f32[4096,1024]{1,0}, f32[1024,4096]{1,0}, f32[1024]{0}, /*index=545*/f32[1024]{0}, f32[1024,1024]{1,0}, f32[512,1024]{1,0}, f32[512,1024]{1,0}, f32[1024,1024]{1,0}, /*index=550*/f32[4096,1024]{1,0}, f32[4096,1024]{1,0}, f32[1024,4096]{1,0}, f32[1024]{0}, f32[1024]{0}, /*index=555*/f32[1024]{0}, f32[8192,1024]{1,0}) tuple(f32[1024,8192]{1,0} %dot.1407, f32[8192,1024]{0,1} %transpose.1408, f32[1,1,1024]{2,1,0} %reshape.1422, f32[1024]{0} %reshape.1423, f32[30,1024,1024]{2,1,0} %get-tuple-element.2290, /*index=5*/f32[30,512,1024]{2,1,0} %get-tuple-element.2291, f32[30,512,1024]{2,1,0} %get-tuple-element.2292, f32[30,1024,1024]{2,1,0} %get-tuple-element.2293, f32[30,4096,1024]{2,1,0} %get-tuple-element.2294, f32[30,4096,1024]{2,1,0} %get-tuple-element.2295, /*index=10*/f32[30,1024,4096]{2,1,0} %get-tuple-element.2296, f32[30,1024]{1,0} %get-tuple-element.2297, f32[30,1024]{1,0} %get-tuple-element.2298, f32[1024]{0} %reshape.2304, f32[1024]{0} %reshape.2306, /*index=15*/f32[1024]{0} %reshape.2308, f32[1024]{0} %reshape.2310, f32[1024]{0} %reshape.2312, f32[1024]{0} %reshape.2314, f32[1024]{0} %reshape.2316, /*index=20*/f32[1024]{0} %reshape.2318, f32[1024]{0} %reshape.2320, f32[1024]{0} %reshape.2322, f32[1024]{0} %reshape.2324, f32[1024]{0} %reshape.2326, /*index=25*/f32[1024]{0} %reshape.2328, f32[1024]{0} %reshape.2330, f32[1024]{0} %reshape.2332, f32[1024]{0} %reshape.2334, f32[1024]{0} %reshape.2336, /*index=30*/f32[1024]{0} %reshape.2338, f32[1024]{0} %reshape.2340, f32[1024]{0} %reshape.2342, f32[1024]{0} %reshape.2344, f32[1024]{0} %reshape.2346, /*index=35*/f32[1024]{0} %reshape.2348, f32[1024]{0} %reshape.2350, f32[1024]{0} %reshape.2352, f32[1024]{0} %reshape.2354, f32[1024]{0} %reshape.2356, /*index=40*/f32[1024]{0} %reshape.2358, f32[1024]{0} %reshape.2360, f32[1024]{0} %reshape.2362, f32[1024]{0} %reshape.2364, f32[1024]{0} %reshape.2366, /*index=45*/f32[1024]{0} %reshape.2368, f32[1024]{0} %reshape.2370, f32[1024]{0} %reshape.2372, f32[1024]{0} %reshape.2374, f32[1024]{0} %reshape.2376, /*index=50*/f32[1024]{0} %reshape.2378, f32[1024]{0} %reshape.2380, f32[1024]{0} %reshape.2382, f32[1024]{0} %reshape.2384, f32[1024]{0} %reshape.2386, /*index=55*/f32[1024]{0} %reshape.2388, f32[1024]{0} %reshape.2390, f32[1024]{0} %reshape.2392, f32[1024]{0} %reshape.2394, f32[1024]{0} %reshape.2396, /*index=60*/f32[1024]{0} %reshape.2398, f32[1024]{0} %reshape.2400, f32[1024]{0} %reshape.2402, f32[1024]{0} %reshape.2404, f32[1024]{0} %reshape.2406, /*index=65*/f32[1024]{0} %reshape.2408, f32[1024]{0} %reshape.2410, f32[1024]{0} %reshape.2412, f32[1024]{0} %reshape.2414, f32[1024]{0} %reshape.2416, /*index=70*/f32[1024]{0} %reshape.2418, f32[1024]{0} %reshape.2420, f32[1024]{0} %reshape.2422, f32[1024,4096]{1,0} %reshape.2424, f32[1024,4096]{1,0} %reshape.2426, /*index=75*/f32[1024,4096]{1,0} %reshape.2428, f32[1024,4096]{1,0} %reshape.2430, f32[1024,4096]{1,0} %reshape.2432, f32[1024,4096]{1,0} %reshape.2434, f32[1024,4096]{1,0} %reshape.2436, /*index=80*/f32[1024,4096]{1,0} %reshape.2438, f32[1024,4096]{1,0} %reshape.2440, f32[1024,4096]{1,0} %reshape.2442, f32[1024,4096]{1,0} %reshape.2444, f32[1024,4096]{1,0} %reshape.2446, /*index=85*/f32[1024,4096]{1,0} %reshape.2448, f32[1024,4096]{1,0} %reshape.2450, f32[1024,4096]{1,0} %reshape.2452, f32[1024,4096]{1,0} %reshape.2454, f32[1024,4096]{1,0} %reshape.2456, /*index=90*/f32[1024,4096]{1,0} %reshape.2458, f32[1024,4096]{1,0} %reshape.2460, f32[1024,4096]{1,0} %reshape.2462, f32[1024,4096]{1,0} %reshape.2464, f32[1024,4096]{1,0} %reshape.2466, /*index=95*/f32[1024,4096]{1,0} %reshape.2468, f32[1024,4096]{1,0} %reshape.2470, f32[1024,4096]{1,0} %reshape.2472, f32[1024,4096]{1,0} %reshape.2474, f32[1024,4096]{1,0} %reshape.2476, /*index=100*/f32[1024,4096]{1,0} %reshape.2478, f32[1024,4096]{1,0} %reshape.2480, f32[1024,4096]{1,0} %reshape.2482, f32[4096,1024]{1,0} %reshape.2484, f32[4096,1024]{1,0} %reshape.2486, /*index=105*/f32[4096,1024]{1,0} %reshape.2488, f32[4096,1024]{1,0} %reshape.2490, f32[4096,1024]{1,0} %reshape.2492, f32[4096,1024]{1,0} %reshape.2494, f32[4096,1024]{1,0} %reshape.2496, /*index=110*/f32[4096,1024]{1,0} %reshape.2498, f32[4096,1024]{1,0} %reshape.2500, f32[4096,1024]{1,0} %reshape.2502, f32[4096,1024]{1,0} %reshape.2504, f32[4096,1024]{1,0} %reshape.2506, /*index=115*/f32[4096,1024]{1,0} %reshape.2508, f32[4096,1024]{1,0} %reshape.2510, f32[4096,1024]{1,0} %reshape.2512, f32[4096,1024]{1,0} %reshape.2514, f32[4096,1024]{1,0} %reshape.2516, /*index=120*/f32[4096,1024]{1,0} %reshape.2518, f32[4096,1024]{1,0} %reshape.2520, f32[4096,1024]{1,0} %reshape.2522, f32[4096,1024]{1,0} %reshape.2524, f32[4096,1024]{1,0} %reshape.2526, /*index=125*/f32[4096,1024]{1,0} %reshape.2528, f32[4096,1024]{1,0} %reshape.2530, f32[4096,1024]{1,0} %reshape.2532, f32[4096,1024]{1,0} %reshape.2534, f32[4096,1024]{1,0} %reshape.2536, /*index=130*/f32[4096,1024]{1,0} %reshape.2538, f32[4096,1024]{1,0} %reshape.2540, f32[4096,1024]{1,0} %reshape.2542, f32[4096,1024]{1,0} %reshape.2544, f32[4096,1024]{1,0} %reshape.2546, /*index=135*/f32[4096,1024]{1,0} %reshape.2548, f32[4096,1024]{1,0} %reshape.2550, f32[4096,1024]{1,0} %reshape.2552, f32[4096,1024]{1,0} %reshape.2554, f32[4096,1024]{1,0} %reshape.2556, /*index=140*/f32[4096,1024]{1,0} %reshape.2558, f32[4096,1024]{1,0} %reshape.2560, f32[4096,1024]{1,0} %reshape.2562, f32[4096,1024]{1,0} %reshape.2564, f32[4096,1024]{1,0} %reshape.2566, /*index=145*/f32[4096,1024]{1,0} %reshape.2568, f32[4096,1024]{1,0} %reshape.2570, f32[4096,1024]{1,0} %reshape.2572, f32[4096,1024]{1,0} %reshape.2574, f32[4096,1024]{1,0} %reshape.2576, /*index=150*/f32[4096,1024]{1,0} %reshape.2578, f32[4096,1024]{1,0} %reshape.2580, f32[4096,1024]{1,0} %reshape.2582, f32[4096,1024]{1,0} %reshape.2584, f32[4096,1024]{1,0} %reshape.2586, /*index=155*/f32[4096,1024]{1,0} %reshape.2588, f32[4096,1024]{1,0} %reshape.2590, f32[4096,1024]{1,0} %reshape.2592, f32[4096,1024]{1,0} %reshape.2594, f32[4096,1024]{1,0} %reshape.2596, /*index=160*/f32[4096,1024]{1,0} %reshape.2598, f32[4096,1024]{1,0} %reshape.2600, f32[4096,1024]{1,0} %reshape.2602, f32[1024,1024]{1,0} %reshape.2604, f32[1024,1024]{1,0} %reshape.2606, /*index=165*/f32[1024,1024]{1,0} %reshape.2608, f32[1024,1024]{1,0} %reshape.2610, f32[1024,1024]{1,0} %reshape.2612, f32[1024,1024]{1,0} %reshape.2614, f32[1024,1024]{1,0} %reshape.2616, /*index=170*/f32[1024,1024]{1,0} %reshape.2618, f32[1024,1024]{1,0} %reshape.2620, f32[1024,1024]{1,0} %reshape.2622, f32[1024,1024]{1,0} %reshape.2624, f32[1024,1024]{1,0} %reshape.2626, /*index=175*/f32[1024,1024]{1,0} %reshape.2628, f32[1024,1024]{1,0} %reshape.2630, f32[1024,1024]{1,0} %reshape.2632, f32[1024,1024]{1,0} %reshape.2634, f32[1024,1024]{1,0} %reshape.2636, /*index=180*/f32[1024,1024]{1,0} %reshape.2638, f32[1024,1024]{1,0} %reshape.2640, f32[1024,1024]{1,0} %reshape.2642, f32[1024,1024]{1,0} %reshape.2644, f32[1024,1024]{1,0} %reshape.2646, /*index=185*/f32[1024,1024]{1,0} %reshape.2648, f32[1024,1024]{1,0} %reshape.2650, f32[1024,1024]{1,0} %reshape.2652, f32[1024,1024]{1,0} %reshape.2654, f32[1024,1024]{1,0} %reshape.2656, /*index=190*/f32[1024,1024]{1,0} %reshape.2658, f32[1024,1024]{1,0} %reshape.2660, f32[1024,1024]{1,0} %reshape.2662, f32[512,1024]{1,0} %reshape.2664, f32[512,1024]{1,0} %reshape.2666, /*index=195*/f32[512,1024]{1,0} %reshape.2668, f32[512,1024]{1,0} %reshape.2670, f32[512,1024]{1,0} %reshape.2672, f32[512,1024]{1,0} %reshape.2674, f32[512,1024]{1,0} %reshape.2676, /*index=200*/f32[512,1024]{1,0} %reshape.2678, f32[512,1024]{1,0} %reshape.2680, f32[512,1024]{1,0} %reshape.2682, f32[512,1024]{1,0} %reshape.2684, f32[512,1024]{1,0} %reshape.2686, /*index=205*/f32[512,1024]{1,0} %reshape.2688, f32[512,1024]{1,0} %reshape.2690, f32[512,1024]{1,0} %reshape.2692, f32[512,1024]{1,0} %reshape.2694, f32[512,1024]{1,0} %reshape.2696, /*index=210*/f32[512,1024]{1,0} %reshape.2698, f32[512,1024]{1,0} %reshape.2700, f32[512,1024]{1,0} %reshape.2702, f32[512,1024]{1,0} %reshape.2704, f32[512,1024]{1,0} %reshape.2706, /*index=215*/f32[512,1024]{1,0} %reshape.2708, f32[512,1024]{1,0} %reshape.2710, f32[512,1024]{1,0} %reshape.2712, f32[512,1024]{1,0} %reshape.2714, f32[512,1024]{1,0} %reshape.2716, /*index=220*/f32[512,1024]{1,0} %reshape.2718, f32[512,1024]{1,0} %reshape.2720, f32[512,1024]{1,0} %reshape.2722, f32[512,1024]{1,0} %reshape.2724, f32[512,1024]{1,0} %reshape.2726, /*index=225*/f32[512,1024]{1,0} %reshape.2728, f32[512,1024]{1,0} %reshape.2730, f32[512,1024]{1,0} %reshape.2732, f32[512,1024]{1,0} %reshape.2734, f32[512,1024]{1,0} %reshape.2736, /*index=230*/f32[512,1024]{1,0} %reshape.2738, f32[512,1024]{1,0} %reshape.2740, f32[512,1024]{1,0} %reshape.2742, f32[512,1024]{1,0} %reshape.2744, f32[512,1024]{1,0} %reshape.2746, /*index=235*/f32[512,1024]{1,0} %reshape.2748, f32[512,1024]{1,0} %reshape.2750, f32[512,1024]{1,0} %reshape.2752, f32[512,1024]{1,0} %reshape.2754, f32[512,1024]{1,0} %reshape.2756, /*index=240*/f32[512,1024]{1,0} %reshape.2758, f32[512,1024]{1,0} %reshape.2760, f32[512,1024]{1,0} %reshape.2762, f32[512,1024]{1,0} %reshape.2764, f32[512,1024]{1,0} %reshape.2766, /*index=245*/f32[512,1024]{1,0} %reshape.2768, f32[512,1024]{1,0} %reshape.2770, f32[512,1024]{1,0} %reshape.2772, f32[512,1024]{1,0} %reshape.2774, f32[512,1024]{1,0} %reshape.2776, /*index=250*/f32[512,1024]{1,0} %reshape.2778, f32[512,1024]{1,0} %reshape.2780, f32[512,1024]{1,0} %reshape.2782, f32[1024,1024]{1,0} %reshape.2784, f32[1024,1024]{1,0} %reshape.2786, /*index=255*/f32[1024,1024]{1,0} %reshape.2788, f32[1024,1024]{1,0} %reshape.2790, f32[1024,1024]{1,0} %reshape.2792, f32[1024,1024]{1,0} %reshape.2794, f32[1024,1024]{1,0} %reshape.2796, /*index=260*/f32[1024,1024]{1,0} %reshape.2798, f32[1024,1024]{1,0} %reshape.2800, f32[1024,1024]{1,0} %reshape.2802, f32[1024,1024]{1,0} %reshape.2804, f32[1024,1024]{1,0} %reshape.2806, /*index=265*/f32[1024,1024]{1,0} %reshape.2808, f32[1024,1024]{1,0} %reshape.2810, f32[1024,1024]{1,0} %reshape.2812, f32[1024,1024]{1,0} %reshape.2814, f32[1024,1024]{1,0} %reshape.2816, /*index=270*/f32[1024,1024]{1,0} %reshape.2818, f32[1024,1024]{1,0} %reshape.2820, f32[1024,1024]{1,0} %reshape.2822, f32[1024,1024]{1,0} %reshape.2824, f32[1024,1024]{1,0} %reshape.2826, /*index=275*/f32[1024,1024]{1,0} %reshape.2828, f32[1024,1024]{1,0} %reshape.2830, f32[1024,1024]{1,0} %reshape.2832, f32[1024,1024]{1,0} %reshape.2834, f32[1024,1024]{1,0} %reshape.2836, /*index=280*/f32[1024,1024]{1,0} %reshape.2838, f32[1024,1024]{1,0} %reshape.2840, f32[1024,1024]{1,0} %reshape.2842, f32[8192,1024]{1,0} %transpose.2882, f32[8192,1024]{1,0} %custom-call.2887, /*index=285*/f32[1024,1024]{1,0} %custom-call.2891, f32[512,1024]{1,0} %custom-call.2895, f32[512,1024]{1,0} %custom-call.2899, f32[1024,1024]{1,0} %custom-call.2903, f32[4096,1024]{1,0} %custom-call.2907, /*index=290*/f32[4096,1024]{1,0} %custom-call.2911, f32[1024,4096]{1,0} %custom-call.2915, f32[1024]{0} %custom-call.2919, f32[1024]{0} %custom-call.2923, f32[1024,1024]{1,0} %custom-call.2927, /*index=295*/f32[512,1024]{1,0} %custom-call.2931, f32[512,1024]{1,0} %custom-call.2935, f32[1024,1024]{1,0} %custom-call.2939, f32[4096,1024]{1,0} %custom-call.2943, f32[4096,1024]{1,0} %custom-call.2947, /*index=300*/f32[1024,4096]{1,0} %custom-call.2951, f32[1024]{0} %add.2954, f32[1024]{0} %add.2957, f32[1024,1024]{1,0} %custom-call.2961, f32[512,1024]{1,0} %custom-call.2965, /*index=305*/f32[512,1024]{1,0} %custom-call.2969, f32[1024,1024]{1,0} %custom-call.2973, f32[4096,1024]{1,0} %custom-call.2977, f32[4096,1024]{1,0} %custom-call.2981, f32[1024,4096]{1,0} %custom-call.2985, /*index=310*/f32[1024]{0} %add.2988, f32[1024]{0} %add.2991, f32[1024,1024]{1,0} %custom-call.2995, f32[512,1024]{1,0} %custom-call.2999, f32[512,1024]{1,0} %custom-call.3003, /*index=315*/f32[1024,1024]{1,0} %custom-call.3007, f32[4096,1024]{1,0} %custom-call.3011, f32[4096,1024]{1,0} %custom-call.3015, f32[1024,4096]{1,0} %custom-call.3019, f32[1024]{0} %add.3022, /*index=320*/f32[1024]{0} %add.3025, f32[1024,1024]{1,0} %custom-call.3029, f32[512,1024]{1,0} %custom-call.3033, f32[512,1024]{1,0} %custom-call.3037, f32[1024,1024]{1,0} %custom-call.3041, /*index=325*/f32[4096,1024]{1,0} %custom-call.3045, f32[4096,1024]{1,0} %custom-call.3049, f32[1024,4096]{1,0} %custom-call.3053, f32[1024]{0} %add.3056, f32[1024]{0} %add.3059, /*index=330*/f32[1024,1024]{1,0} %custom-call.3063, f32[512,1024]{1,0} %custom-call.3067, f32[512,1024]{1,0} %custom-call.3071, f32[1024,1024]{1,0} %custom-call.3075, f32[4096,1024]{1,0} %custom-call.3079, /*index=335*/f32[4096,1024]{1,0} %custom-call.3083, f32[1024,4096]{1,0} %custom-call.3087, f32[1024]{0} %add.3090, f32[1024]{0} %add.3093, f32[1024,1024]{1,0} %custom-call.3097, /*index=340*/f32[512,1024]{1,0} %custom-call.3101, f32[512,1024]{1,0} %custom-call.3105, f32[1024,1024]{1,0} %custom-call.3109, f32[4096,1024]{1,0} %custom-call.3113, f32[4096,1024]{1,0} %custom-call.3117, /*index=345*/f32[1024,4096]{1,0} %custom-call.3121, f32[1024]{0} %add.3124, f32[1024]{0} %add.3127, f32[1024,1024]{1,0} %custom-call.3131, f32[512,1024]{1,0} %custom-call.3135, /*index=350*/f32[512,1024]{1,0} %custom-call.3139, f32[1024,1024]{1,0} %custom-call.3143, f32[4096,1024]{1,0} %custom-call.3147, f32[4096,1024]{1,0} %custom-call.3151, f32[1024,4096]{1,0} %custom-call.3155, /*index=355*/f32[1024]{0} %add.3158, f32[1024]{0} %add.3161, f32[1024,1024]{1,0} %custom-call.3165, f32[512,1024]{1,0} %custom-call.3169, f32[512,1024]{1,0} %custom-call.3173, /*index=360*/f32[1024,1024]{1,0} %custom-call.3177, f32[4096,1024]{1,0} %custom-call.3181, f32[4096,1024]{1,0} %custom-call.3185, f32[1024,4096]{1,0} %custom-call.3189, f32[1024]{0} %add.3192, /*index=365*/f32[1024]{0} %add.3195, f32[1024,1024]{1,0} %custom-call.3199, f32[512,1024]{1,0} %custom-call.3203, f32[512,1024]{1,0} %custom-call.3207, f32[1024,1024]{1,0} %custom-call.3211, /*index=370*/f32[4096,1024]{1,0} %custom-call.3215, f32[4096,1024]{1,0} %custom-call.3219, f32[1024,4096]{1,0} %custom-call.3223, f32[1024]{0} %add.3226, f32[1024]{0} %add.3229, /*index=375*/f32[1024,1024]{1,0} %custom-call.3233, f32[512,1024]{1,0} %custom-call.3237, f32[512,1024]{1,0} %custom-call.3241, f32[1024,1024]{1,0} %custom-call.3245, f32[4096,1024]{1,0} %custom-call.3249, /*index=380*/f32[4096,1024]{1,0} %custom-call.3253, f32[1024,4096]{1,0} %custom-call.3257, f32[1024]{0} %add.3260, f32[1024]{0} %add.3263, f32[1024,1024]{1,0} %custom-call.3267, /*index=385*/f32[512,1024]{1,0} %custom-call.3271, f32[512,1024]{1,0} %custom-call.3275, f32[1024,1024]{1,0} %custom-call.3279, f32[4096,1024]{1,0} %custom-call.3283, f32[4096,1024]{1,0} %custom-call.3287, /*index=390*/f32[1024,4096]{1,0} %custom-call.3291, f32[1024]{0} %add.3294, f32[1024]{0} %add.3297, f32[1024,1024]{1,0} %custom-call.3301, f32[512,1024]{1,0} %custom-call.3305, /*index=395*/f32[512,1024]{1,0} %custom-call.3309, f32[1024,1024]{1,0} %custom-call.3313, f32[4096,1024]{1,0} %custom-call.3317, f32[4096,1024]{1,0} %custom-call.3321, f32[1024,4096]{1,0} %custom-call.3325, /*index=400*/f32[1024]{0} %add.3328, f32[1024]{0} %add.3331, f32[1024,1024]{1,0} %custom-call.3335, f32[512,1024]{1,0} %custom-call.3339, f32[512,1024]{1,0} %custom-call.3343, /*index=405*/f32[1024,1024]{1,0} %custom-call.3347, f32[4096,1024]{1,0} %custom-call.3351, f32[4096,1024]{1,0} %custom-call.3355, f32[1024,4096]{1,0} %custom-call.3359, f32[1024]{0} %add.3362, /*index=410*/f32[1024]{0} %add.3365, f32[1024,1024]{1,0} %custom-call.3369, f32[512,1024]{1,0} %custom-call.3373, f32[512,1024]{1,0} %custom-call.3377, f32[1024,1024]{1,0} %custom-call.3381, /*index=415*/f32[4096,1024]{1,0} %custom-call.3385, f32[4096,1024]{1,0} %custom-call.3389, f32[1024,4096]{1,0} %custom-call.3393, f32[1024]{0} %add.3396, f32[1024]{0} %add.3399, /*index=420*/f32[1024,1024]{1,0} %custom-call.3403, f32[512,1024]{1,0} %custom-call.3407, f32[512,1024]{1,0} %custom-call.3411, f32[1024,1024]{1,0} %custom-call.3415, f32[4096,1024]{1,0} %custom-call.3419, /*index=425*/f32[4096,1024]{1,0} %custom-call.3423, f32[1024,4096]{1,0} %custom-call.3427, f32[1024]{0} %add.3430, f32[1024]{0} %add.3433, f32[1024,1024]{1,0} %custom-call.3437, /*index=430*/f32[512,1024]{1,0} %custom-call.3441, f32[512,1024]{1,0} %custom-call.3445, f32[1024,1024]{1,0} %custom-call.3449, f32[4096,1024]{1,0} %custom-call.3453, f32[4096,1024]{1,0} %custom-call.3457, /*index=435*/f32[1024,4096]{1,0} %custom-call.3461, f32[1024]{0} %add.3464, f32[1024]{0} %add.3467, f32[1024,1024]{1,0} %custom-call.3471, f32[512,1024]{1,0} %custom-call.3475, /*index=440*/f32[512,1024]{1,0} %custom-call.3479, f32[1024,1024]{1,0} %custom-call.3483, f32[4096,1024]{1,0} %custom-call.3487, f32[4096,1024]{1,0} %custom-call.3491, f32[1024,4096]{1,0} %custom-call.3495, /*index=445*/f32[1024]{0} %add.3498, f32[1024]{0} %add.3501, f32[1024,1024]{1,0} %custom-call.3505, f32[512,1024]{1,0} %custom-call.3509, f32[512,1024]{1,0} %custom-call.3513, /*index=450*/f32[1024,1024]{1,0} %custom-call.3517, f32[4096,1024]{1,0} %custom-call.3521, f32[4096,1024]{1,0} %custom-call.3525, f32[1024,4096]{1,0} %custom-call.3529, f32[1024]{0} %add.3532, /*index=455*/f32[1024]{0} %add.3535, f32[1024,1024]{1,0} %custom-call.3539, f32[512,1024]{1,0} %custom-call.3543, f32[512,1024]{1,0} %custom-call.3547, f32[1024,1024]{1,0} %custom-call.3551, /*index=460*/f32[4096,1024]{1,0} %custom-call.3555, f32[4096,1024]{1,0} %custom-call.3559, f32[1024,4096]{1,0} %custom-call.3563, f32[1024]{0} %add.3566, f32[1024]{0} %add.3569, /*index=465*/f32[1024,1024]{1,0} %custom-call.3573, f32[512,1024]{1,0} %custom-call.3577, f32[512,1024]{1,0} %custom-call.3581, f32[1024,1024]{1,0} %custom-call.3585, f32[4096,1024]{1,0} %custom-call.3589, /*index=470*/f32[4096,1024]{1,0} %custom-call.3593, f32[1024,4096]{1,0} %custom-call.3597, f32[1024]{0} %add.3600, f32[1024]{0} %add.3603, f32[1024,1024]{1,0} %custom-call.3607, /*index=475*/f32[512,1024]{1,0} %custom-call.3611, f32[512,1024]{1,0} %custom-call.3615, f32[1024,1024]{1,0} %custom-call.3619, f32[4096,1024]{1,0} %custom-call.3623, f32[4096,1024]{1,0} %custom-call.3627, /*index=480*/f32[1024,4096]{1,0} %custom-call.3631, f32[1024]{0} %add.3634, f32[1024]{0} %add.3637, f32[1024,1024]{1,0} %custom-call.3641, f32[512,1024]{1,0} %custom-call.3645, /*index=485*/f32[512,1024]{1,0} %custom-call.3649, f32[1024,1024]{1,0} %custom-call.3653, f32[4096,1024]{1,0} %custom-call.3657, f32[4096,1024]{1,0} %custom-call.3661, f32[1024,4096]{1,0} %custom-call.3665, /*index=490*/f32[1024]{0} %add.3668, f32[1024]{0} %add.3671, f32[1024,1024]{1,0} %custom-call.3675, f32[512,1024]{1,0} %custom-call.3679, f32[512,1024]{1,0} %custom-call.3683, /*index=495*/f32[1024,1024]{1,0} %custom-call.3687, f32[4096,1024]{1,0} %custom-call.3691, f32[4096,1024]{1,0} %custom-call.3695, f32[1024,4096]{1,0} %custom-call.3699, f32[1024]{0} %add.3702, /*index=500*/f32[1024]{0} %add.3705, f32[1024,1024]{1,0} %custom-call.3709, f32[512,1024]{1,0} %custom-call.3713, f32[512,1024]{1,0} %custom-call.3717, f32[1024,1024]{1,0} %custom-call.3721, /*index=505*/f32[4096,1024]{1,0} %custom-call.3725, f32[4096,1024]{1,0} %custom-call.3729, f32[1024,4096]{1,0} %custom-call.3733, f32[1024]{0} %add.3736, f32[1024]{0} %add.3739, /*index=510*/f32[1024,1024]{1,0} %custom-call.3743, f32[512,1024]{1,0} %custom-call.3747, f32[512,1024]{1,0} %custom-call.3751, f32[1024,1024]{1,0} %custom-call.3755, f32[4096,1024]{1,0} %custom-call.3759, /*index=515*/f32[4096,1024]{1,0} %custom-call.3763, f32[1024,4096]{1,0} %custom-call.3767, f32[1024]{0} %add.3770, f32[1024]{0} %add.3773, f32[1024,1024]{1,0} %custom-call.3777, /*index=520*/f32[512,1024]{1,0} %custom-call.3781, f32[512,1024]{1,0} %custom-call.3785, f32[1024,1024]{1,0} %custom-call.3789, f32[4096,1024]{1,0} %custom-call.3793, f32[4096,1024]{1,0} %custom-call.3797, /*index=525*/f32[1024,4096]{1,0} %custom-call.3801, f32[1024]{0} %add.3804, f32[1024]{0} %add.3807, f32[1024,1024]{1,0} %custom-call.3811, f32[512,1024]{1,0} %custom-call.3815, /*index=530*/f32[512,1024]{1,0} %custom-call.3819, f32[1024,1024]{1,0} %custom-call.3823, f32[4096,1024]{1,0} %custom-call.3827, f32[4096,1024]{1,0} %custom-call.3831, f32[1024,4096]{1,0} %custom-call.3835, /*index=535*/f32[1024]{0} %add.3838, f32[1024]{0} %add.3841, f32[1024,1024]{1,0} %custom-call.3845, f32[512,1024]{1,0} %custom-call.3849, f32[512,1024]{1,0} %custom-call.3853, /*index=540*/f32[1024,1024]{1,0} %custom-call.3857, f32[4096,1024]{1,0} %custom-call.3861, f32[4096,1024]{1,0} %custom-call.3865, f32[1024,4096]{1,0} %custom-call.3869, f32[1024]{0} %add.3872, /*index=545*/f32[1024]{0} %add.3875, f32[1024,1024]{1,0} %custom-call.3879, f32[512,1024]{1,0} %custom-call.3883, f32[512,1024]{1,0} %custom-call.3887, f32[1024,1024]{1,0} %custom-call.3891, /*index=550*/f32[4096,1024]{1,0} %custom-call.3895, f32[4096,1024]{1,0} %custom-call.3899, f32[1024,4096]{1,0} %custom-call.3903, f32[1024]{0} %add.3906, f32[1024]{0} %add.3909, /*index=555*/f32[1024]{0} %add.3912, f32[8192,1024]{1,0} %custom-call.3916)
}


Graph Hash: 91c52b808baec5f46238f45078843e4a

## END_GRAPH


#OUTPUT_SHARDING_BEGIN

f32[1024,8192] {devices=[1,8]0,4,1,5,2,6,3,7}
f32[8192,1024] {devices=[8,1]0,4,1,5,2,6,3,7}
f32[1,1,1024] {devices=[1,1,4,2]0,4,1,5,2,6,3,7 last_tile_dim_replicate}
f32[1024] {devices=[4,2]0,4,1,5,2,6,3,7 last_tile_dim_replicate}
f32[30,1024,1024] {devices=[1,4,2]0,4,1,5,2,6,3,7}
f32[30,512,1024] {devices=[1,4,2]0,4,1,5,2,6,3,7}
f32[30,512,1024] {devices=[1,4,2]0,4,1,5,2,6,3,7}
f32[30,1024,1024] {devices=[1,2,4]0,1,2,3,4,5,6,7}
f32[30,4096,1024] {devices=[1,4,2]0,4,1,5,2,6,3,7}
f32[30,4096,1024] {devices=[1,4,2]0,4,1,5,2,6,3,7}
f32[30,1024,4096] {devices=[1,2,4]0,1,2,3,4,5,6,7}
f32[30,1024] {devices=[1,2,4]0,1,2,3,4,5,6,7 last_tile_dim_replicate}
f32[30,1024] {devices=[1,2,4]0,1,2,3,4,5,6,7 last_tile_dim_replicate}
f32[1024] {devices=[2,4]0,1,2,3,4,5,6,7 last_tile_dim_replicate}
f32[1024] {devices=[2,4]0,1,2,3,4,5,6,7 last_tile_dim_replicate}
f32[1024] {devices=[2,4]0,1,2,3,4,5,6,7 last_tile_dim_replicate}
f32[1024] {devices=[2,4]0,1,2,3,4,5,6,7 last_tile_dim_replicate}
f32[1024] {devices=[2,4]0,1,2,3,4,5,6,7 last_tile_dim_replicate}
f32[1024] {devices=[2,4]0,1,2,3,4,5,6,7 last_tile_dim_replicate}
f32[1024] {devices=[2,4]0,1,2,3,4,5,6,7 last_tile_dim_replicate}
f32[1024] {devices=[2,4]0,1,2,3,4,5,6,7 last_tile_dim_replicate}
f32[1024] {devices=[2,4]0,1,2,3,4,5,6,7 last_tile_dim_replicate}
f32[1024] {devices=[2,4]0,1,2,3,4,5,6,7 last_tile_dim_replicate}
f32[1024] {devices=[2,4]0,1,2,3,4,5,6,7 last_tile_dim_replicate}
f32[1024] {devices=[2,4]0,1,2,3,4,5,6,7 last_tile_dim_replicate}
f32[1024] {devices=[2,4]0,1,2,3,4,5,6,7 last_tile_dim_replicate}
f32[1024] {devices=[2,4]0,1,2,3,4,5,6,7 last_tile_dim_replicate}
f32[1024] {devices=[2,4]0,1,2,3,4,5,6,7 last_tile_dim_replicate}
f32[1024] {devices=[2,4]0,1,2,3,4,5,6,7 last_tile_dim_replicate}
f32[1024] {devices=[2,4]0,1,2,3,4,5,6,7 last_tile_dim_replicate}
f32[1024] {devices=[2,4]0,1,2,3,4,5,6,7 last_tile_dim_replicate}
f32[1024] {devices=[2,4]0,1,2,3,4,5,6,7 last_tile_dim_replicate}
f32[1024] {devices=[2,4]0,1,2,3,4,5,6,7 last_tile_dim_replicate}
f32[1024] {devices=[2,4]0,1,2,3,4,5,6,7 last_tile_dim_replicate}
f32[1024] {devices=[2,4]0,1,2,3,4,5,6,7 last_tile_dim_replicate}
f32[1024] {devices=[2,4]0,1,2,3,4,5,6,7 last_tile_dim_replicate}
f32[1024] {devices=[2,4]0,1,2,3,4,5,6,7 last_tile_dim_replicate}
f32[1024] {devices=[2,4]0,1,2,3,4,5,6,7 last_tile_dim_replicate}
f32[1024] {devices=[2,4]0,1,2,3,4,5,6,7 last_tile_dim_replicate}
f32[1024] {devices=[2,4]0,1,2,3,4,5,6,7 last_tile_dim_replicate}
f32[1024] {devices=[2,4]0,1,2,3,4,5,6,7 last_tile_dim_replicate}
f32[1024] {devices=[2,4]0,1,2,3,4,5,6,7 last_tile_dim_replicate}
f32[1024] {devices=[2,4]0,1,2,3,4,5,6,7 last_tile_dim_replicate}
f32[1024] {devices=[2,4]0,1,2,3,4,5,6,7 last_tile_dim_replicate}
f32[1024] {devices=[2,4]0,1,2,3,4,5,6,7 last_tile_dim_replicate}
f32[1024] {devices=[2,4]0,1,2,3,4,5,6,7 last_tile_dim_replicate}
f32[1024] {devices=[2,4]0,1,2,3,4,5,6,7 last_tile_dim_replicate}
f32[1024] {devices=[2,4]0,1,2,3,4,5,6,7 last_tile_dim_replicate}
f32[1024] {devices=[2,4]0,1,2,3,4,5,6,7 last_tile_dim_replicate}
f32[1024] {devices=[2,4]0,1,2,3,4,5,6,7 last_tile_dim_replicate}
f32[1024] {devices=[2,4]0,1,2,3,4,5,6,7 last_tile_dim_replicate}
f32[1024] {devices=[2,4]0,1,2,3,4,5,6,7 last_tile_dim_replicate}
f32[1024] {devices=[2,4]0,1,2,3,4,5,6,7 last_tile_dim_replicate}
f32[1024] {devices=[2,4]0,1,2,3,4,5,6,7 last_tile_dim_replicate}
f32[1024] {devices=[2,4]0,1,2,3,4,5,6,7 last_tile_dim_replicate}
f32[1024] {devices=[2,4]0,1,2,3,4,5,6,7 last_tile_dim_replicate}
f32[1024] {devices=[2,4]0,1,2,3,4,5,6,7 last_tile_dim_replicate}
f32[1024] {devices=[2,4]0,1,2,3,4,5,6,7 last_tile_dim_replicate}
f32[1024] {devices=[2,4]0,1,2,3,4,5,6,7 last_tile_dim_replicate}
f32[1024] {devices=[2,4]0,1,2,3,4,5,6,7 last_tile_dim_replicate}
f32[1024] {devices=[2,4]0,1,2,3,4,5,6,7 last_tile_dim_replicate}
f32[1024] {devices=[2,4]0,1,2,3,4,5,6,7 last_tile_dim_replicate}
f32[1024] {devices=[2,4]0,1,2,3,4,5,6,7 last_tile_dim_replicate}
f32[1024] {devices=[2,4]0,1,2,3,4,5,6,7 last_tile_dim_replicate}
f32[1024] {devices=[2,4]0,1,2,3,4,5,6,7 last_tile_dim_replicate}
f32[1024] {devices=[2,4]0,1,2,3,4,5,6,7 last_tile_dim_replicate}
f32[1024] {devices=[2,4]0,1,2,3,4,5,6,7 last_tile_dim_replicate}
f32[1024] {devices=[2,4]0,1,2,3,4,5,6,7 last_tile_dim_replicate}
f32[1024] {devices=[2,4]0,1,2,3,4,5,6,7 last_tile_dim_replicate}
f32[1024] {devices=[2,4]0,1,2,3,4,5,6,7 last_tile_dim_replicate}
f32[1024] {devices=[2,4]0,1,2,3,4,5,6,7 last_tile_dim_replicate}
f32[1024] {devices=[2,4]0,1,2,3,4,5,6,7 last_tile_dim_replicate}
f32[1024] {devices=[2,4]0,1,2,3,4,5,6,7 last_tile_dim_replicate}
f32[1024,4096] {devices=[2,4]0,1,2,3,4,5,6,7}
f32[1024,4096] {devices=[2,4]0,1,2,3,4,5,6,7}
f32[1024,4096] {devices=[2,4]0,1,2,3,4,5,6,7}
f32[1024,4096] {devices=[2,4]0,1,2,3,4,5,6,7}
f32[1024,4096] {devices=[2,4]0,1,2,3,4,5,6,7}
f32[1024,4096] {devices=[2,4]0,1,2,3,4,5,6,7}
f32[1024,4096] {devices=[2,4]0,1,2,3,4,5,6,7}
f32[1024,4096] {devices=[2,4]0,1,2,3,4,5,6,7}
f32[1024,4096] {devices=[2,4]0,1,2,3,4,5,6,7}
f32[1024,4096] {devices=[2,4]0,1,2,3,4,5,6,7}
f32[1024,4096] {devices=[2,4]0,1,2,3,4,5,6,7}
f32[1024,4096] {devices=[2,4]0,1,2,3,4,5,6,7}
f32[1024,4096] {devices=[2,4]0,1,2,3,4,5,6,7}
f32[1024,4096] {devices=[2,4]0,1,2,3,4,5,6,7}
f32[1024,4096] {devices=[2,4]0,1,2,3,4,5,6,7}
f32[1024,4096] {devices=[2,4]0,1,2,3,4,5,6,7}
f32[1024,4096] {devices=[2,4]0,1,2,3,4,5,6,7}
f32[1024,4096] {devices=[2,4]0,1,2,3,4,5,6,7}
f32[1024,4096] {devices=[2,4]0,1,2,3,4,5,6,7}
f32[1024,4096] {devices=[2,4]0,1,2,3,4,5,6,7}
f32[1024,4096] {devices=[2,4]0,1,2,3,4,5,6,7}
f32[1024,4096] {devices=[2,4]0,1,2,3,4,5,6,7}
f32[1024,4096] {devices=[2,4]0,1,2,3,4,5,6,7}
f32[1024,4096] {devices=[2,4]0,1,2,3,4,5,6,7}
f32[1024,4096] {devices=[2,4]0,1,2,3,4,5,6,7}
f32[1024,4096] {devices=[2,4]0,1,2,3,4,5,6,7}
f32[1024,4096] {devices=[2,4]0,1,2,3,4,5,6,7}
f32[1024,4096] {devices=[2,4]0,1,2,3,4,5,6,7}
f32[1024,4096] {devices=[2,4]0,1,2,3,4,5,6,7}
f32[1024,4096] {devices=[2,4]0,1,2,3,4,5,6,7}
f32[4096,1024] {devices=[4,2]0,4,1,5,2,6,3,7}
f32[4096,1024] {devices=[4,2]0,4,1,5,2,6,3,7}
f32[4096,1024] {devices=[4,2]0,4,1,5,2,6,3,7}
f32[4096,1024] {devices=[4,2]0,4,1,5,2,6,3,7}
f32[4096,1024] {devices=[4,2]0,4,1,5,2,6,3,7}
f32[4096,1024] {devices=[4,2]0,4,1,5,2,6,3,7}
f32[4096,1024] {devices=[4,2]0,4,1,5,2,6,3,7}
f32[4096,1024] {devices=[4,2]0,4,1,5,2,6,3,7}
f32[4096,1024] {devices=[4,2]0,4,1,5,2,6,3,7}
f32[4096,1024] {devices=[4,2]0,4,1,5,2,6,3,7}
f32[4096,1024] {devices=[4,2]0,4,1,5,2,6,3,7}
f32[4096,1024] {devices=[4,2]0,4,1,5,2,6,3,7}
f32[4096,1024] {devices=[4,2]0,4,1,5,2,6,3,7}
f32[4096,1024] {devices=[4,2]0,4,1,5,2,6,3,7}
f32[4096,1024] {devices=[4,2]0,4,1,5,2,6,3,7}
f32[4096,1024] {devices=[4,2]0,4,1,5,2,6,3,7}
f32[4096,1024] {devices=[4,2]0,4,1,5,2,6,3,7}
f32[4096,1024] {devices=[4,2]0,4,1,5,2,6,3,7}
f32[4096,1024] {devices=[4,2]0,4,1,5,2,6,3,7}
f32[4096,1024] {devices=[4,2]0,4,1,5,2,6,3,7}
f32[4096,1024] {devices=[4,2]0,4,1,5,2,6,3,7}
f32[4096,1024] {devices=[4,2]0,4,1,5,2,6,3,7}
f32[4096,1024] {devices=[4,2]0,4,1,5,2,6,3,7}
f32[4096,1024] {devices=[4,2]0,4,1,5,2,6,3,7}
f32[4096,1024] {devices=[4,2]0,4,1,5,2,6,3,7}
f32[4096,1024] {devices=[4,2]0,4,1,5,2,6,3,7}
f32[4096,1024] {devices=[4,2]0,4,1,5,2,6,3,7}
f32[4096,1024] {devices=[4,2]0,4,1,5,2,6,3,7}
f32[4096,1024] {devices=[4,2]0,4,1,5,2,6,3,7}
f32[4096,1024] {devices=[4,2]0,4,1,5,2,6,3,7}
f32[4096,1024] {devices=[4,2]0,4,1,5,2,6,3,7}
f32[4096,1024] {devices=[4,2]0,4,1,5,2,6,3,7}
f32[4096,1024] {devices=[4,2]0,4,1,5,2,6,3,7}
f32[4096,1024] {devices=[4,2]0,4,1,5,2,6,3,7}
f32[4096,1024] {devices=[4,2]0,4,1,5,2,6,3,7}
f32[4096,1024] {devices=[4,2]0,4,1,5,2,6,3,7}
f32[4096,1024] {devices=[4,2]0,4,1,5,2,6,3,7}
f32[4096,1024] {devices=[4,2]0,4,1,5,2,6,3,7}
f32[4096,1024] {devices=[4,2]0,4,1,5,2,6,3,7}
f32[4096,1024] {devices=[4,2]0,4,1,5,2,6,3,7}
f32[4096,1024] {devices=[4,2]0,4,1,5,2,6,3,7}
f32[4096,1024] {devices=[4,2]0,4,1,5,2,6,3,7}
f32[4096,1024] {devices=[4,2]0,4,1,5,2,6,3,7}
f32[4096,1024] {devices=[4,2]0,4,1,5,2,6,3,7}
f32[4096,1024] {devices=[4,2]0,4,1,5,2,6,3,7}
f32[4096,1024] {devices=[4,2]0,4,1,5,2,6,3,7}
f32[4096,1024] {devices=[4,2]0,4,1,5,2,6,3,7}
f32[4096,1024] {devices=[4,2]0,4,1,5,2,6,3,7}
f32[4096,1024] {devices=[4,2]0,4,1,5,2,6,3,7}
f32[4096,1024] {devices=[4,2]0,4,1,5,2,6,3,7}
f32[4096,1024] {devices=[4,2]0,4,1,5,2,6,3,7}
f32[4096,1024] {devices=[4,2]0,4,1,5,2,6,3,7}
f32[4096,1024] {devices=[4,2]0,4,1,5,2,6,3,7}
f32[4096,1024] {devices=[4,2]0,4,1,5,2,6,3,7}
f32[4096,1024] {devices=[4,2]0,4,1,5,2,6,3,7}
f32[4096,1024] {devices=[4,2]0,4,1,5,2,6,3,7}
f32[4096,1024] {devices=[4,2]0,4,1,5,2,6,3,7}
f32[4096,1024] {devices=[4,2]0,4,1,5,2,6,3,7}
f32[4096,1024] {devices=[4,2]0,4,1,5,2,6,3,7}
f32[4096,1024] {devices=[4,2]0,4,1,5,2,6,3,7}
f32[1024,1024] {devices=[2,4]0,1,2,3,4,5,6,7}
f32[1024,1024] {devices=[2,4]0,1,2,3,4,5,6,7}
f32[1024,1024] {devices=[2,4]0,1,2,3,4,5,6,7}
f32[1024,1024] {devices=[2,4]0,1,2,3,4,5,6,7}
f32[1024,1024] {devices=[2,4]0,1,2,3,4,5,6,7}
f32[1024,1024] {devices=[2,4]0,1,2,3,4,5,6,7}
f32[1024,1024] {devices=[2,4]0,1,2,3,4,5,6,7}
f32[1024,1024] {devices=[2,4]0,1,2,3,4,5,6,7}
f32[1024,1024] {devices=[2,4]0,1,2,3,4,5,6,7}
f32[1024,1024] {devices=[2,4]0,1,2,3,4,5,6,7}
f32[1024,1024] {devices=[2,4]0,1,2,3,4,5,6,7}
f32[1024,1024] {devices=[2,4]0,1,2,3,4,5,6,7}
f32[1024,1024] {devices=[2,4]0,1,2,3,4,5,6,7}
f32[1024,1024] {devices=[2,4]0,1,2,3,4,5,6,7}
f32[1024,1024] {devices=[2,4]0,1,2,3,4,5,6,7}
f32[1024,1024] {devices=[2,4]0,1,2,3,4,5,6,7}
f32[1024,1024] {devices=[2,4]0,1,2,3,4,5,6,7}
f32[1024,1024] {devices=[2,4]0,1,2,3,4,5,6,7}
f32[1024,1024] {devices=[2,4]0,1,2,3,4,5,6,7}
f32[1024,1024] {devices=[2,4]0,1,2,3,4,5,6,7}
f32[1024,1024] {devices=[2,4]0,1,2,3,4,5,6,7}
f32[1024,1024] {devices=[2,4]0,1,2,3,4,5,6,7}
f32[1024,1024] {devices=[2,4]0,1,2,3,4,5,6,7}
f32[1024,1024] {devices=[2,4]0,1,2,3,4,5,6,7}
f32[1024,1024] {devices=[2,4]0,1,2,3,4,5,6,7}
f32[1024,1024] {devices=[2,4]0,1,2,3,4,5,6,7}
f32[1024,1024] {devices=[2,4]0,1,2,3,4,5,6,7}
f32[1024,1024] {devices=[2,4]0,1,2,3,4,5,6,7}
f32[1024,1024] {devices=[2,4]0,1,2,3,4,5,6,7}
f32[1024,1024] {devices=[2,4]0,1,2,3,4,5,6,7}
f32[512,1024] {devices=[4,2]0,4,1,5,2,6,3,7}
f32[512,1024] {devices=[4,2]0,4,1,5,2,6,3,7}
f32[512,1024] {devices=[4,2]0,4,1,5,2,6,3,7}
f32[512,1024] {devices=[4,2]0,4,1,5,2,6,3,7}
f32[512,1024] {devices=[4,2]0,4,1,5,2,6,3,7}
f32[512,1024] {devices=[4,2]0,4,1,5,2,6,3,7}
f32[512,1024] {devices=[4,2]0,4,1,5,2,6,3,7}
f32[512,1024] {devices=[4,2]0,4,1,5,2,6,3,7}
f32[512,1024] {devices=[4,2]0,4,1,5,2,6,3,7}
f32[512,1024] {devices=[4,2]0,4,1,5,2,6,3,7}
f32[512,1024] {devices=[4,2]0,4,1,5,2,6,3,7}
f32[512,1024] {devices=[4,2]0,4,1,5,2,6,3,7}
f32[512,1024] {devices=[4,2]0,4,1,5,2,6,3,7}
f32[512,1024] {devices=[4,2]0,4,1,5,2,6,3,7}
f32[512,1024] {devices=[4,2]0,4,1,5,2,6,3,7}
f32[512,1024] {devices=[4,2]0,4,1,5,2,6,3,7}
f32[512,1024] {devices=[4,2]0,4,1,5,2,6,3,7}
f32[512,1024] {devices=[4,2]0,4,1,5,2,6,3,7}
f32[512,1024] {devices=[4,2]0,4,1,5,2,6,3,7}
f32[512,1024] {devices=[4,2]0,4,1,5,2,6,3,7}
f32[512,1024] {devices=[4,2]0,4,1,5,2,6,3,7}
f32[512,1024] {devices=[4,2]0,4,1,5,2,6,3,7}
f32[512,1024] {devices=[4,2]0,4,1,5,2,6,3,7}
f32[512,1024] {devices=[4,2]0,4,1,5,2,6,3,7}
f32[512,1024] {devices=[4,2]0,4,1,5,2,6,3,7}
f32[512,1024] {devices=[4,2]0,4,1,5,2,6,3,7}
f32[512,1024] {devices=[4,2]0,4,1,5,2,6,3,7}
f32[512,1024] {devices=[4,2]0,4,1,5,2,6,3,7}
f32[512,1024] {devices=[4,2]0,4,1,5,2,6,3,7}
f32[512,1024] {devices=[4,2]0,4,1,5,2,6,3,7}
f32[512,1024] {devices=[4,2]0,4,1,5,2,6,3,7}
f32[512,1024] {devices=[4,2]0,4,1,5,2,6,3,7}
f32[512,1024] {devices=[4,2]0,4,1,5,2,6,3,7}
f32[512,1024] {devices=[4,2]0,4,1,5,2,6,3,7}
f32[512,1024] {devices=[4,2]0,4,1,5,2,6,3,7}
f32[512,1024] {devices=[4,2]0,4,1,5,2,6,3,7}
f32[512,1024] {devices=[4,2]0,4,1,5,2,6,3,7}
f32[512,1024] {devices=[4,2]0,4,1,5,2,6,3,7}
f32[512,1024] {devices=[4,2]0,4,1,5,2,6,3,7}
f32[512,1024] {devices=[4,2]0,4,1,5,2,6,3,7}
f32[512,1024] {devices=[4,2]0,4,1,5,2,6,3,7}
f32[512,1024] {devices=[4,2]0,4,1,5,2,6,3,7}
f32[512,1024] {devices=[4,2]0,4,1,5,2,6,3,7}
f32[512,1024] {devices=[4,2]0,4,1,5,2,6,3,7}
f32[512,1024] {devices=[4,2]0,4,1,5,2,6,3,7}
f32[512,1024] {devices=[4,2]0,4,1,5,2,6,3,7}
f32[512,1024] {devices=[4,2]0,4,1,5,2,6,3,7}
f32[512,1024] {devices=[4,2]0,4,1,5,2,6,3,7}
f32[512,1024] {devices=[4,2]0,4,1,5,2,6,3,7}
f32[512,1024] {devices=[4,2]0,4,1,5,2,6,3,7}
f32[512,1024] {devices=[4,2]0,4,1,5,2,6,3,7}
f32[512,1024] {devices=[4,2]0,4,1,5,2,6,3,7}
f32[512,1024] {devices=[4,2]0,4,1,5,2,6,3,7}
f32[512,1024] {devices=[4,2]0,4,1,5,2,6,3,7}
f32[512,1024] {devices=[4,2]0,4,1,5,2,6,3,7}
f32[512,1024] {devices=[4,2]0,4,1,5,2,6,3,7}
f32[512,1024] {devices=[4,2]0,4,1,5,2,6,3,7}
f32[512,1024] {devices=[4,2]0,4,1,5,2,6,3,7}
f32[512,1024] {devices=[4,2]0,4,1,5,2,6,3,7}
f32[512,1024] {devices=[4,2]0,4,1,5,2,6,3,7}
f32[1024,1024] {devices=[4,2]0,4,1,5,2,6,3,7}
f32[1024,1024] {devices=[4,2]0,4,1,5,2,6,3,7}
f32[1024,1024] {devices=[4,2]0,4,1,5,2,6,3,7}
f32[1024,1024] {devices=[4,2]0,4,1,5,2,6,3,7}
f32[1024,1024] {devices=[4,2]0,4,1,5,2,6,3,7}
f32[1024,1024] {devices=[4,2]0,4,1,5,2,6,3,7}
f32[1024,1024] {devices=[4,2]0,4,1,5,2,6,3,7}
f32[1024,1024] {devices=[4,2]0,4,1,5,2,6,3,7}
f32[1024,1024] {devices=[4,2]0,4,1,5,2,6,3,7}
f32[1024,1024] {devices=[4,2]0,4,1,5,2,6,3,7}
f32[1024,1024] {devices=[4,2]0,4,1,5,2,6,3,7}
f32[1024,1024] {devices=[4,2]0,4,1,5,2,6,3,7}
f32[1024,1024] {devices=[4,2]0,4,1,5,2,6,3,7}
f32[1024,1024] {devices=[4,2]0,4,1,5,2,6,3,7}
f32[1024,1024] {devices=[4,2]0,4,1,5,2,6,3,7}
f32[1024,1024] {devices=[4,2]0,4,1,5,2,6,3,7}
f32[1024,1024] {devices=[4,2]0,4,1,5,2,6,3,7}
f32[1024,1024] {devices=[4,2]0,4,1,5,2,6,3,7}
f32[1024,1024] {devices=[4,2]0,4,1,5,2,6,3,7}
f32[1024,1024] {devices=[4,2]0,4,1,5,2,6,3,7}
f32[1024,1024] {devices=[4,2]0,4,1,5,2,6,3,7}
f32[1024,1024] {devices=[4,2]0,4,1,5,2,6,3,7}
f32[1024,1024] {devices=[4,2]0,4,1,5,2,6,3,7}
f32[1024,1024] {devices=[4,2]0,4,1,5,2,6,3,7}
f32[1024,1024] {devices=[4,2]0,4,1,5,2,6,3,7}
f32[1024,1024] {devices=[4,2]0,4,1,5,2,6,3,7}
f32[1024,1024] {devices=[4,2]0,4,1,5,2,6,3,7}
f32[1024,1024] {devices=[4,2]0,4,1,5,2,6,3,7}
f32[1024,1024] {devices=[4,2]0,4,1,5,2,6,3,7}
f32[1024,1024] {devices=[4,2]0,4,1,5,2,6,3,7}
f32[8192,1024] {devices=[2,4]0,1,2,3,4,5,6,7}
f32[8192,1024] {devices=[2,4]0,1,2,3,4,5,6,7}
f32[1024,1024] {devices=[4,2]0,4,1,5,2,6,3,7}
f32[512,1024] {devices=[4,2]0,4,1,5,2,6,3,7}
f32[512,1024] {devices=[4,2]0,4,1,5,2,6,3,7}
f32[1024,1024] {devices=[2,4]0,1,2,3,4,5,6,7}
f32[4096,1024] {devices=[4,2]0,4,1,5,2,6,3,7}
f32[4096,1024] {devices=[4,2]0,4,1,5,2,6,3,7}
f32[1024,4096] {devices=[2,4]0,1,2,3,4,5,6,7}
f32[1024] {replicated}
f32[1024] {replicated}
f32[1024,1024] {devices=[4,2]0,4,1,5,2,6,3,7}
f32[512,1024] {devices=[4,2]0,4,1,5,2,6,3,7}
f32[512,1024] {devices=[4,2]0,4,1,5,2,6,3,7}
f32[1024,1024] {devices=[2,4]0,1,2,3,4,5,6,7}
f32[4096,1024] {devices=[4,2]0,4,1,5,2,6,3,7}
f32[4096,1024] {devices=[4,2]0,4,1,5,2,6,3,7}
f32[1024,4096] {devices=[2,4]0,1,2,3,4,5,6,7}
f32[1024] {devices=[2,4]0,1,2,3,4,5,6,7 last_tile_dim_replicate}
f32[1024] {devices=[2,4]0,1,2,3,4,5,6,7 last_tile_dim_replicate}
f32[1024,1024] {devices=[4,2]0,4,1,5,2,6,3,7}
f32[512,1024] {devices=[4,2]0,4,1,5,2,6,3,7}
f32[512,1024] {devices=[4,2]0,4,1,5,2,6,3,7}
f32[1024,1024] {devices=[2,4]0,1,2,3,4,5,6,7}
f32[4096,1024] {devices=[4,2]0,4,1,5,2,6,3,7}
f32[4096,1024] {devices=[4,2]0,4,1,5,2,6,3,7}
f32[1024,4096] {devices=[2,4]0,1,2,3,4,5,6,7}
f32[1024] {devices=[2,4]0,1,2,3,4,5,6,7 last_tile_dim_replicate}
f32[1024] {devices=[2,4]0,1,2,3,4,5,6,7 last_tile_dim_replicate}
f32[1024,1024] {devices=[4,2]0,4,1,5,2,6,3,7}
f32[512,1024] {devices=[4,2]0,4,1,5,2,6,3,7}
f32[512,1024] {devices=[4,2]0,4,1,5,2,6,3,7}
f32[1024,1024] {devices=[2,4]0,1,2,3,4,5,6,7}
f32[4096,1024] {devices=[4,2]0,4,1,5,2,6,3,7}
f32[4096,1024] {devices=[4,2]0,4,1,5,2,6,3,7}
f32[1024,4096] {devices=[2,4]0,1,2,3,4,5,6,7}
f32[1024] {devices=[2,4]0,1,2,3,4,5,6,7 last_tile_dim_replicate}
f32[1024] {devices=[2,4]0,1,2,3,4,5,6,7 last_tile_dim_replicate}
f32[1024,1024] {devices=[4,2]0,4,1,5,2,6,3,7}
f32[512,1024] {devices=[4,2]0,4,1,5,2,6,3,7}
f32[512,1024] {devices=[4,2]0,4,1,5,2,6,3,7}
f32[1024,1024] {devices=[2,4]0,1,2,3,4,5,6,7}
f32[4096,1024] {devices=[4,2]0,4,1,5,2,6,3,7}
f32[4096,1024] {devices=[4,2]0,4,1,5,2,6,3,7}
f32[1024,4096] {devices=[2,4]0,1,2,3,4,5,6,7}
f32[1024] {devices=[2,4]0,1,2,3,4,5,6,7 last_tile_dim_replicate}
f32[1024] {devices=[2,4]0,1,2,3,4,5,6,7 last_tile_dim_replicate}
f32[1024,1024] {devices=[4,2]0,4,1,5,2,6,3,7}
f32[512,1024] {devices=[4,2]0,4,1,5,2,6,3,7}
f32[512,1024] {devices=[4,2]0,4,1,5,2,6,3,7}
f32[1024,1024] {devices=[2,4]0,1,2,3,4,5,6,7}
f32[4096,1024] {devices=[4,2]0,4,1,5,2,6,3,7}
f32[4096,1024] {devices=[4,2]0,4,1,5,2,6,3,7}
f32[1024,4096] {devices=[2,4]0,1,2,3,4,5,6,7}
f32[1024] {devices=[2,4]0,1,2,3,4,5,6,7 last_tile_dim_replicate}
f32[1024] {devices=[2,4]0,1,2,3,4,5,6,7 last_tile_dim_replicate}
f32[1024,1024] {devices=[4,2]0,4,1,5,2,6,3,7}
f32[512,1024] {devices=[4,2]0,4,1,5,2,6,3,7}
f32[512,1024] {devices=[4,2]0,4,1,5,2,6,3,7}
f32[1024,1024] {devices=[2,4]0,1,2,3,4,5,6,7}
f32[4096,1024] {devices=[4,2]0,4,1,5,2,6,3,7}
f32[4096,1024] {devices=[4,2]0,4,1,5,2,6,3,7}
f32[1024,4096] {devices=[2,4]0,1,2,3,4,5,6,7}
f32[1024] {devices=[2,4]0,1,2,3,4,5,6,7 last_tile_dim_replicate}
f32[1024] {devices=[2,4]0,1,2,3,4,5,6,7 last_tile_dim_replicate}
f32[1024,1024] {devices=[4,2]0,4,1,5,2,6,3,7}
f32[512,1024] {devices=[4,2]0,4,1,5,2,6,3,7}
f32[512,1024] {devices=[4,2]0,4,1,5,2,6,3,7}
f32[1024,1024] {devices=[2,4]0,1,2,3,4,5,6,7}
f32[4096,1024] {devices=[4,2]0,4,1,5,2,6,3,7}
f32[4096,1024] {devices=[4,2]0,4,1,5,2,6,3,7}
f32[1024,4096] {devices=[2,4]0,1,2,3,4,5,6,7}
f32[1024] {devices=[2,4]0,1,2,3,4,5,6,7 last_tile_dim_replicate}
f32[1024] {devices=[2,4]0,1,2,3,4,5,6,7 last_tile_dim_replicate}
f32[1024,1024] {devices=[4,2]0,4,1,5,2,6,3,7}
f32[512,1024] {devices=[4,2]0,4,1,5,2,6,3,7}
f32[512,1024] {devices=[4,2]0,4,1,5,2,6,3,7}
f32[1024,1024] {devices=[2,4]0,1,2,3,4,5,6,7}
f32[4096,1024] {devices=[4,2]0,4,1,5,2,6,3,7}
f32[4096,1024] {devices=[4,2]0,4,1,5,2,6,3,7}
f32[1024,4096] {devices=[2,4]0,1,2,3,4,5,6,7}
f32[1024] {devices=[2,4]0,1,2,3,4,5,6,7 last_tile_dim_replicate}
f32[1024] {devices=[2,4]0,1,2,3,4,5,6,7 last_tile_dim_replicate}
f32[1024,1024] {devices=[4,2]0,4,1,5,2,6,3,7}
f32[512,1024] {devices=[4,2]0,4,1,5,2,6,3,7}
f32[512,1024] {devices=[4,2]0,4,1,5,2,6,3,7}
f32[1024,1024] {devices=[2,4]0,1,2,3,4,5,6,7}
f32[4096,1024] {devices=[4,2]0,4,1,5,2,6,3,7}
f32[4096,1024] {devices=[4,2]0,4,1,5,2,6,3,7}
f32[1024,4096] {devices=[2,4]0,1,2,3,4,5,6,7}
f32[1024] {devices=[2,4]0,1,2,3,4,5,6,7 last_tile_dim_replicate}
f32[1024] {devices=[2,4]0,1,2,3,4,5,6,7 last_tile_dim_replicate}
f32[1024,1024] {devices=[4,2]0,4,1,5,2,6,3,7}
f32[512,1024] {devices=[4,2]0,4,1,5,2,6,3,7}
f32[512,1024] {devices=[4,2]0,4,1,5,2,6,3,7}
f32[1024,1024] {devices=[2,4]0,1,2,3,4,5,6,7}
f32[4096,1024] {devices=[4,2]0,4,1,5,2,6,3,7}
f32[4096,1024] {devices=[4,2]0,4,1,5,2,6,3,7}
f32[1024,4096] {devices=[2,4]0,1,2,3,4,5,6,7}
f32[1024] {devices=[2,4]0,1,2,3,4,5,6,7 last_tile_dim_replicate}
f32[1024] {devices=[2,4]0,1,2,3,4,5,6,7 last_tile_dim_replicate}
f32[1024,1024] {devices=[4,2]0,4,1,5,2,6,3,7}
f32[512,1024] {devices=[4,2]0,4,1,5,2,6,3,7}
f32[512,1024] {devices=[4,2]0,4,1,5,2,6,3,7}
f32[1024,1024] {devices=[2,4]0,1,2,3,4,5,6,7}
f32[4096,1024] {devices=[4,2]0,4,1,5,2,6,3,7}
f32[4096,1024] {devices=[4,2]0,4,1,5,2,6,3,7}
f32[1024,4096] {devices=[2,4]0,1,2,3,4,5,6,7}
f32[1024] {devices=[2,4]0,1,2,3,4,5,6,7 last_tile_dim_replicate}
f32[1024] {devices=[2,4]0,1,2,3,4,5,6,7 last_tile_dim_replicate}
f32[1024,1024] {devices=[4,2]0,4,1,5,2,6,3,7}
f32[512,1024] {devices=[4,2]0,4,1,5,2,6,3,7}
f32[512,1024] {devices=[4,2]0,4,1,5,2,6,3,7}
f32[1024,1024] {devices=[2,4]0,1,2,3,4,5,6,7}
f32[4096,1024] {devices=[4,2]0,4,1,5,2,6,3,7}
f32[4096,1024] {devices=[4,2]0,4,1,5,2,6,3,7}
f32[1024,4096] {devices=[2,4]0,1,2,3,4,5,6,7}
f32[1024] {devices=[2,4]0,1,2,3,4,5,6,7 last_tile_dim_replicate}
f32[1024] {devices=[2,4]0,1,2,3,4,5,6,7 last_tile_dim_replicate}
f32[1024,1024] {devices=[4,2]0,4,1,5,2,6,3,7}
f32[512,1024] {devices=[4,2]0,4,1,5,2,6,3,7}
f32[512,1024] {devices=[4,2]0,4,1,5,2,6,3,7}
f32[1024,1024] {devices=[2,4]0,1,2,3,4,5,6,7}
f32[4096,1024] {devices=[4,2]0,4,1,5,2,6,3,7}
f32[4096,1024] {devices=[4,2]0,4,1,5,2,6,3,7}
f32[1024,4096] {devices=[2,4]0,1,2,3,4,5,6,7}
f32[1024] {devices=[2,4]0,1,2,3,4,5,6,7 last_tile_dim_replicate}
f32[1024] {devices=[2,4]0,1,2,3,4,5,6,7 last_tile_dim_replicate}
f32[1024,1024] {devices=[4,2]0,4,1,5,2,6,3,7}
f32[512,1024] {devices=[4,2]0,4,1,5,2,6,3,7}
f32[512,1024] {devices=[4,2]0,4,1,5,2,6,3,7}
f32[1024,1024] {devices=[2,4]0,1,2,3,4,5,6,7}
f32[4096,1024] {devices=[4,2]0,4,1,5,2,6,3,7}
f32[4096,1024] {devices=[4,2]0,4,1,5,2,6,3,7}
f32[1024,4096] {devices=[2,4]0,1,2,3,4,5,6,7}
f32[1024] {devices=[2,4]0,1,2,3,4,5,6,7 last_tile_dim_replicate}
f32[1024] {devices=[2,4]0,1,2,3,4,5,6,7 last_tile_dim_replicate}
f32[1024,1024] {devices=[4,2]0,4,1,5,2,6,3,7}
f32[512,1024] {devices=[4,2]0,4,1,5,2,6,3,7}
f32[512,1024] {devices=[4,2]0,4,1,5,2,6,3,7}
f32[1024,1024] {devices=[2,4]0,1,2,3,4,5,6,7}
f32[4096,1024] {devices=[4,2]0,4,1,5,2,6,3,7}
f32[4096,1024] {devices=[4,2]0,4,1,5,2,6,3,7}
f32[1024,4096] {devices=[2,4]0,1,2,3,4,5,6,7}
f32[1024] {devices=[2,4]0,1,2,3,4,5,6,7 last_tile_dim_replicate}
f32[1024] {devices=[2,4]0,1,2,3,4,5,6,7 last_tile_dim_replicate}
f32[1024,1024] {devices=[4,2]0,4,1,5,2,6,3,7}
f32[512,1024] {devices=[4,2]0,4,1,5,2,6,3,7}
f32[512,1024] {devices=[4,2]0,4,1,5,2,6,3,7}
f32[1024,1024] {devices=[2,4]0,1,2,3,4,5,6,7}
f32[4096,1024] {devices=[4,2]0,4,1,5,2,6,3,7}
f32[4096,1024] {devices=[4,2]0,4,1,5,2,6,3,7}
f32[1024,4096] {devices=[2,4]0,1,2,3,4,5,6,7}
f32[1024] {devices=[2,4]0,1,2,3,4,5,6,7 last_tile_dim_replicate}
f32[1024] {devices=[2,4]0,1,2,3,4,5,6,7 last_tile_dim_replicate}
f32[1024,1024] {devices=[4,2]0,4,1,5,2,6,3,7}
f32[512,1024] {devices=[4,2]0,4,1,5,2,6,3,7}
f32[512,1024] {devices=[4,2]0,4,1,5,2,6,3,7}
f32[1024,1024] {devices=[2,4]0,1,2,3,4,5,6,7}
f32[4096,1024] {devices=[4,2]0,4,1,5,2,6,3,7}
f32[4096,1024] {devices=[4,2]0,4,1,5,2,6,3,7}
f32[1024,4096] {devices=[2,4]0,1,2,3,4,5,6,7}
f32[1024] {devices=[2,4]0,1,2,3,4,5,6,7 last_tile_dim_replicate}
f32[1024] {devices=[2,4]0,1,2,3,4,5,6,7 last_tile_dim_replicate}
f32[1024,1024] {devices=[4,2]0,4,1,5,2,6,3,7}
f32[512,1024] {devices=[4,2]0,4,1,5,2,6,3,7}
f32[512,1024] {devices=[4,2]0,4,1,5,2,6,3,7}
f32[1024,1024] {devices=[2,4]0,1,2,3,4,5,6,7}
f32[4096,1024] {devices=[4,2]0,4,1,5,2,6,3,7}
f32[4096,1024] {devices=[4,2]0,4,1,5,2,6,3,7}
f32[1024,4096] {devices=[2,4]0,1,2,3,4,5,6,7}
f32[1024] {devices=[2,4]0,1,2,3,4,5,6,7 last_tile_dim_replicate}
f32[1024] {devices=[2,4]0,1,2,3,4,5,6,7 last_tile_dim_replicate}
f32[1024,1024] {devices=[4,2]0,4,1,5,2,6,3,7}
f32[512,1024] {devices=[4,2]0,4,1,5,2,6,3,7}
f32[512,1024] {devices=[4,2]0,4,1,5,2,6,3,7}
f32[1024,1024] {devices=[2,4]0,1,2,3,4,5,6,7}
f32[4096,1024] {devices=[4,2]0,4,1,5,2,6,3,7}
f32[4096,1024] {devices=[4,2]0,4,1,5,2,6,3,7}
f32[1024,4096] {devices=[2,4]0,1,2,3,4,5,6,7}
f32[1024] {devices=[2,4]0,1,2,3,4,5,6,7 last_tile_dim_replicate}
f32[1024] {devices=[2,4]0,1,2,3,4,5,6,7 last_tile_dim_replicate}
f32[1024,1024] {devices=[4,2]0,4,1,5,2,6,3,7}
f32[512,1024] {devices=[4,2]0,4,1,5,2,6,3,7}
f32[512,1024] {devices=[4,2]0,4,1,5,2,6,3,7}
f32[1024,1024] {devices=[2,4]0,1,2,3,4,5,6,7}
f32[4096,1024] {devices=[4,2]0,4,1,5,2,6,3,7}
f32[4096,1024] {devices=[4,2]0,4,1,5,2,6,3,7}
f32[1024,4096] {devices=[2,4]0,1,2,3,4,5,6,7}
f32[1024] {devices=[2,4]0,1,2,3,4,5,6,7 last_tile_dim_replicate}
f32[1024] {devices=[2,4]0,1,2,3,4,5,6,7 last_tile_dim_replicate}
f32[1024,1024] {devices=[4,2]0,4,1,5,2,6,3,7}
f32[512,1024] {devices=[4,2]0,4,1,5,2,6,3,7}
f32[512,1024] {devices=[4,2]0,4,1,5,2,6,3,7}
f32[1024,1024] {devices=[2,4]0,1,2,3,4,5,6,7}
f32[4096,1024] {devices=[4,2]0,4,1,5,2,6,3,7}
f32[4096,1024] {devices=[4,2]0,4,1,5,2,6,3,7}
f32[1024,4096] {devices=[2,4]0,1,2,3,4,5,6,7}
f32[1024] {devices=[2,4]0,1,2,3,4,5,6,7 last_tile_dim_replicate}
f32[1024] {devices=[2,4]0,1,2,3,4,5,6,7 last_tile_dim_replicate}
f32[1024,1024] {devices=[4,2]0,4,1,5,2,6,3,7}
f32[512,1024] {devices=[4,2]0,4,1,5,2,6,3,7}
f32[512,1024] {devices=[4,2]0,4,1,5,2,6,3,7}
f32[1024,1024] {devices=[2,4]0,1,2,3,4,5,6,7}
f32[4096,1024] {devices=[4,2]0,4,1,5,2,6,3,7}
f32[4096,1024] {devices=[4,2]0,4,1,5,2,6,3,7}
f32[1024,4096] {devices=[2,4]0,1,2,3,4,5,6,7}
f32[1024] {devices=[2,4]0,1,2,3,4,5,6,7 last_tile_dim_replicate}
f32[1024] {devices=[2,4]0,1,2,3,4,5,6,7 last_tile_dim_replicate}
f32[1024,1024] {devices=[4,2]0,4,1,5,2,6,3,7}
f32[512,1024] {devices=[4,2]0,4,1,5,2,6,3,7}
f32[512,1024] {devices=[4,2]0,4,1,5,2,6,3,7}
f32[1024,1024] {devices=[2,4]0,1,2,3,4,5,6,7}
f32[4096,1024] {devices=[4,2]0,4,1,5,2,6,3,7}
f32[4096,1024] {devices=[4,2]0,4,1,5,2,6,3,7}
f32[1024,4096] {devices=[2,4]0,1,2,3,4,5,6,7}
f32[1024] {devices=[2,4]0,1,2,3,4,5,6,7 last_tile_dim_replicate}
f32[1024] {devices=[2,4]0,1,2,3,4,5,6,7 last_tile_dim_replicate}
f32[1024,1024] {devices=[4,2]0,4,1,5,2,6,3,7}
f32[512,1024] {devices=[4,2]0,4,1,5,2,6,3,7}
f32[512,1024] {devices=[4,2]0,4,1,5,2,6,3,7}
f32[1024,1024] {devices=[2,4]0,1,2,3,4,5,6,7}
f32[4096,1024] {devices=[4,2]0,4,1,5,2,6,3,7}
f32[4096,1024] {devices=[4,2]0,4,1,5,2,6,3,7}
f32[1024,4096] {devices=[2,4]0,1,2,3,4,5,6,7}
f32[1024] {devices=[2,4]0,1,2,3,4,5,6,7 last_tile_dim_replicate}
f32[1024] {devices=[2,4]0,1,2,3,4,5,6,7 last_tile_dim_replicate}
f32[1024,1024] {devices=[4,2]0,4,1,5,2,6,3,7}
f32[512,1024] {devices=[4,2]0,4,1,5,2,6,3,7}
f32[512,1024] {devices=[4,2]0,4,1,5,2,6,3,7}
f32[1024,1024] {devices=[2,4]0,1,2,3,4,5,6,7}
f32[4096,1024] {devices=[4,2]0,4,1,5,2,6,3,7}
f32[4096,1024] {devices=[4,2]0,4,1,5,2,6,3,7}
f32[1024,4096] {devices=[2,4]0,1,2,3,4,5,6,7}
f32[1024] {devices=[2,4]0,1,2,3,4,5,6,7 last_tile_dim_replicate}
f32[1024] {devices=[2,4]0,1,2,3,4,5,6,7 last_tile_dim_replicate}
f32[1024,1024] {devices=[4,2]0,4,1,5,2,6,3,7}
f32[512,1024] {devices=[4,2]0,4,1,5,2,6,3,7}
f32[512,1024] {devices=[4,2]0,4,1,5,2,6,3,7}
f32[1024,1024] {devices=[2,4]0,1,2,3,4,5,6,7}
f32[4096,1024] {devices=[4,2]0,4,1,5,2,6,3,7}
f32[4096,1024] {devices=[4,2]0,4,1,5,2,6,3,7}
f32[1024,4096] {devices=[2,4]0,1,2,3,4,5,6,7}
f32[1024] {devices=[2,4]0,1,2,3,4,5,6,7 last_tile_dim_replicate}
f32[1024] {devices=[2,4]0,1,2,3,4,5,6,7 last_tile_dim_replicate}
f32[1024,1024] {devices=[4,2]0,4,1,5,2,6,3,7}
f32[512,1024] {devices=[4,2]0,4,1,5,2,6,3,7}
f32[512,1024] {devices=[4,2]0,4,1,5,2,6,3,7}
f32[1024,1024] {devices=[2,4]0,1,2,3,4,5,6,7}
f32[4096,1024] {devices=[4,2]0,4,1,5,2,6,3,7}
f32[4096,1024] {devices=[4,2]0,4,1,5,2,6,3,7}
f32[1024,4096] {devices=[2,4]0,1,2,3,4,5,6,7}
f32[1024] {devices=[2,4]0,1,2,3,4,5,6,7 last_tile_dim_replicate}
f32[1024] {devices=[2,4]0,1,2,3,4,5,6,7 last_tile_dim_replicate}
f32[1024,1024] {devices=[4,2]0,4,1,5,2,6,3,7}
f32[512,1024] {devices=[4,2]0,4,1,5,2,6,3,7}
f32[512,1024] {devices=[4,2]0,4,1,5,2,6,3,7}
f32[1024,1024] {devices=[2,4]0,1,2,3,4,5,6,7}
f32[4096,1024] {devices=[4,2]0,4,1,5,2,6,3,7}
f32[4096,1024] {devices=[4,2]0,4,1,5,2,6,3,7}
f32[1024,4096] {devices=[2,4]0,1,2,3,4,5,6,7}
f32[1024] {devices=[2,4]0,1,2,3,4,5,6,7 last_tile_dim_replicate}
f32[1024] {devices=[2,4]0,1,2,3,4,5,6,7 last_tile_dim_replicate}
f32[1024,1024] {devices=[4,2]0,4,1,5,2,6,3,7}
f32[512,1024] {devices=[4,2]0,4,1,5,2,6,3,7}
f32[512,1024] {devices=[4,2]0,4,1,5,2,6,3,7}
f32[1024,1024] {devices=[2,4]0,1,2,3,4,5,6,7}
f32[4096,1024] {devices=[4,2]0,4,1,5,2,6,3,7}
f32[4096,1024] {devices=[4,2]0,4,1,5,2,6,3,7}
f32[1024,4096] {devices=[2,4]0,1,2,3,4,5,6,7}
f32[1024] {devices=[2,4]0,1,2,3,4,5,6,7 last_tile_dim_replicate}
f32[1024] {devices=[2,4]0,1,2,3,4,5,6,7 last_tile_dim_replicate}
f32[1024] {devices=[4,2]0,4,1,5,2,6,3,7 last_tile_dim_replicate}
f32[8192,1024] {devices=[8,1]0,4,1,5,2,6,3,7}

#OUTPUT_SHARDING_END

